{"modelTopology": {"model_config": {"config": {"input_layers": [["input_2", 0, 0]], "layers": [{"name": "input_2", "config": {"batch_input_shape": [null, 224, 224, 3], "sparse": false, "name": "input_2", "dtype": "float32"}, "class_name": "InputLayer", "inbound_nodes": []}, {"name": "zero_padding2d_1", "config": {"name": "zero_padding2d_1", "trainable": true, "data_format": "channels_last", "padding": [[3, 3], [3, 3]]}, "class_name": "ZeroPadding2D", "inbound_nodes": [[["input_2", 0, 0, {}]]]}, {"name": "conv1/conv", "config": {"trainable": true, "activation": "linear", "use_bias": false, "bias_initializer": {"config": {}, "class_name": "Zeros"}, "padding": "valid", "data_format": "channels_last", "filters": 64, "kernel_regularizer": null, "kernel_initializer": {"config": {"scale": 1.0, "mode": "fan_avg", "distribution": "uniform", "seed": null}, "class_name": "VarianceScaling"}, "activity_regularizer": null, "kernel_constraint": null, "kernel_size": [7, 7], "bias_regularizer": null, "dilation_rate": [1, 1], "name": "conv1/conv", "strides": [2, 2], "bias_constraint": null}, "class_name": "Conv2D", "inbound_nodes": [[["zero_padding2d_1", 0, 0, {}]]]}, {"name": "conv1/bn", "config": {"trainable": true, "gamma_regularizer": null, "scale": true, "momentum": 0.99, "center": true, "axis": 3, "beta_regularizer": null, "name": "conv1/bn", "moving_mean_initializer": {"config": {}, "class_name": "Zeros"}, "gamma_constraint": null, "moving_variance_initializer": {"config": {}, "class_name": "Ones"}, "beta_constraint": null, "gamma_initializer": {"config": {}, "class_name": "Ones"}, "epsilon": 1.001e-05, "beta_initializer": {"config": {}, "class_name": "Zeros"}}, "class_name": "BatchNormalization", "inbound_nodes": [[["conv1/conv", 0, 0, {}]]]}, {"name": "conv1/relu", "config": {"trainable": true, "activation": "relu", "name": "conv1/relu"}, "class_name": "Activation", "inbound_nodes": [[["conv1/bn", 0, 0, {}]]]}, {"name": "zero_padding2d_2", "config": {"name": "zero_padding2d_2", "trainable": true, "data_format": "channels_last", "padding": [[1, 1], [1, 1]]}, "class_name": "ZeroPadding2D", "inbound_nodes": [[["conv1/relu", 0, 0, {}]]]}, {"name": "pool1", "config": {"trainable": true, "name": "pool1", "data_format": "channels_last", "padding": "valid", "strides": [2, 2], "pool_size": [3, 3]}, "class_name": "MaxPooling2D", "inbound_nodes": [[["zero_padding2d_2", 0, 0, {}]]]}, {"name": "conv2_block1_0_bn", "config": {"trainable": true, "gamma_regularizer": null, "scale": true, "momentum": 0.99, "center": true, "axis": 3, "beta_regularizer": null, "name": "conv2_block1_0_bn", "moving_mean_initializer": {"config": {}, "class_name": "Zeros"}, "gamma_constraint": null, "moving_variance_initializer": {"config": {}, "class_name": "Ones"}, "beta_constraint": null, "gamma_initializer": {"config": {}, "class_name": "Ones"}, "epsilon": 1.001e-05, "beta_initializer": {"config": {}, "class_name": "Zeros"}}, "class_name": "BatchNormalization", "inbound_nodes": [[["pool1", 0, 0, {}]]]}, {"name": "conv2_block1_0_relu", "config": {"trainable": true, "activation": "relu", "name": "conv2_block1_0_relu"}, "class_name": "Activation", "inbound_nodes": [[["conv2_block1_0_bn", 0, 0, {}]]]}, {"name": "conv2_block1_1_conv", "config": {"trainable": true, "activation": "linear", "use_bias": false, "bias_initializer": {"config": {}, "class_name": "Zeros"}, "padding": "valid", "data_format": "channels_last", "filters": 128, "kernel_regularizer": null, "kernel_initializer": {"config": {"scale": 1.0, "mode": "fan_avg", "distribution": "uniform", "seed": null}, "class_name": "VarianceScaling"}, "activity_regularizer": null, "kernel_constraint": null, "kernel_size": [1, 1], "bias_regularizer": null, "dilation_rate": [1, 1], "name": "conv2_block1_1_conv", "strides": [1, 1], "bias_constraint": null}, "class_name": "Conv2D", "inbound_nodes": [[["conv2_block1_0_relu", 0, 0, {}]]]}, {"name": "conv2_block1_1_bn", "config": {"trainable": true, "gamma_regularizer": null, "scale": true, "momentum": 0.99, "center": true, "axis": 3, "beta_regularizer": null, "name": "conv2_block1_1_bn", "moving_mean_initializer": {"config": {}, "class_name": "Zeros"}, "gamma_constraint": null, "moving_variance_initializer": {"config": {}, "class_name": "Ones"}, "beta_constraint": null, "gamma_initializer": {"config": {}, "class_name": "Ones"}, "epsilon": 1.001e-05, "beta_initializer": {"config": {}, "class_name": "Zeros"}}, "class_name": "BatchNormalization", "inbound_nodes": [[["conv2_block1_1_conv", 0, 0, {}]]]}, {"name": "conv2_block1_1_relu", "config": {"trainable": true, "activation": "relu", "name": "conv2_block1_1_relu"}, "class_name": "Activation", "inbound_nodes": [[["conv2_block1_1_bn", 0, 0, {}]]]}, {"name": "conv2_block1_2_conv", "config": {"trainable": true, "activation": "linear", "use_bias": false, "bias_initializer": {"config": {}, "class_name": "Zeros"}, "padding": "same", "data_format": "channels_last", "filters": 32, "kernel_regularizer": null, "kernel_initializer": {"config": {"scale": 1.0, "mode": "fan_avg", "distribution": "uniform", "seed": null}, "class_name": "VarianceScaling"}, "activity_regularizer": null, "kernel_constraint": null, "kernel_size": [3, 3], "bias_regularizer": null, "dilation_rate": [1, 1], "name": "conv2_block1_2_conv", "strides": [1, 1], "bias_constraint": null}, "class_name": "Conv2D", "inbound_nodes": [[["conv2_block1_1_relu", 0, 0, {}]]]}, {"name": "conv2_block1_concat", "config": {"trainable": true, "name": "conv2_block1_concat", "axis": 3}, "class_name": "Concatenate", "inbound_nodes": [[["pool1", 0, 0, {}], ["conv2_block1_2_conv", 0, 0, {}]]]}, {"name": "conv2_block2_0_bn", "config": {"trainable": true, "gamma_regularizer": null, "scale": true, "momentum": 0.99, "center": true, "axis": 3, "beta_regularizer": null, "name": "conv2_block2_0_bn", "moving_mean_initializer": {"config": {}, "class_name": "Zeros"}, "gamma_constraint": null, "moving_variance_initializer": {"config": {}, "class_name": "Ones"}, "beta_constraint": null, "gamma_initializer": {"config": {}, "class_name": "Ones"}, "epsilon": 1.001e-05, "beta_initializer": {"config": {}, "class_name": "Zeros"}}, "class_name": "BatchNormalization", "inbound_nodes": [[["conv2_block1_concat", 0, 0, {}]]]}, {"name": "conv2_block2_0_relu", "config": {"trainable": true, "activation": "relu", "name": "conv2_block2_0_relu"}, "class_name": "Activation", "inbound_nodes": [[["conv2_block2_0_bn", 0, 0, {}]]]}, {"name": "conv2_block2_1_conv", "config": {"trainable": true, "activation": "linear", "use_bias": false, "bias_initializer": {"config": {}, "class_name": "Zeros"}, "padding": "valid", "data_format": "channels_last", "filters": 128, "kernel_regularizer": null, "kernel_initializer": {"config": {"scale": 1.0, "mode": "fan_avg", "distribution": "uniform", "seed": null}, "class_name": "VarianceScaling"}, "activity_regularizer": null, "kernel_constraint": null, "kernel_size": [1, 1], "bias_regularizer": null, "dilation_rate": [1, 1], "name": "conv2_block2_1_conv", "strides": [1, 1], "bias_constraint": null}, "class_name": "Conv2D", "inbound_nodes": [[["conv2_block2_0_relu", 0, 0, {}]]]}, {"name": "conv2_block2_1_bn", "config": {"trainable": true, "gamma_regularizer": null, "scale": true, "momentum": 0.99, "center": true, "axis": 3, "beta_regularizer": null, "name": "conv2_block2_1_bn", "moving_mean_initializer": {"config": {}, "class_name": "Zeros"}, "gamma_constraint": null, "moving_variance_initializer": {"config": {}, "class_name": "Ones"}, "beta_constraint": null, "gamma_initializer": {"config": {}, "class_name": "Ones"}, "epsilon": 1.001e-05, "beta_initializer": {"config": {}, "class_name": "Zeros"}}, "class_name": "BatchNormalization", "inbound_nodes": [[["conv2_block2_1_conv", 0, 0, {}]]]}, {"name": "conv2_block2_1_relu", "config": {"trainable": true, "activation": "relu", "name": "conv2_block2_1_relu"}, "class_name": "Activation", "inbound_nodes": [[["conv2_block2_1_bn", 0, 0, {}]]]}, {"name": "conv2_block2_2_conv", "config": {"trainable": true, "activation": "linear", "use_bias": false, "bias_initializer": {"config": {}, "class_name": "Zeros"}, "padding": "same", "data_format": "channels_last", "filters": 32, "kernel_regularizer": null, "kernel_initializer": {"config": {"scale": 1.0, "mode": "fan_avg", "distribution": "uniform", "seed": null}, "class_name": "VarianceScaling"}, "activity_regularizer": null, "kernel_constraint": null, "kernel_size": [3, 3], "bias_regularizer": null, "dilation_rate": [1, 1], "name": "conv2_block2_2_conv", "strides": [1, 1], "bias_constraint": null}, "class_name": "Conv2D", "inbound_nodes": [[["conv2_block2_1_relu", 0, 0, {}]]]}, {"name": "conv2_block2_concat", "config": {"trainable": true, "name": "conv2_block2_concat", "axis": 3}, "class_name": "Concatenate", "inbound_nodes": [[["conv2_block1_concat", 0, 0, {}], ["conv2_block2_2_conv", 0, 0, {}]]]}, {"name": "conv2_block3_0_bn", "config": {"trainable": true, "gamma_regularizer": null, "scale": true, "momentum": 0.99, "center": true, "axis": 3, "beta_regularizer": null, "name": "conv2_block3_0_bn", "moving_mean_initializer": {"config": {}, "class_name": "Zeros"}, "gamma_constraint": null, "moving_variance_initializer": {"config": {}, "class_name": "Ones"}, "beta_constraint": null, "gamma_initializer": {"config": {}, "class_name": "Ones"}, "epsilon": 1.001e-05, "beta_initializer": {"config": {}, "class_name": "Zeros"}}, "class_name": "BatchNormalization", "inbound_nodes": [[["conv2_block2_concat", 0, 0, {}]]]}, {"name": "conv2_block3_0_relu", "config": {"trainable": true, "activation": "relu", "name": "conv2_block3_0_relu"}, "class_name": "Activation", "inbound_nodes": [[["conv2_block3_0_bn", 0, 0, {}]]]}, {"name": "conv2_block3_1_conv", "config": {"trainable": true, "activation": "linear", "use_bias": false, "bias_initializer": {"config": {}, "class_name": "Zeros"}, "padding": "valid", "data_format": "channels_last", "filters": 128, "kernel_regularizer": null, "kernel_initializer": {"config": {"scale": 1.0, "mode": "fan_avg", "distribution": "uniform", "seed": null}, "class_name": "VarianceScaling"}, "activity_regularizer": null, "kernel_constraint": null, "kernel_size": [1, 1], "bias_regularizer": null, "dilation_rate": [1, 1], "name": "conv2_block3_1_conv", "strides": [1, 1], "bias_constraint": null}, "class_name": "Conv2D", "inbound_nodes": [[["conv2_block3_0_relu", 0, 0, {}]]]}, {"name": "conv2_block3_1_bn", "config": {"trainable": true, "gamma_regularizer": null, "scale": true, "momentum": 0.99, "center": true, "axis": 3, "beta_regularizer": null, "name": "conv2_block3_1_bn", "moving_mean_initializer": {"config": {}, "class_name": "Zeros"}, "gamma_constraint": null, "moving_variance_initializer": {"config": {}, "class_name": "Ones"}, "beta_constraint": null, "gamma_initializer": {"config": {}, "class_name": "Ones"}, "epsilon": 1.001e-05, "beta_initializer": {"config": {}, "class_name": "Zeros"}}, "class_name": "BatchNormalization", "inbound_nodes": [[["conv2_block3_1_conv", 0, 0, {}]]]}, {"name": "conv2_block3_1_relu", "config": {"trainable": true, "activation": "relu", "name": "conv2_block3_1_relu"}, "class_name": "Activation", "inbound_nodes": [[["conv2_block3_1_bn", 0, 0, {}]]]}, {"name": "conv2_block3_2_conv", "config": {"trainable": true, "activation": "linear", "use_bias": false, "bias_initializer": {"config": {}, "class_name": "Zeros"}, "padding": "same", "data_format": "channels_last", "filters": 32, "kernel_regularizer": null, "kernel_initializer": {"config": {"scale": 1.0, "mode": "fan_avg", "distribution": "uniform", "seed": null}, "class_name": "VarianceScaling"}, "activity_regularizer": null, "kernel_constraint": null, "kernel_size": [3, 3], "bias_regularizer": null, "dilation_rate": [1, 1], "name": "conv2_block3_2_conv", "strides": [1, 1], "bias_constraint": null}, "class_name": "Conv2D", "inbound_nodes": [[["conv2_block3_1_relu", 0, 0, {}]]]}, {"name": "conv2_block3_concat", "config": {"trainable": true, "name": "conv2_block3_concat", "axis": 3}, "class_name": "Concatenate", "inbound_nodes": [[["conv2_block2_concat", 0, 0, {}], ["conv2_block3_2_conv", 0, 0, {}]]]}, {"name": "conv2_block4_0_bn", "config": {"trainable": true, "gamma_regularizer": null, "scale": true, "momentum": 0.99, "center": true, "axis": 3, "beta_regularizer": null, "name": "conv2_block4_0_bn", "moving_mean_initializer": {"config": {}, "class_name": "Zeros"}, "gamma_constraint": null, "moving_variance_initializer": {"config": {}, "class_name": "Ones"}, "beta_constraint": null, "gamma_initializer": {"config": {}, "class_name": "Ones"}, "epsilon": 1.001e-05, "beta_initializer": {"config": {}, "class_name": "Zeros"}}, "class_name": "BatchNormalization", "inbound_nodes": [[["conv2_block3_concat", 0, 0, {}]]]}, {"name": "conv2_block4_0_relu", "config": {"trainable": true, "activation": "relu", "name": "conv2_block4_0_relu"}, "class_name": "Activation", "inbound_nodes": [[["conv2_block4_0_bn", 0, 0, {}]]]}, {"name": "conv2_block4_1_conv", "config": {"trainable": true, "activation": "linear", "use_bias": false, "bias_initializer": {"config": {}, "class_name": "Zeros"}, "padding": "valid", "data_format": "channels_last", "filters": 128, "kernel_regularizer": null, "kernel_initializer": {"config": {"scale": 1.0, "mode": "fan_avg", "distribution": "uniform", "seed": null}, "class_name": "VarianceScaling"}, "activity_regularizer": null, "kernel_constraint": null, "kernel_size": [1, 1], "bias_regularizer": null, "dilation_rate": [1, 1], "name": "conv2_block4_1_conv", "strides": [1, 1], "bias_constraint": null}, "class_name": "Conv2D", "inbound_nodes": [[["conv2_block4_0_relu", 0, 0, {}]]]}, {"name": "conv2_block4_1_bn", "config": {"trainable": true, "gamma_regularizer": null, "scale": true, "momentum": 0.99, "center": true, "axis": 3, "beta_regularizer": null, "name": "conv2_block4_1_bn", "moving_mean_initializer": {"config": {}, "class_name": "Zeros"}, "gamma_constraint": null, "moving_variance_initializer": {"config": {}, "class_name": "Ones"}, "beta_constraint": null, "gamma_initializer": {"config": {}, "class_name": "Ones"}, "epsilon": 1.001e-05, "beta_initializer": {"config": {}, "class_name": "Zeros"}}, "class_name": "BatchNormalization", "inbound_nodes": [[["conv2_block4_1_conv", 0, 0, {}]]]}, {"name": "conv2_block4_1_relu", "config": {"trainable": true, "activation": "relu", "name": "conv2_block4_1_relu"}, "class_name": "Activation", "inbound_nodes": [[["conv2_block4_1_bn", 0, 0, {}]]]}, {"name": "conv2_block4_2_conv", "config": {"trainable": true, "activation": "linear", "use_bias": false, "bias_initializer": {"config": {}, "class_name": "Zeros"}, "padding": "same", "data_format": "channels_last", "filters": 32, "kernel_regularizer": null, "kernel_initializer": {"config": {"scale": 1.0, "mode": "fan_avg", "distribution": "uniform", "seed": null}, "class_name": "VarianceScaling"}, "activity_regularizer": null, "kernel_constraint": null, "kernel_size": [3, 3], "bias_regularizer": null, "dilation_rate": [1, 1], "name": "conv2_block4_2_conv", "strides": [1, 1], "bias_constraint": null}, "class_name": "Conv2D", "inbound_nodes": [[["conv2_block4_1_relu", 0, 0, {}]]]}, {"name": "conv2_block4_concat", "config": {"trainable": true, "name": "conv2_block4_concat", "axis": 3}, "class_name": "Concatenate", "inbound_nodes": [[["conv2_block3_concat", 0, 0, {}], ["conv2_block4_2_conv", 0, 0, {}]]]}, {"name": "conv2_block5_0_bn", "config": {"trainable": true, "gamma_regularizer": null, "scale": true, "momentum": 0.99, "center": true, "axis": 3, "beta_regularizer": null, "name": "conv2_block5_0_bn", "moving_mean_initializer": {"config": {}, "class_name": "Zeros"}, "gamma_constraint": null, "moving_variance_initializer": {"config": {}, "class_name": "Ones"}, "beta_constraint": null, "gamma_initializer": {"config": {}, "class_name": "Ones"}, "epsilon": 1.001e-05, "beta_initializer": {"config": {}, "class_name": "Zeros"}}, "class_name": "BatchNormalization", "inbound_nodes": [[["conv2_block4_concat", 0, 0, {}]]]}, {"name": "conv2_block5_0_relu", "config": {"trainable": true, "activation": "relu", "name": "conv2_block5_0_relu"}, "class_name": "Activation", "inbound_nodes": [[["conv2_block5_0_bn", 0, 0, {}]]]}, {"name": "conv2_block5_1_conv", "config": {"trainable": true, "activation": "linear", "use_bias": false, "bias_initializer": {"config": {}, "class_name": "Zeros"}, "padding": "valid", "data_format": "channels_last", "filters": 128, "kernel_regularizer": null, "kernel_initializer": {"config": {"scale": 1.0, "mode": "fan_avg", "distribution": "uniform", "seed": null}, "class_name": "VarianceScaling"}, "activity_regularizer": null, "kernel_constraint": null, "kernel_size": [1, 1], "bias_regularizer": null, "dilation_rate": [1, 1], "name": "conv2_block5_1_conv", "strides": [1, 1], "bias_constraint": null}, "class_name": "Conv2D", "inbound_nodes": [[["conv2_block5_0_relu", 0, 0, {}]]]}, {"name": "conv2_block5_1_bn", "config": {"trainable": true, "gamma_regularizer": null, "scale": true, "momentum": 0.99, "center": true, "axis": 3, "beta_regularizer": null, "name": "conv2_block5_1_bn", "moving_mean_initializer": {"config": {}, "class_name": "Zeros"}, "gamma_constraint": null, "moving_variance_initializer": {"config": {}, "class_name": "Ones"}, "beta_constraint": null, "gamma_initializer": {"config": {}, "class_name": "Ones"}, "epsilon": 1.001e-05, "beta_initializer": {"config": {}, "class_name": "Zeros"}}, "class_name": "BatchNormalization", "inbound_nodes": [[["conv2_block5_1_conv", 0, 0, {}]]]}, {"name": "conv2_block5_1_relu", "config": {"trainable": true, "activation": "relu", "name": "conv2_block5_1_relu"}, "class_name": "Activation", "inbound_nodes": [[["conv2_block5_1_bn", 0, 0, {}]]]}, {"name": "conv2_block5_2_conv", "config": {"trainable": true, "activation": "linear", "use_bias": false, "bias_initializer": {"config": {}, "class_name": "Zeros"}, "padding": "same", "data_format": "channels_last", "filters": 32, "kernel_regularizer": null, "kernel_initializer": {"config": {"scale": 1.0, "mode": "fan_avg", "distribution": "uniform", "seed": null}, "class_name": "VarianceScaling"}, "activity_regularizer": null, "kernel_constraint": null, "kernel_size": [3, 3], "bias_regularizer": null, "dilation_rate": [1, 1], "name": "conv2_block5_2_conv", "strides": [1, 1], "bias_constraint": null}, "class_name": "Conv2D", "inbound_nodes": [[["conv2_block5_1_relu", 0, 0, {}]]]}, {"name": "conv2_block5_concat", "config": {"trainable": true, "name": "conv2_block5_concat", "axis": 3}, "class_name": "Concatenate", "inbound_nodes": [[["conv2_block4_concat", 0, 0, {}], ["conv2_block5_2_conv", 0, 0, {}]]]}, {"name": "conv2_block6_0_bn", "config": {"trainable": true, "gamma_regularizer": null, "scale": true, "momentum": 0.99, "center": true, "axis": 3, "beta_regularizer": null, "name": "conv2_block6_0_bn", "moving_mean_initializer": {"config": {}, "class_name": "Zeros"}, "gamma_constraint": null, "moving_variance_initializer": {"config": {}, "class_name": "Ones"}, "beta_constraint": null, "gamma_initializer": {"config": {}, "class_name": "Ones"}, "epsilon": 1.001e-05, "beta_initializer": {"config": {}, "class_name": "Zeros"}}, "class_name": "BatchNormalization", "inbound_nodes": [[["conv2_block5_concat", 0, 0, {}]]]}, {"name": "conv2_block6_0_relu", "config": {"trainable": true, "activation": "relu", "name": "conv2_block6_0_relu"}, "class_name": "Activation", "inbound_nodes": [[["conv2_block6_0_bn", 0, 0, {}]]]}, {"name": "conv2_block6_1_conv", "config": {"trainable": true, "activation": "linear", "use_bias": false, "bias_initializer": {"config": {}, "class_name": "Zeros"}, "padding": "valid", "data_format": "channels_last", "filters": 128, "kernel_regularizer": null, "kernel_initializer": {"config": {"scale": 1.0, "mode": "fan_avg", "distribution": "uniform", "seed": null}, "class_name": "VarianceScaling"}, "activity_regularizer": null, "kernel_constraint": null, "kernel_size": [1, 1], "bias_regularizer": null, "dilation_rate": [1, 1], "name": "conv2_block6_1_conv", "strides": [1, 1], "bias_constraint": null}, "class_name": "Conv2D", "inbound_nodes": [[["conv2_block6_0_relu", 0, 0, {}]]]}, {"name": "conv2_block6_1_bn", "config": {"trainable": true, "gamma_regularizer": null, "scale": true, "momentum": 0.99, "center": true, "axis": 3, "beta_regularizer": null, "name": "conv2_block6_1_bn", "moving_mean_initializer": {"config": {}, "class_name": "Zeros"}, "gamma_constraint": null, "moving_variance_initializer": {"config": {}, "class_name": "Ones"}, "beta_constraint": null, "gamma_initializer": {"config": {}, "class_name": "Ones"}, "epsilon": 1.001e-05, "beta_initializer": {"config": {}, "class_name": "Zeros"}}, "class_name": "BatchNormalization", "inbound_nodes": [[["conv2_block6_1_conv", 0, 0, {}]]]}, {"name": "conv2_block6_1_relu", "config": {"trainable": true, "activation": "relu", "name": "conv2_block6_1_relu"}, "class_name": "Activation", "inbound_nodes": [[["conv2_block6_1_bn", 0, 0, {}]]]}, {"name": "conv2_block6_2_conv", "config": {"trainable": true, "activation": "linear", "use_bias": false, "bias_initializer": {"config": {}, "class_name": "Zeros"}, "padding": "same", "data_format": "channels_last", "filters": 32, "kernel_regularizer": null, "kernel_initializer": {"config": {"scale": 1.0, "mode": "fan_avg", "distribution": "uniform", "seed": null}, "class_name": "VarianceScaling"}, "activity_regularizer": null, "kernel_constraint": null, "kernel_size": [3, 3], "bias_regularizer": null, "dilation_rate": [1, 1], "name": "conv2_block6_2_conv", "strides": [1, 1], "bias_constraint": null}, "class_name": "Conv2D", "inbound_nodes": [[["conv2_block6_1_relu", 0, 0, {}]]]}, {"name": "conv2_block6_concat", "config": {"trainable": true, "name": "conv2_block6_concat", "axis": 3}, "class_name": "Concatenate", "inbound_nodes": [[["conv2_block5_concat", 0, 0, {}], ["conv2_block6_2_conv", 0, 0, {}]]]}, {"name": "pool2_bn", "config": {"trainable": true, "gamma_regularizer": null, "scale": true, "momentum": 0.99, "center": true, "axis": 3, "beta_regularizer": null, "name": "pool2_bn", "moving_mean_initializer": {"config": {}, "class_name": "Zeros"}, "gamma_constraint": null, "moving_variance_initializer": {"config": {}, "class_name": "Ones"}, "beta_constraint": null, "gamma_initializer": {"config": {}, "class_name": "Ones"}, "epsilon": 1.001e-05, "beta_initializer": {"config": {}, "class_name": "Zeros"}}, "class_name": "BatchNormalization", "inbound_nodes": [[["conv2_block6_concat", 0, 0, {}]]]}, {"name": "pool2_relu", "config": {"trainable": true, "activation": "relu", "name": "pool2_relu"}, "class_name": "Activation", "inbound_nodes": [[["pool2_bn", 0, 0, {}]]]}, {"name": "pool2_conv", "config": {"trainable": true, "activation": "linear", "use_bias": false, "bias_initializer": {"config": {}, "class_name": "Zeros"}, "padding": "valid", "data_format": "channels_last", "filters": 128, "kernel_regularizer": null, "kernel_initializer": {"config": {"scale": 1.0, "mode": "fan_avg", "distribution": "uniform", "seed": null}, "class_name": "VarianceScaling"}, "activity_regularizer": null, "kernel_constraint": null, "kernel_size": [1, 1], "bias_regularizer": null, "dilation_rate": [1, 1], "name": "pool2_conv", "strides": [1, 1], "bias_constraint": null}, "class_name": "Conv2D", "inbound_nodes": [[["pool2_relu", 0, 0, {}]]]}, {"name": "pool2_pool", "config": {"trainable": true, "name": "pool2_pool", "data_format": "channels_last", "padding": "valid", "strides": [2, 2], "pool_size": [2, 2]}, "class_name": "AveragePooling2D", "inbound_nodes": [[["pool2_conv", 0, 0, {}]]]}, {"name": "conv3_block1_0_bn", "config": {"trainable": true, "gamma_regularizer": null, "scale": true, "momentum": 0.99, "center": true, "axis": 3, "beta_regularizer": null, "name": "conv3_block1_0_bn", "moving_mean_initializer": {"config": {}, "class_name": "Zeros"}, "gamma_constraint": null, "moving_variance_initializer": {"config": {}, "class_name": "Ones"}, "beta_constraint": null, "gamma_initializer": {"config": {}, "class_name": "Ones"}, "epsilon": 1.001e-05, "beta_initializer": {"config": {}, "class_name": "Zeros"}}, "class_name": "BatchNormalization", "inbound_nodes": [[["pool2_pool", 0, 0, {}]]]}, {"name": "conv3_block1_0_relu", "config": {"trainable": true, "activation": "relu", "name": "conv3_block1_0_relu"}, "class_name": "Activation", "inbound_nodes": [[["conv3_block1_0_bn", 0, 0, {}]]]}, {"name": "conv3_block1_1_conv", "config": {"trainable": true, "activation": "linear", "use_bias": false, "bias_initializer": {"config": {}, "class_name": "Zeros"}, "padding": "valid", "data_format": "channels_last", "filters": 128, "kernel_regularizer": null, "kernel_initializer": {"config": {"scale": 1.0, "mode": "fan_avg", "distribution": "uniform", "seed": null}, "class_name": "VarianceScaling"}, "activity_regularizer": null, "kernel_constraint": null, "kernel_size": [1, 1], "bias_regularizer": null, "dilation_rate": [1, 1], "name": "conv3_block1_1_conv", "strides": [1, 1], "bias_constraint": null}, "class_name": "Conv2D", "inbound_nodes": [[["conv3_block1_0_relu", 0, 0, {}]]]}, {"name": "conv3_block1_1_bn", "config": {"trainable": true, "gamma_regularizer": null, "scale": true, "momentum": 0.99, "center": true, "axis": 3, "beta_regularizer": null, "name": "conv3_block1_1_bn", "moving_mean_initializer": {"config": {}, "class_name": "Zeros"}, "gamma_constraint": null, "moving_variance_initializer": {"config": {}, "class_name": "Ones"}, "beta_constraint": null, "gamma_initializer": {"config": {}, "class_name": "Ones"}, "epsilon": 1.001e-05, "beta_initializer": {"config": {}, "class_name": "Zeros"}}, "class_name": "BatchNormalization", "inbound_nodes": [[["conv3_block1_1_conv", 0, 0, {}]]]}, {"name": "conv3_block1_1_relu", "config": {"trainable": true, "activation": "relu", "name": "conv3_block1_1_relu"}, "class_name": "Activation", "inbound_nodes": [[["conv3_block1_1_bn", 0, 0, {}]]]}, {"name": "conv3_block1_2_conv", "config": {"trainable": true, "activation": "linear", "use_bias": false, "bias_initializer": {"config": {}, "class_name": "Zeros"}, "padding": "same", "data_format": "channels_last", "filters": 32, "kernel_regularizer": null, "kernel_initializer": {"config": {"scale": 1.0, "mode": "fan_avg", "distribution": "uniform", "seed": null}, "class_name": "VarianceScaling"}, "activity_regularizer": null, "kernel_constraint": null, "kernel_size": [3, 3], "bias_regularizer": null, "dilation_rate": [1, 1], "name": "conv3_block1_2_conv", "strides": [1, 1], "bias_constraint": null}, "class_name": "Conv2D", "inbound_nodes": [[["conv3_block1_1_relu", 0, 0, {}]]]}, {"name": "conv3_block1_concat", "config": {"trainable": true, "name": "conv3_block1_concat", "axis": 3}, "class_name": "Concatenate", "inbound_nodes": [[["pool2_pool", 0, 0, {}], ["conv3_block1_2_conv", 0, 0, {}]]]}, {"name": "conv3_block2_0_bn", "config": {"trainable": true, "gamma_regularizer": null, "scale": true, "momentum": 0.99, "center": true, "axis": 3, "beta_regularizer": null, "name": "conv3_block2_0_bn", "moving_mean_initializer": {"config": {}, "class_name": "Zeros"}, "gamma_constraint": null, "moving_variance_initializer": {"config": {}, "class_name": "Ones"}, "beta_constraint": null, "gamma_initializer": {"config": {}, "class_name": "Ones"}, "epsilon": 1.001e-05, "beta_initializer": {"config": {}, "class_name": "Zeros"}}, "class_name": "BatchNormalization", "inbound_nodes": [[["conv3_block1_concat", 0, 0, {}]]]}, {"name": "conv3_block2_0_relu", "config": {"trainable": true, "activation": "relu", "name": "conv3_block2_0_relu"}, "class_name": "Activation", "inbound_nodes": [[["conv3_block2_0_bn", 0, 0, {}]]]}, {"name": "conv3_block2_1_conv", "config": {"trainable": true, "activation": "linear", "use_bias": false, "bias_initializer": {"config": {}, "class_name": "Zeros"}, "padding": "valid", "data_format": "channels_last", "filters": 128, "kernel_regularizer": null, "kernel_initializer": {"config": {"scale": 1.0, "mode": "fan_avg", "distribution": "uniform", "seed": null}, "class_name": "VarianceScaling"}, "activity_regularizer": null, "kernel_constraint": null, "kernel_size": [1, 1], "bias_regularizer": null, "dilation_rate": [1, 1], "name": "conv3_block2_1_conv", "strides": [1, 1], "bias_constraint": null}, "class_name": "Conv2D", "inbound_nodes": [[["conv3_block2_0_relu", 0, 0, {}]]]}, {"name": "conv3_block2_1_bn", "config": {"trainable": true, "gamma_regularizer": null, "scale": true, "momentum": 0.99, "center": true, "axis": 3, "beta_regularizer": null, "name": "conv3_block2_1_bn", "moving_mean_initializer": {"config": {}, "class_name": "Zeros"}, "gamma_constraint": null, "moving_variance_initializer": {"config": {}, "class_name": "Ones"}, "beta_constraint": null, "gamma_initializer": {"config": {}, "class_name": "Ones"}, "epsilon": 1.001e-05, "beta_initializer": {"config": {}, "class_name": "Zeros"}}, "class_name": "BatchNormalization", "inbound_nodes": [[["conv3_block2_1_conv", 0, 0, {}]]]}, {"name": "conv3_block2_1_relu", "config": {"trainable": true, "activation": "relu", "name": "conv3_block2_1_relu"}, "class_name": "Activation", "inbound_nodes": [[["conv3_block2_1_bn", 0, 0, {}]]]}, {"name": "conv3_block2_2_conv", "config": {"trainable": true, "activation": "linear", "use_bias": false, "bias_initializer": {"config": {}, "class_name": "Zeros"}, "padding": "same", "data_format": "channels_last", "filters": 32, "kernel_regularizer": null, "kernel_initializer": {"config": {"scale": 1.0, "mode": "fan_avg", "distribution": "uniform", "seed": null}, "class_name": "VarianceScaling"}, "activity_regularizer": null, "kernel_constraint": null, "kernel_size": [3, 3], "bias_regularizer": null, "dilation_rate": [1, 1], "name": "conv3_block2_2_conv", "strides": [1, 1], "bias_constraint": null}, "class_name": "Conv2D", "inbound_nodes": [[["conv3_block2_1_relu", 0, 0, {}]]]}, {"name": "conv3_block2_concat", "config": {"trainable": true, "name": "conv3_block2_concat", "axis": 3}, "class_name": "Concatenate", "inbound_nodes": [[["conv3_block1_concat", 0, 0, {}], ["conv3_block2_2_conv", 0, 0, {}]]]}, {"name": "conv3_block3_0_bn", "config": {"trainable": true, "gamma_regularizer": null, "scale": true, "momentum": 0.99, "center": true, "axis": 3, "beta_regularizer": null, "name": "conv3_block3_0_bn", "moving_mean_initializer": {"config": {}, "class_name": "Zeros"}, "gamma_constraint": null, "moving_variance_initializer": {"config": {}, "class_name": "Ones"}, "beta_constraint": null, "gamma_initializer": {"config": {}, "class_name": "Ones"}, "epsilon": 1.001e-05, "beta_initializer": {"config": {}, "class_name": "Zeros"}}, "class_name": "BatchNormalization", "inbound_nodes": [[["conv3_block2_concat", 0, 0, {}]]]}, {"name": "conv3_block3_0_relu", "config": {"trainable": true, "activation": "relu", "name": "conv3_block3_0_relu"}, "class_name": "Activation", "inbound_nodes": [[["conv3_block3_0_bn", 0, 0, {}]]]}, {"name": "conv3_block3_1_conv", "config": {"trainable": true, "activation": "linear", "use_bias": false, "bias_initializer": {"config": {}, "class_name": "Zeros"}, "padding": "valid", "data_format": "channels_last", "filters": 128, "kernel_regularizer": null, "kernel_initializer": {"config": {"scale": 1.0, "mode": "fan_avg", "distribution": "uniform", "seed": null}, "class_name": "VarianceScaling"}, "activity_regularizer": null, "kernel_constraint": null, "kernel_size": [1, 1], "bias_regularizer": null, "dilation_rate": [1, 1], "name": "conv3_block3_1_conv", "strides": [1, 1], "bias_constraint": null}, "class_name": "Conv2D", "inbound_nodes": [[["conv3_block3_0_relu", 0, 0, {}]]]}, {"name": "conv3_block3_1_bn", "config": {"trainable": true, "gamma_regularizer": null, "scale": true, "momentum": 0.99, "center": true, "axis": 3, "beta_regularizer": null, "name": "conv3_block3_1_bn", "moving_mean_initializer": {"config": {}, "class_name": "Zeros"}, "gamma_constraint": null, "moving_variance_initializer": {"config": {}, "class_name": "Ones"}, "beta_constraint": null, "gamma_initializer": {"config": {}, "class_name": "Ones"}, "epsilon": 1.001e-05, "beta_initializer": {"config": {}, "class_name": "Zeros"}}, "class_name": "BatchNormalization", "inbound_nodes": [[["conv3_block3_1_conv", 0, 0, {}]]]}, {"name": "conv3_block3_1_relu", "config": {"trainable": true, "activation": "relu", "name": "conv3_block3_1_relu"}, "class_name": "Activation", "inbound_nodes": [[["conv3_block3_1_bn", 0, 0, {}]]]}, {"name": "conv3_block3_2_conv", "config": {"trainable": true, "activation": "linear", "use_bias": false, "bias_initializer": {"config": {}, "class_name": "Zeros"}, "padding": "same", "data_format": "channels_last", "filters": 32, "kernel_regularizer": null, "kernel_initializer": {"config": {"scale": 1.0, "mode": "fan_avg", "distribution": "uniform", "seed": null}, "class_name": "VarianceScaling"}, "activity_regularizer": null, "kernel_constraint": null, "kernel_size": [3, 3], "bias_regularizer": null, "dilation_rate": [1, 1], "name": "conv3_block3_2_conv", "strides": [1, 1], "bias_constraint": null}, "class_name": "Conv2D", "inbound_nodes": [[["conv3_block3_1_relu", 0, 0, {}]]]}, {"name": "conv3_block3_concat", "config": {"trainable": true, "name": "conv3_block3_concat", "axis": 3}, "class_name": "Concatenate", "inbound_nodes": [[["conv3_block2_concat", 0, 0, {}], ["conv3_block3_2_conv", 0, 0, {}]]]}, {"name": "conv3_block4_0_bn", "config": {"trainable": true, "gamma_regularizer": null, "scale": true, "momentum": 0.99, "center": true, "axis": 3, "beta_regularizer": null, "name": "conv3_block4_0_bn", "moving_mean_initializer": {"config": {}, "class_name": "Zeros"}, "gamma_constraint": null, "moving_variance_initializer": {"config": {}, "class_name": "Ones"}, "beta_constraint": null, "gamma_initializer": {"config": {}, "class_name": "Ones"}, "epsilon": 1.001e-05, "beta_initializer": {"config": {}, "class_name": "Zeros"}}, "class_name": "BatchNormalization", "inbound_nodes": [[["conv3_block3_concat", 0, 0, {}]]]}, {"name": "conv3_block4_0_relu", "config": {"trainable": true, "activation": "relu", "name": "conv3_block4_0_relu"}, "class_name": "Activation", "inbound_nodes": [[["conv3_block4_0_bn", 0, 0, {}]]]}, {"name": "conv3_block4_1_conv", "config": {"trainable": true, "activation": "linear", "use_bias": false, "bias_initializer": {"config": {}, "class_name": "Zeros"}, "padding": "valid", "data_format": "channels_last", "filters": 128, "kernel_regularizer": null, "kernel_initializer": {"config": {"scale": 1.0, "mode": "fan_avg", "distribution": "uniform", "seed": null}, "class_name": "VarianceScaling"}, "activity_regularizer": null, "kernel_constraint": null, "kernel_size": [1, 1], "bias_regularizer": null, "dilation_rate": [1, 1], "name": "conv3_block4_1_conv", "strides": [1, 1], "bias_constraint": null}, "class_name": "Conv2D", "inbound_nodes": [[["conv3_block4_0_relu", 0, 0, {}]]]}, {"name": "conv3_block4_1_bn", "config": {"trainable": true, "gamma_regularizer": null, "scale": true, "momentum": 0.99, "center": true, "axis": 3, "beta_regularizer": null, "name": "conv3_block4_1_bn", "moving_mean_initializer": {"config": {}, "class_name": "Zeros"}, "gamma_constraint": null, "moving_variance_initializer": {"config": {}, "class_name": "Ones"}, "beta_constraint": null, "gamma_initializer": {"config": {}, "class_name": "Ones"}, "epsilon": 1.001e-05, "beta_initializer": {"config": {}, "class_name": "Zeros"}}, "class_name": "BatchNormalization", "inbound_nodes": [[["conv3_block4_1_conv", 0, 0, {}]]]}, {"name": "conv3_block4_1_relu", "config": {"trainable": true, "activation": "relu", "name": "conv3_block4_1_relu"}, "class_name": "Activation", "inbound_nodes": [[["conv3_block4_1_bn", 0, 0, {}]]]}, {"name": "conv3_block4_2_conv", "config": {"trainable": true, "activation": "linear", "use_bias": false, "bias_initializer": {"config": {}, "class_name": "Zeros"}, "padding": "same", "data_format": "channels_last", "filters": 32, "kernel_regularizer": null, "kernel_initializer": {"config": {"scale": 1.0, "mode": "fan_avg", "distribution": "uniform", "seed": null}, "class_name": "VarianceScaling"}, "activity_regularizer": null, "kernel_constraint": null, "kernel_size": [3, 3], "bias_regularizer": null, "dilation_rate": [1, 1], "name": "conv3_block4_2_conv", "strides": [1, 1], "bias_constraint": null}, "class_name": "Conv2D", "inbound_nodes": [[["conv3_block4_1_relu", 0, 0, {}]]]}, {"name": "conv3_block4_concat", "config": {"trainable": true, "name": "conv3_block4_concat", "axis": 3}, "class_name": "Concatenate", "inbound_nodes": [[["conv3_block3_concat", 0, 0, {}], ["conv3_block4_2_conv", 0, 0, {}]]]}, {"name": "conv3_block5_0_bn", "config": {"trainable": true, "gamma_regularizer": null, "scale": true, "momentum": 0.99, "center": true, "axis": 3, "beta_regularizer": null, "name": "conv3_block5_0_bn", "moving_mean_initializer": {"config": {}, "class_name": "Zeros"}, "gamma_constraint": null, "moving_variance_initializer": {"config": {}, "class_name": "Ones"}, "beta_constraint": null, "gamma_initializer": {"config": {}, "class_name": "Ones"}, "epsilon": 1.001e-05, "beta_initializer": {"config": {}, "class_name": "Zeros"}}, "class_name": "BatchNormalization", "inbound_nodes": [[["conv3_block4_concat", 0, 0, {}]]]}, {"name": "conv3_block5_0_relu", "config": {"trainable": true, "activation": "relu", "name": "conv3_block5_0_relu"}, "class_name": "Activation", "inbound_nodes": [[["conv3_block5_0_bn", 0, 0, {}]]]}, {"name": "conv3_block5_1_conv", "config": {"trainable": true, "activation": "linear", "use_bias": false, "bias_initializer": {"config": {}, "class_name": "Zeros"}, "padding": "valid", "data_format": "channels_last", "filters": 128, "kernel_regularizer": null, "kernel_initializer": {"config": {"scale": 1.0, "mode": "fan_avg", "distribution": "uniform", "seed": null}, "class_name": "VarianceScaling"}, "activity_regularizer": null, "kernel_constraint": null, "kernel_size": [1, 1], "bias_regularizer": null, "dilation_rate": [1, 1], "name": "conv3_block5_1_conv", "strides": [1, 1], "bias_constraint": null}, "class_name": "Conv2D", "inbound_nodes": [[["conv3_block5_0_relu", 0, 0, {}]]]}, {"name": "conv3_block5_1_bn", "config": {"trainable": true, "gamma_regularizer": null, "scale": true, "momentum": 0.99, "center": true, "axis": 3, "beta_regularizer": null, "name": "conv3_block5_1_bn", "moving_mean_initializer": {"config": {}, "class_name": "Zeros"}, "gamma_constraint": null, "moving_variance_initializer": {"config": {}, "class_name": "Ones"}, "beta_constraint": null, "gamma_initializer": {"config": {}, "class_name": "Ones"}, "epsilon": 1.001e-05, "beta_initializer": {"config": {}, "class_name": "Zeros"}}, "class_name": "BatchNormalization", "inbound_nodes": [[["conv3_block5_1_conv", 0, 0, {}]]]}, {"name": "conv3_block5_1_relu", "config": {"trainable": true, "activation": "relu", "name": "conv3_block5_1_relu"}, "class_name": "Activation", "inbound_nodes": [[["conv3_block5_1_bn", 0, 0, {}]]]}, {"name": "conv3_block5_2_conv", "config": {"trainable": true, "activation": "linear", "use_bias": false, "bias_initializer": {"config": {}, "class_name": "Zeros"}, "padding": "same", "data_format": "channels_last", "filters": 32, "kernel_regularizer": null, "kernel_initializer": {"config": {"scale": 1.0, "mode": "fan_avg", "distribution": "uniform", "seed": null}, "class_name": "VarianceScaling"}, "activity_regularizer": null, "kernel_constraint": null, "kernel_size": [3, 3], "bias_regularizer": null, "dilation_rate": [1, 1], "name": "conv3_block5_2_conv", "strides": [1, 1], "bias_constraint": null}, "class_name": "Conv2D", "inbound_nodes": [[["conv3_block5_1_relu", 0, 0, {}]]]}, {"name": "conv3_block5_concat", "config": {"trainable": true, "name": "conv3_block5_concat", "axis": 3}, "class_name": "Concatenate", "inbound_nodes": [[["conv3_block4_concat", 0, 0, {}], ["conv3_block5_2_conv", 0, 0, {}]]]}, {"name": "conv3_block6_0_bn", "config": {"trainable": true, "gamma_regularizer": null, "scale": true, "momentum": 0.99, "center": true, "axis": 3, "beta_regularizer": null, "name": "conv3_block6_0_bn", "moving_mean_initializer": {"config": {}, "class_name": "Zeros"}, "gamma_constraint": null, "moving_variance_initializer": {"config": {}, "class_name": "Ones"}, "beta_constraint": null, "gamma_initializer": {"config": {}, "class_name": "Ones"}, "epsilon": 1.001e-05, "beta_initializer": {"config": {}, "class_name": "Zeros"}}, "class_name": "BatchNormalization", "inbound_nodes": [[["conv3_block5_concat", 0, 0, {}]]]}, {"name": "conv3_block6_0_relu", "config": {"trainable": true, "activation": "relu", "name": "conv3_block6_0_relu"}, "class_name": "Activation", "inbound_nodes": [[["conv3_block6_0_bn", 0, 0, {}]]]}, {"name": "conv3_block6_1_conv", "config": {"trainable": true, "activation": "linear", "use_bias": false, "bias_initializer": {"config": {}, "class_name": "Zeros"}, "padding": "valid", "data_format": "channels_last", "filters": 128, "kernel_regularizer": null, "kernel_initializer": {"config": {"scale": 1.0, "mode": "fan_avg", "distribution": "uniform", "seed": null}, "class_name": "VarianceScaling"}, "activity_regularizer": null, "kernel_constraint": null, "kernel_size": [1, 1], "bias_regularizer": null, "dilation_rate": [1, 1], "name": "conv3_block6_1_conv", "strides": [1, 1], "bias_constraint": null}, "class_name": "Conv2D", "inbound_nodes": [[["conv3_block6_0_relu", 0, 0, {}]]]}, {"name": "conv3_block6_1_bn", "config": {"trainable": true, "gamma_regularizer": null, "scale": true, "momentum": 0.99, "center": true, "axis": 3, "beta_regularizer": null, "name": "conv3_block6_1_bn", "moving_mean_initializer": {"config": {}, "class_name": "Zeros"}, "gamma_constraint": null, "moving_variance_initializer": {"config": {}, "class_name": "Ones"}, "beta_constraint": null, "gamma_initializer": {"config": {}, "class_name": "Ones"}, "epsilon": 1.001e-05, "beta_initializer": {"config": {}, "class_name": "Zeros"}}, "class_name": "BatchNormalization", "inbound_nodes": [[["conv3_block6_1_conv", 0, 0, {}]]]}, {"name": "conv3_block6_1_relu", "config": {"trainable": true, "activation": "relu", "name": "conv3_block6_1_relu"}, "class_name": "Activation", "inbound_nodes": [[["conv3_block6_1_bn", 0, 0, {}]]]}, {"name": "conv3_block6_2_conv", "config": {"trainable": true, "activation": "linear", "use_bias": false, "bias_initializer": {"config": {}, "class_name": "Zeros"}, "padding": "same", "data_format": "channels_last", "filters": 32, "kernel_regularizer": null, "kernel_initializer": {"config": {"scale": 1.0, "mode": "fan_avg", "distribution": "uniform", "seed": null}, "class_name": "VarianceScaling"}, "activity_regularizer": null, "kernel_constraint": null, "kernel_size": [3, 3], "bias_regularizer": null, "dilation_rate": [1, 1], "name": "conv3_block6_2_conv", "strides": [1, 1], "bias_constraint": null}, "class_name": "Conv2D", "inbound_nodes": [[["conv3_block6_1_relu", 0, 0, {}]]]}, {"name": "conv3_block6_concat", "config": {"trainable": true, "name": "conv3_block6_concat", "axis": 3}, "class_name": "Concatenate", "inbound_nodes": [[["conv3_block5_concat", 0, 0, {}], ["conv3_block6_2_conv", 0, 0, {}]]]}, {"name": "conv3_block7_0_bn", "config": {"trainable": true, "gamma_regularizer": null, "scale": true, "momentum": 0.99, "center": true, "axis": 3, "beta_regularizer": null, "name": "conv3_block7_0_bn", "moving_mean_initializer": {"config": {}, "class_name": "Zeros"}, "gamma_constraint": null, "moving_variance_initializer": {"config": {}, "class_name": "Ones"}, "beta_constraint": null, "gamma_initializer": {"config": {}, "class_name": "Ones"}, "epsilon": 1.001e-05, "beta_initializer": {"config": {}, "class_name": "Zeros"}}, "class_name": "BatchNormalization", "inbound_nodes": [[["conv3_block6_concat", 0, 0, {}]]]}, {"name": "conv3_block7_0_relu", "config": {"trainable": true, "activation": "relu", "name": "conv3_block7_0_relu"}, "class_name": "Activation", "inbound_nodes": [[["conv3_block7_0_bn", 0, 0, {}]]]}, {"name": "conv3_block7_1_conv", "config": {"trainable": true, "activation": "linear", "use_bias": false, "bias_initializer": {"config": {}, "class_name": "Zeros"}, "padding": "valid", "data_format": "channels_last", "filters": 128, "kernel_regularizer": null, "kernel_initializer": {"config": {"scale": 1.0, "mode": "fan_avg", "distribution": "uniform", "seed": null}, "class_name": "VarianceScaling"}, "activity_regularizer": null, "kernel_constraint": null, "kernel_size": [1, 1], "bias_regularizer": null, "dilation_rate": [1, 1], "name": "conv3_block7_1_conv", "strides": [1, 1], "bias_constraint": null}, "class_name": "Conv2D", "inbound_nodes": [[["conv3_block7_0_relu", 0, 0, {}]]]}, {"name": "conv3_block7_1_bn", "config": {"trainable": true, "gamma_regularizer": null, "scale": true, "momentum": 0.99, "center": true, "axis": 3, "beta_regularizer": null, "name": "conv3_block7_1_bn", "moving_mean_initializer": {"config": {}, "class_name": "Zeros"}, "gamma_constraint": null, "moving_variance_initializer": {"config": {}, "class_name": "Ones"}, "beta_constraint": null, "gamma_initializer": {"config": {}, "class_name": "Ones"}, "epsilon": 1.001e-05, "beta_initializer": {"config": {}, "class_name": "Zeros"}}, "class_name": "BatchNormalization", "inbound_nodes": [[["conv3_block7_1_conv", 0, 0, {}]]]}, {"name": "conv3_block7_1_relu", "config": {"trainable": true, "activation": "relu", "name": "conv3_block7_1_relu"}, "class_name": "Activation", "inbound_nodes": [[["conv3_block7_1_bn", 0, 0, {}]]]}, {"name": "conv3_block7_2_conv", "config": {"trainable": true, "activation": "linear", "use_bias": false, "bias_initializer": {"config": {}, "class_name": "Zeros"}, "padding": "same", "data_format": "channels_last", "filters": 32, "kernel_regularizer": null, "kernel_initializer": {"config": {"scale": 1.0, "mode": "fan_avg", "distribution": "uniform", "seed": null}, "class_name": "VarianceScaling"}, "activity_regularizer": null, "kernel_constraint": null, "kernel_size": [3, 3], "bias_regularizer": null, "dilation_rate": [1, 1], "name": "conv3_block7_2_conv", "strides": [1, 1], "bias_constraint": null}, "class_name": "Conv2D", "inbound_nodes": [[["conv3_block7_1_relu", 0, 0, {}]]]}, {"name": "conv3_block7_concat", "config": {"trainable": true, "name": "conv3_block7_concat", "axis": 3}, "class_name": "Concatenate", "inbound_nodes": [[["conv3_block6_concat", 0, 0, {}], ["conv3_block7_2_conv", 0, 0, {}]]]}, {"name": "conv3_block8_0_bn", "config": {"trainable": true, "gamma_regularizer": null, "scale": true, "momentum": 0.99, "center": true, "axis": 3, "beta_regularizer": null, "name": "conv3_block8_0_bn", "moving_mean_initializer": {"config": {}, "class_name": "Zeros"}, "gamma_constraint": null, "moving_variance_initializer": {"config": {}, "class_name": "Ones"}, "beta_constraint": null, "gamma_initializer": {"config": {}, "class_name": "Ones"}, "epsilon": 1.001e-05, "beta_initializer": {"config": {}, "class_name": "Zeros"}}, "class_name": "BatchNormalization", "inbound_nodes": [[["conv3_block7_concat", 0, 0, {}]]]}, {"name": "conv3_block8_0_relu", "config": {"trainable": true, "activation": "relu", "name": "conv3_block8_0_relu"}, "class_name": "Activation", "inbound_nodes": [[["conv3_block8_0_bn", 0, 0, {}]]]}, {"name": "conv3_block8_1_conv", "config": {"trainable": true, "activation": "linear", "use_bias": false, "bias_initializer": {"config": {}, "class_name": "Zeros"}, "padding": "valid", "data_format": "channels_last", "filters": 128, "kernel_regularizer": null, "kernel_initializer": {"config": {"scale": 1.0, "mode": "fan_avg", "distribution": "uniform", "seed": null}, "class_name": "VarianceScaling"}, "activity_regularizer": null, "kernel_constraint": null, "kernel_size": [1, 1], "bias_regularizer": null, "dilation_rate": [1, 1], "name": "conv3_block8_1_conv", "strides": [1, 1], "bias_constraint": null}, "class_name": "Conv2D", "inbound_nodes": [[["conv3_block8_0_relu", 0, 0, {}]]]}, {"name": "conv3_block8_1_bn", "config": {"trainable": true, "gamma_regularizer": null, "scale": true, "momentum": 0.99, "center": true, "axis": 3, "beta_regularizer": null, "name": "conv3_block8_1_bn", "moving_mean_initializer": {"config": {}, "class_name": "Zeros"}, "gamma_constraint": null, "moving_variance_initializer": {"config": {}, "class_name": "Ones"}, "beta_constraint": null, "gamma_initializer": {"config": {}, "class_name": "Ones"}, "epsilon": 1.001e-05, "beta_initializer": {"config": {}, "class_name": "Zeros"}}, "class_name": "BatchNormalization", "inbound_nodes": [[["conv3_block8_1_conv", 0, 0, {}]]]}, {"name": "conv3_block8_1_relu", "config": {"trainable": true, "activation": "relu", "name": "conv3_block8_1_relu"}, "class_name": "Activation", "inbound_nodes": [[["conv3_block8_1_bn", 0, 0, {}]]]}, {"name": "conv3_block8_2_conv", "config": {"trainable": true, "activation": "linear", "use_bias": false, "bias_initializer": {"config": {}, "class_name": "Zeros"}, "padding": "same", "data_format": "channels_last", "filters": 32, "kernel_regularizer": null, "kernel_initializer": {"config": {"scale": 1.0, "mode": "fan_avg", "distribution": "uniform", "seed": null}, "class_name": "VarianceScaling"}, "activity_regularizer": null, "kernel_constraint": null, "kernel_size": [3, 3], "bias_regularizer": null, "dilation_rate": [1, 1], "name": "conv3_block8_2_conv", "strides": [1, 1], "bias_constraint": null}, "class_name": "Conv2D", "inbound_nodes": [[["conv3_block8_1_relu", 0, 0, {}]]]}, {"name": "conv3_block8_concat", "config": {"trainable": true, "name": "conv3_block8_concat", "axis": 3}, "class_name": "Concatenate", "inbound_nodes": [[["conv3_block7_concat", 0, 0, {}], ["conv3_block8_2_conv", 0, 0, {}]]]}, {"name": "conv3_block9_0_bn", "config": {"trainable": true, "gamma_regularizer": null, "scale": true, "momentum": 0.99, "center": true, "axis": 3, "beta_regularizer": null, "name": "conv3_block9_0_bn", "moving_mean_initializer": {"config": {}, "class_name": "Zeros"}, "gamma_constraint": null, "moving_variance_initializer": {"config": {}, "class_name": "Ones"}, "beta_constraint": null, "gamma_initializer": {"config": {}, "class_name": "Ones"}, "epsilon": 1.001e-05, "beta_initializer": {"config": {}, "class_name": "Zeros"}}, "class_name": "BatchNormalization", "inbound_nodes": [[["conv3_block8_concat", 0, 0, {}]]]}, {"name": "conv3_block9_0_relu", "config": {"trainable": true, "activation": "relu", "name": "conv3_block9_0_relu"}, "class_name": "Activation", "inbound_nodes": [[["conv3_block9_0_bn", 0, 0, {}]]]}, {"name": "conv3_block9_1_conv", "config": {"trainable": true, "activation": "linear", "use_bias": false, "bias_initializer": {"config": {}, "class_name": "Zeros"}, "padding": "valid", "data_format": "channels_last", "filters": 128, "kernel_regularizer": null, "kernel_initializer": {"config": {"scale": 1.0, "mode": "fan_avg", "distribution": "uniform", "seed": null}, "class_name": "VarianceScaling"}, "activity_regularizer": null, "kernel_constraint": null, "kernel_size": [1, 1], "bias_regularizer": null, "dilation_rate": [1, 1], "name": "conv3_block9_1_conv", "strides": [1, 1], "bias_constraint": null}, "class_name": "Conv2D", "inbound_nodes": [[["conv3_block9_0_relu", 0, 0, {}]]]}, {"name": "conv3_block9_1_bn", "config": {"trainable": true, "gamma_regularizer": null, "scale": true, "momentum": 0.99, "center": true, "axis": 3, "beta_regularizer": null, "name": "conv3_block9_1_bn", "moving_mean_initializer": {"config": {}, "class_name": "Zeros"}, "gamma_constraint": null, "moving_variance_initializer": {"config": {}, "class_name": "Ones"}, "beta_constraint": null, "gamma_initializer": {"config": {}, "class_name": "Ones"}, "epsilon": 1.001e-05, "beta_initializer": {"config": {}, "class_name": "Zeros"}}, "class_name": "BatchNormalization", "inbound_nodes": [[["conv3_block9_1_conv", 0, 0, {}]]]}, {"name": "conv3_block9_1_relu", "config": {"trainable": true, "activation": "relu", "name": "conv3_block9_1_relu"}, "class_name": "Activation", "inbound_nodes": [[["conv3_block9_1_bn", 0, 0, {}]]]}, {"name": "conv3_block9_2_conv", "config": {"trainable": true, "activation": "linear", "use_bias": false, "bias_initializer": {"config": {}, "class_name": "Zeros"}, "padding": "same", "data_format": "channels_last", "filters": 32, "kernel_regularizer": null, "kernel_initializer": {"config": {"scale": 1.0, "mode": "fan_avg", "distribution": "uniform", "seed": null}, "class_name": "VarianceScaling"}, "activity_regularizer": null, "kernel_constraint": null, "kernel_size": [3, 3], "bias_regularizer": null, "dilation_rate": [1, 1], "name": "conv3_block9_2_conv", "strides": [1, 1], "bias_constraint": null}, "class_name": "Conv2D", "inbound_nodes": [[["conv3_block9_1_relu", 0, 0, {}]]]}, {"name": "conv3_block9_concat", "config": {"trainable": true, "name": "conv3_block9_concat", "axis": 3}, "class_name": "Concatenate", "inbound_nodes": [[["conv3_block8_concat", 0, 0, {}], ["conv3_block9_2_conv", 0, 0, {}]]]}, {"name": "conv3_block10_0_bn", "config": {"trainable": true, "gamma_regularizer": null, "scale": true, "momentum": 0.99, "center": true, "axis": 3, "beta_regularizer": null, "name": "conv3_block10_0_bn", "moving_mean_initializer": {"config": {}, "class_name": "Zeros"}, "gamma_constraint": null, "moving_variance_initializer": {"config": {}, "class_name": "Ones"}, "beta_constraint": null, "gamma_initializer": {"config": {}, "class_name": "Ones"}, "epsilon": 1.001e-05, "beta_initializer": {"config": {}, "class_name": "Zeros"}}, "class_name": "BatchNormalization", "inbound_nodes": [[["conv3_block9_concat", 0, 0, {}]]]}, {"name": "conv3_block10_0_relu", "config": {"trainable": true, "activation": "relu", "name": "conv3_block10_0_relu"}, "class_name": "Activation", "inbound_nodes": [[["conv3_block10_0_bn", 0, 0, {}]]]}, {"name": "conv3_block10_1_conv", "config": {"trainable": true, "activation": "linear", "use_bias": false, "bias_initializer": {"config": {}, "class_name": "Zeros"}, "padding": "valid", "data_format": "channels_last", "filters": 128, "kernel_regularizer": null, "kernel_initializer": {"config": {"scale": 1.0, "mode": "fan_avg", "distribution": "uniform", "seed": null}, "class_name": "VarianceScaling"}, "activity_regularizer": null, "kernel_constraint": null, "kernel_size": [1, 1], "bias_regularizer": null, "dilation_rate": [1, 1], "name": "conv3_block10_1_conv", "strides": [1, 1], "bias_constraint": null}, "class_name": "Conv2D", "inbound_nodes": [[["conv3_block10_0_relu", 0, 0, {}]]]}, {"name": "conv3_block10_1_bn", "config": {"trainable": true, "gamma_regularizer": null, "scale": true, "momentum": 0.99, "center": true, "axis": 3, "beta_regularizer": null, "name": "conv3_block10_1_bn", "moving_mean_initializer": {"config": {}, "class_name": "Zeros"}, "gamma_constraint": null, "moving_variance_initializer": {"config": {}, "class_name": "Ones"}, "beta_constraint": null, "gamma_initializer": {"config": {}, "class_name": "Ones"}, "epsilon": 1.001e-05, "beta_initializer": {"config": {}, "class_name": "Zeros"}}, "class_name": "BatchNormalization", "inbound_nodes": [[["conv3_block10_1_conv", 0, 0, {}]]]}, {"name": "conv3_block10_1_relu", "config": {"trainable": true, "activation": "relu", "name": "conv3_block10_1_relu"}, "class_name": "Activation", "inbound_nodes": [[["conv3_block10_1_bn", 0, 0, {}]]]}, {"name": "conv3_block10_2_conv", "config": {"trainable": true, "activation": "linear", "use_bias": false, "bias_initializer": {"config": {}, "class_name": "Zeros"}, "padding": "same", "data_format": "channels_last", "filters": 32, "kernel_regularizer": null, "kernel_initializer": {"config": {"scale": 1.0, "mode": "fan_avg", "distribution": "uniform", "seed": null}, "class_name": "VarianceScaling"}, "activity_regularizer": null, "kernel_constraint": null, "kernel_size": [3, 3], "bias_regularizer": null, "dilation_rate": [1, 1], "name": "conv3_block10_2_conv", "strides": [1, 1], "bias_constraint": null}, "class_name": "Conv2D", "inbound_nodes": [[["conv3_block10_1_relu", 0, 0, {}]]]}, {"name": "conv3_block10_concat", "config": {"trainable": true, "name": "conv3_block10_concat", "axis": 3}, "class_name": "Concatenate", "inbound_nodes": [[["conv3_block9_concat", 0, 0, {}], ["conv3_block10_2_conv", 0, 0, {}]]]}, {"name": "conv3_block11_0_bn", "config": {"trainable": true, "gamma_regularizer": null, "scale": true, "momentum": 0.99, "center": true, "axis": 3, "beta_regularizer": null, "name": "conv3_block11_0_bn", "moving_mean_initializer": {"config": {}, "class_name": "Zeros"}, "gamma_constraint": null, "moving_variance_initializer": {"config": {}, "class_name": "Ones"}, "beta_constraint": null, "gamma_initializer": {"config": {}, "class_name": "Ones"}, "epsilon": 1.001e-05, "beta_initializer": {"config": {}, "class_name": "Zeros"}}, "class_name": "BatchNormalization", "inbound_nodes": [[["conv3_block10_concat", 0, 0, {}]]]}, {"name": "conv3_block11_0_relu", "config": {"trainable": true, "activation": "relu", "name": "conv3_block11_0_relu"}, "class_name": "Activation", "inbound_nodes": [[["conv3_block11_0_bn", 0, 0, {}]]]}, {"name": "conv3_block11_1_conv", "config": {"trainable": true, "activation": "linear", "use_bias": false, "bias_initializer": {"config": {}, "class_name": "Zeros"}, "padding": "valid", "data_format": "channels_last", "filters": 128, "kernel_regularizer": null, "kernel_initializer": {"config": {"scale": 1.0, "mode": "fan_avg", "distribution": "uniform", "seed": null}, "class_name": "VarianceScaling"}, "activity_regularizer": null, "kernel_constraint": null, "kernel_size": [1, 1], "bias_regularizer": null, "dilation_rate": [1, 1], "name": "conv3_block11_1_conv", "strides": [1, 1], "bias_constraint": null}, "class_name": "Conv2D", "inbound_nodes": [[["conv3_block11_0_relu", 0, 0, {}]]]}, {"name": "conv3_block11_1_bn", "config": {"trainable": true, "gamma_regularizer": null, "scale": true, "momentum": 0.99, "center": true, "axis": 3, "beta_regularizer": null, "name": "conv3_block11_1_bn", "moving_mean_initializer": {"config": {}, "class_name": "Zeros"}, "gamma_constraint": null, "moving_variance_initializer": {"config": {}, "class_name": "Ones"}, "beta_constraint": null, "gamma_initializer": {"config": {}, "class_name": "Ones"}, "epsilon": 1.001e-05, "beta_initializer": {"config": {}, "class_name": "Zeros"}}, "class_name": "BatchNormalization", "inbound_nodes": [[["conv3_block11_1_conv", 0, 0, {}]]]}, {"name": "conv3_block11_1_relu", "config": {"trainable": true, "activation": "relu", "name": "conv3_block11_1_relu"}, "class_name": "Activation", "inbound_nodes": [[["conv3_block11_1_bn", 0, 0, {}]]]}, {"name": "conv3_block11_2_conv", "config": {"trainable": true, "activation": "linear", "use_bias": false, "bias_initializer": {"config": {}, "class_name": "Zeros"}, "padding": "same", "data_format": "channels_last", "filters": 32, "kernel_regularizer": null, "kernel_initializer": {"config": {"scale": 1.0, "mode": "fan_avg", "distribution": "uniform", "seed": null}, "class_name": "VarianceScaling"}, "activity_regularizer": null, "kernel_constraint": null, "kernel_size": [3, 3], "bias_regularizer": null, "dilation_rate": [1, 1], "name": "conv3_block11_2_conv", "strides": [1, 1], "bias_constraint": null}, "class_name": "Conv2D", "inbound_nodes": [[["conv3_block11_1_relu", 0, 0, {}]]]}, {"name": "conv3_block11_concat", "config": {"trainable": true, "name": "conv3_block11_concat", "axis": 3}, "class_name": "Concatenate", "inbound_nodes": [[["conv3_block10_concat", 0, 0, {}], ["conv3_block11_2_conv", 0, 0, {}]]]}, {"name": "conv3_block12_0_bn", "config": {"trainable": true, "gamma_regularizer": null, "scale": true, "momentum": 0.99, "center": true, "axis": 3, "beta_regularizer": null, "name": "conv3_block12_0_bn", "moving_mean_initializer": {"config": {}, "class_name": "Zeros"}, "gamma_constraint": null, "moving_variance_initializer": {"config": {}, "class_name": "Ones"}, "beta_constraint": null, "gamma_initializer": {"config": {}, "class_name": "Ones"}, "epsilon": 1.001e-05, "beta_initializer": {"config": {}, "class_name": "Zeros"}}, "class_name": "BatchNormalization", "inbound_nodes": [[["conv3_block11_concat", 0, 0, {}]]]}, {"name": "conv3_block12_0_relu", "config": {"trainable": true, "activation": "relu", "name": "conv3_block12_0_relu"}, "class_name": "Activation", "inbound_nodes": [[["conv3_block12_0_bn", 0, 0, {}]]]}, {"name": "conv3_block12_1_conv", "config": {"trainable": true, "activation": "linear", "use_bias": false, "bias_initializer": {"config": {}, "class_name": "Zeros"}, "padding": "valid", "data_format": "channels_last", "filters": 128, "kernel_regularizer": null, "kernel_initializer": {"config": {"scale": 1.0, "mode": "fan_avg", "distribution": "uniform", "seed": null}, "class_name": "VarianceScaling"}, "activity_regularizer": null, "kernel_constraint": null, "kernel_size": [1, 1], "bias_regularizer": null, "dilation_rate": [1, 1], "name": "conv3_block12_1_conv", "strides": [1, 1], "bias_constraint": null}, "class_name": "Conv2D", "inbound_nodes": [[["conv3_block12_0_relu", 0, 0, {}]]]}, {"name": "conv3_block12_1_bn", "config": {"trainable": true, "gamma_regularizer": null, "scale": true, "momentum": 0.99, "center": true, "axis": 3, "beta_regularizer": null, "name": "conv3_block12_1_bn", "moving_mean_initializer": {"config": {}, "class_name": "Zeros"}, "gamma_constraint": null, "moving_variance_initializer": {"config": {}, "class_name": "Ones"}, "beta_constraint": null, "gamma_initializer": {"config": {}, "class_name": "Ones"}, "epsilon": 1.001e-05, "beta_initializer": {"config": {}, "class_name": "Zeros"}}, "class_name": "BatchNormalization", "inbound_nodes": [[["conv3_block12_1_conv", 0, 0, {}]]]}, {"name": "conv3_block12_1_relu", "config": {"trainable": true, "activation": "relu", "name": "conv3_block12_1_relu"}, "class_name": "Activation", "inbound_nodes": [[["conv3_block12_1_bn", 0, 0, {}]]]}, {"name": "conv3_block12_2_conv", "config": {"trainable": true, "activation": "linear", "use_bias": false, "bias_initializer": {"config": {}, "class_name": "Zeros"}, "padding": "same", "data_format": "channels_last", "filters": 32, "kernel_regularizer": null, "kernel_initializer": {"config": {"scale": 1.0, "mode": "fan_avg", "distribution": "uniform", "seed": null}, "class_name": "VarianceScaling"}, "activity_regularizer": null, "kernel_constraint": null, "kernel_size": [3, 3], "bias_regularizer": null, "dilation_rate": [1, 1], "name": "conv3_block12_2_conv", "strides": [1, 1], "bias_constraint": null}, "class_name": "Conv2D", "inbound_nodes": [[["conv3_block12_1_relu", 0, 0, {}]]]}, {"name": "conv3_block12_concat", "config": {"trainable": true, "name": "conv3_block12_concat", "axis": 3}, "class_name": "Concatenate", "inbound_nodes": [[["conv3_block11_concat", 0, 0, {}], ["conv3_block12_2_conv", 0, 0, {}]]]}, {"name": "pool3_bn", "config": {"trainable": true, "gamma_regularizer": null, "scale": true, "momentum": 0.99, "center": true, "axis": 3, "beta_regularizer": null, "name": "pool3_bn", "moving_mean_initializer": {"config": {}, "class_name": "Zeros"}, "gamma_constraint": null, "moving_variance_initializer": {"config": {}, "class_name": "Ones"}, "beta_constraint": null, "gamma_initializer": {"config": {}, "class_name": "Ones"}, "epsilon": 1.001e-05, "beta_initializer": {"config": {}, "class_name": "Zeros"}}, "class_name": "BatchNormalization", "inbound_nodes": [[["conv3_block12_concat", 0, 0, {}]]]}, {"name": "pool3_relu", "config": {"trainable": true, "activation": "relu", "name": "pool3_relu"}, "class_name": "Activation", "inbound_nodes": [[["pool3_bn", 0, 0, {}]]]}, {"name": "pool3_conv", "config": {"trainable": true, "activation": "linear", "use_bias": false, "bias_initializer": {"config": {}, "class_name": "Zeros"}, "padding": "valid", "data_format": "channels_last", "filters": 256, "kernel_regularizer": null, "kernel_initializer": {"config": {"scale": 1.0, "mode": "fan_avg", "distribution": "uniform", "seed": null}, "class_name": "VarianceScaling"}, "activity_regularizer": null, "kernel_constraint": null, "kernel_size": [1, 1], "bias_regularizer": null, "dilation_rate": [1, 1], "name": "pool3_conv", "strides": [1, 1], "bias_constraint": null}, "class_name": "Conv2D", "inbound_nodes": [[["pool3_relu", 0, 0, {}]]]}, {"name": "pool3_pool", "config": {"trainable": true, "name": "pool3_pool", "data_format": "channels_last", "padding": "valid", "strides": [2, 2], "pool_size": [2, 2]}, "class_name": "AveragePooling2D", "inbound_nodes": [[["pool3_conv", 0, 0, {}]]]}, {"name": "conv4_block1_0_bn", "config": {"trainable": true, "gamma_regularizer": null, "scale": true, "momentum": 0.99, "center": true, "axis": 3, "beta_regularizer": null, "name": "conv4_block1_0_bn", "moving_mean_initializer": {"config": {}, "class_name": "Zeros"}, "gamma_constraint": null, "moving_variance_initializer": {"config": {}, "class_name": "Ones"}, "beta_constraint": null, "gamma_initializer": {"config": {}, "class_name": "Ones"}, "epsilon": 1.001e-05, "beta_initializer": {"config": {}, "class_name": "Zeros"}}, "class_name": "BatchNormalization", "inbound_nodes": [[["pool3_pool", 0, 0, {}]]]}, {"name": "conv4_block1_0_relu", "config": {"trainable": true, "activation": "relu", "name": "conv4_block1_0_relu"}, "class_name": "Activation", "inbound_nodes": [[["conv4_block1_0_bn", 0, 0, {}]]]}, {"name": "conv4_block1_1_conv", "config": {"trainable": true, "activation": "linear", "use_bias": false, "bias_initializer": {"config": {}, "class_name": "Zeros"}, "padding": "valid", "data_format": "channels_last", "filters": 128, "kernel_regularizer": null, "kernel_initializer": {"config": {"scale": 1.0, "mode": "fan_avg", "distribution": "uniform", "seed": null}, "class_name": "VarianceScaling"}, "activity_regularizer": null, "kernel_constraint": null, "kernel_size": [1, 1], "bias_regularizer": null, "dilation_rate": [1, 1], "name": "conv4_block1_1_conv", "strides": [1, 1], "bias_constraint": null}, "class_name": "Conv2D", "inbound_nodes": [[["conv4_block1_0_relu", 0, 0, {}]]]}, {"name": "conv4_block1_1_bn", "config": {"trainable": true, "gamma_regularizer": null, "scale": true, "momentum": 0.99, "center": true, "axis": 3, "beta_regularizer": null, "name": "conv4_block1_1_bn", "moving_mean_initializer": {"config": {}, "class_name": "Zeros"}, "gamma_constraint": null, "moving_variance_initializer": {"config": {}, "class_name": "Ones"}, "beta_constraint": null, "gamma_initializer": {"config": {}, "class_name": "Ones"}, "epsilon": 1.001e-05, "beta_initializer": {"config": {}, "class_name": "Zeros"}}, "class_name": "BatchNormalization", "inbound_nodes": [[["conv4_block1_1_conv", 0, 0, {}]]]}, {"name": "conv4_block1_1_relu", "config": {"trainable": true, "activation": "relu", "name": "conv4_block1_1_relu"}, "class_name": "Activation", "inbound_nodes": [[["conv4_block1_1_bn", 0, 0, {}]]]}, {"name": "conv4_block1_2_conv", "config": {"trainable": true, "activation": "linear", "use_bias": false, "bias_initializer": {"config": {}, "class_name": "Zeros"}, "padding": "same", "data_format": "channels_last", "filters": 32, "kernel_regularizer": null, "kernel_initializer": {"config": {"scale": 1.0, "mode": "fan_avg", "distribution": "uniform", "seed": null}, "class_name": "VarianceScaling"}, "activity_regularizer": null, "kernel_constraint": null, "kernel_size": [3, 3], "bias_regularizer": null, "dilation_rate": [1, 1], "name": "conv4_block1_2_conv", "strides": [1, 1], "bias_constraint": null}, "class_name": "Conv2D", "inbound_nodes": [[["conv4_block1_1_relu", 0, 0, {}]]]}, {"name": "conv4_block1_concat", "config": {"trainable": true, "name": "conv4_block1_concat", "axis": 3}, "class_name": "Concatenate", "inbound_nodes": [[["pool3_pool", 0, 0, {}], ["conv4_block1_2_conv", 0, 0, {}]]]}, {"name": "conv4_block2_0_bn", "config": {"trainable": true, "gamma_regularizer": null, "scale": true, "momentum": 0.99, "center": true, "axis": 3, "beta_regularizer": null, "name": "conv4_block2_0_bn", "moving_mean_initializer": {"config": {}, "class_name": "Zeros"}, "gamma_constraint": null, "moving_variance_initializer": {"config": {}, "class_name": "Ones"}, "beta_constraint": null, "gamma_initializer": {"config": {}, "class_name": "Ones"}, "epsilon": 1.001e-05, "beta_initializer": {"config": {}, "class_name": "Zeros"}}, "class_name": "BatchNormalization", "inbound_nodes": [[["conv4_block1_concat", 0, 0, {}]]]}, {"name": "conv4_block2_0_relu", "config": {"trainable": true, "activation": "relu", "name": "conv4_block2_0_relu"}, "class_name": "Activation", "inbound_nodes": [[["conv4_block2_0_bn", 0, 0, {}]]]}, {"name": "conv4_block2_1_conv", "config": {"trainable": true, "activation": "linear", "use_bias": false, "bias_initializer": {"config": {}, "class_name": "Zeros"}, "padding": "valid", "data_format": "channels_last", "filters": 128, "kernel_regularizer": null, "kernel_initializer": {"config": {"scale": 1.0, "mode": "fan_avg", "distribution": "uniform", "seed": null}, "class_name": "VarianceScaling"}, "activity_regularizer": null, "kernel_constraint": null, "kernel_size": [1, 1], "bias_regularizer": null, "dilation_rate": [1, 1], "name": "conv4_block2_1_conv", "strides": [1, 1], "bias_constraint": null}, "class_name": "Conv2D", "inbound_nodes": [[["conv4_block2_0_relu", 0, 0, {}]]]}, {"name": "conv4_block2_1_bn", "config": {"trainable": true, "gamma_regularizer": null, "scale": true, "momentum": 0.99, "center": true, "axis": 3, "beta_regularizer": null, "name": "conv4_block2_1_bn", "moving_mean_initializer": {"config": {}, "class_name": "Zeros"}, "gamma_constraint": null, "moving_variance_initializer": {"config": {}, "class_name": "Ones"}, "beta_constraint": null, "gamma_initializer": {"config": {}, "class_name": "Ones"}, "epsilon": 1.001e-05, "beta_initializer": {"config": {}, "class_name": "Zeros"}}, "class_name": "BatchNormalization", "inbound_nodes": [[["conv4_block2_1_conv", 0, 0, {}]]]}, {"name": "conv4_block2_1_relu", "config": {"trainable": true, "activation": "relu", "name": "conv4_block2_1_relu"}, "class_name": "Activation", "inbound_nodes": [[["conv4_block2_1_bn", 0, 0, {}]]]}, {"name": "conv4_block2_2_conv", "config": {"trainable": true, "activation": "linear", "use_bias": false, "bias_initializer": {"config": {}, "class_name": "Zeros"}, "padding": "same", "data_format": "channels_last", "filters": 32, "kernel_regularizer": null, "kernel_initializer": {"config": {"scale": 1.0, "mode": "fan_avg", "distribution": "uniform", "seed": null}, "class_name": "VarianceScaling"}, "activity_regularizer": null, "kernel_constraint": null, "kernel_size": [3, 3], "bias_regularizer": null, "dilation_rate": [1, 1], "name": "conv4_block2_2_conv", "strides": [1, 1], "bias_constraint": null}, "class_name": "Conv2D", "inbound_nodes": [[["conv4_block2_1_relu", 0, 0, {}]]]}, {"name": "conv4_block2_concat", "config": {"trainable": true, "name": "conv4_block2_concat", "axis": 3}, "class_name": "Concatenate", "inbound_nodes": [[["conv4_block1_concat", 0, 0, {}], ["conv4_block2_2_conv", 0, 0, {}]]]}, {"name": "conv4_block3_0_bn", "config": {"trainable": true, "gamma_regularizer": null, "scale": true, "momentum": 0.99, "center": true, "axis": 3, "beta_regularizer": null, "name": "conv4_block3_0_bn", "moving_mean_initializer": {"config": {}, "class_name": "Zeros"}, "gamma_constraint": null, "moving_variance_initializer": {"config": {}, "class_name": "Ones"}, "beta_constraint": null, "gamma_initializer": {"config": {}, "class_name": "Ones"}, "epsilon": 1.001e-05, "beta_initializer": {"config": {}, "class_name": "Zeros"}}, "class_name": "BatchNormalization", "inbound_nodes": [[["conv4_block2_concat", 0, 0, {}]]]}, {"name": "conv4_block3_0_relu", "config": {"trainable": true, "activation": "relu", "name": "conv4_block3_0_relu"}, "class_name": "Activation", "inbound_nodes": [[["conv4_block3_0_bn", 0, 0, {}]]]}, {"name": "conv4_block3_1_conv", "config": {"trainable": true, "activation": "linear", "use_bias": false, "bias_initializer": {"config": {}, "class_name": "Zeros"}, "padding": "valid", "data_format": "channels_last", "filters": 128, "kernel_regularizer": null, "kernel_initializer": {"config": {"scale": 1.0, "mode": "fan_avg", "distribution": "uniform", "seed": null}, "class_name": "VarianceScaling"}, "activity_regularizer": null, "kernel_constraint": null, "kernel_size": [1, 1], "bias_regularizer": null, "dilation_rate": [1, 1], "name": "conv4_block3_1_conv", "strides": [1, 1], "bias_constraint": null}, "class_name": "Conv2D", "inbound_nodes": [[["conv4_block3_0_relu", 0, 0, {}]]]}, {"name": "conv4_block3_1_bn", "config": {"trainable": true, "gamma_regularizer": null, "scale": true, "momentum": 0.99, "center": true, "axis": 3, "beta_regularizer": null, "name": "conv4_block3_1_bn", "moving_mean_initializer": {"config": {}, "class_name": "Zeros"}, "gamma_constraint": null, "moving_variance_initializer": {"config": {}, "class_name": "Ones"}, "beta_constraint": null, "gamma_initializer": {"config": {}, "class_name": "Ones"}, "epsilon": 1.001e-05, "beta_initializer": {"config": {}, "class_name": "Zeros"}}, "class_name": "BatchNormalization", "inbound_nodes": [[["conv4_block3_1_conv", 0, 0, {}]]]}, {"name": "conv4_block3_1_relu", "config": {"trainable": true, "activation": "relu", "name": "conv4_block3_1_relu"}, "class_name": "Activation", "inbound_nodes": [[["conv4_block3_1_bn", 0, 0, {}]]]}, {"name": "conv4_block3_2_conv", "config": {"trainable": true, "activation": "linear", "use_bias": false, "bias_initializer": {"config": {}, "class_name": "Zeros"}, "padding": "same", "data_format": "channels_last", "filters": 32, "kernel_regularizer": null, "kernel_initializer": {"config": {"scale": 1.0, "mode": "fan_avg", "distribution": "uniform", "seed": null}, "class_name": "VarianceScaling"}, "activity_regularizer": null, "kernel_constraint": null, "kernel_size": [3, 3], "bias_regularizer": null, "dilation_rate": [1, 1], "name": "conv4_block3_2_conv", "strides": [1, 1], "bias_constraint": null}, "class_name": "Conv2D", "inbound_nodes": [[["conv4_block3_1_relu", 0, 0, {}]]]}, {"name": "conv4_block3_concat", "config": {"trainable": true, "name": "conv4_block3_concat", "axis": 3}, "class_name": "Concatenate", "inbound_nodes": [[["conv4_block2_concat", 0, 0, {}], ["conv4_block3_2_conv", 0, 0, {}]]]}, {"name": "conv4_block4_0_bn", "config": {"trainable": true, "gamma_regularizer": null, "scale": true, "momentum": 0.99, "center": true, "axis": 3, "beta_regularizer": null, "name": "conv4_block4_0_bn", "moving_mean_initializer": {"config": {}, "class_name": "Zeros"}, "gamma_constraint": null, "moving_variance_initializer": {"config": {}, "class_name": "Ones"}, "beta_constraint": null, "gamma_initializer": {"config": {}, "class_name": "Ones"}, "epsilon": 1.001e-05, "beta_initializer": {"config": {}, "class_name": "Zeros"}}, "class_name": "BatchNormalization", "inbound_nodes": [[["conv4_block3_concat", 0, 0, {}]]]}, {"name": "conv4_block4_0_relu", "config": {"trainable": true, "activation": "relu", "name": "conv4_block4_0_relu"}, "class_name": "Activation", "inbound_nodes": [[["conv4_block4_0_bn", 0, 0, {}]]]}, {"name": "conv4_block4_1_conv", "config": {"trainable": true, "activation": "linear", "use_bias": false, "bias_initializer": {"config": {}, "class_name": "Zeros"}, "padding": "valid", "data_format": "channels_last", "filters": 128, "kernel_regularizer": null, "kernel_initializer": {"config": {"scale": 1.0, "mode": "fan_avg", "distribution": "uniform", "seed": null}, "class_name": "VarianceScaling"}, "activity_regularizer": null, "kernel_constraint": null, "kernel_size": [1, 1], "bias_regularizer": null, "dilation_rate": [1, 1], "name": "conv4_block4_1_conv", "strides": [1, 1], "bias_constraint": null}, "class_name": "Conv2D", "inbound_nodes": [[["conv4_block4_0_relu", 0, 0, {}]]]}, {"name": "conv4_block4_1_bn", "config": {"trainable": true, "gamma_regularizer": null, "scale": true, "momentum": 0.99, "center": true, "axis": 3, "beta_regularizer": null, "name": "conv4_block4_1_bn", "moving_mean_initializer": {"config": {}, "class_name": "Zeros"}, "gamma_constraint": null, "moving_variance_initializer": {"config": {}, "class_name": "Ones"}, "beta_constraint": null, "gamma_initializer": {"config": {}, "class_name": "Ones"}, "epsilon": 1.001e-05, "beta_initializer": {"config": {}, "class_name": "Zeros"}}, "class_name": "BatchNormalization", "inbound_nodes": [[["conv4_block4_1_conv", 0, 0, {}]]]}, {"name": "conv4_block4_1_relu", "config": {"trainable": true, "activation": "relu", "name": "conv4_block4_1_relu"}, "class_name": "Activation", "inbound_nodes": [[["conv4_block4_1_bn", 0, 0, {}]]]}, {"name": "conv4_block4_2_conv", "config": {"trainable": true, "activation": "linear", "use_bias": false, "bias_initializer": {"config": {}, "class_name": "Zeros"}, "padding": "same", "data_format": "channels_last", "filters": 32, "kernel_regularizer": null, "kernel_initializer": {"config": {"scale": 1.0, "mode": "fan_avg", "distribution": "uniform", "seed": null}, "class_name": "VarianceScaling"}, "activity_regularizer": null, "kernel_constraint": null, "kernel_size": [3, 3], "bias_regularizer": null, "dilation_rate": [1, 1], "name": "conv4_block4_2_conv", "strides": [1, 1], "bias_constraint": null}, "class_name": "Conv2D", "inbound_nodes": [[["conv4_block4_1_relu", 0, 0, {}]]]}, {"name": "conv4_block4_concat", "config": {"trainable": true, "name": "conv4_block4_concat", "axis": 3}, "class_name": "Concatenate", "inbound_nodes": [[["conv4_block3_concat", 0, 0, {}], ["conv4_block4_2_conv", 0, 0, {}]]]}, {"name": "conv4_block5_0_bn", "config": {"trainable": true, "gamma_regularizer": null, "scale": true, "momentum": 0.99, "center": true, "axis": 3, "beta_regularizer": null, "name": "conv4_block5_0_bn", "moving_mean_initializer": {"config": {}, "class_name": "Zeros"}, "gamma_constraint": null, "moving_variance_initializer": {"config": {}, "class_name": "Ones"}, "beta_constraint": null, "gamma_initializer": {"config": {}, "class_name": "Ones"}, "epsilon": 1.001e-05, "beta_initializer": {"config": {}, "class_name": "Zeros"}}, "class_name": "BatchNormalization", "inbound_nodes": [[["conv4_block4_concat", 0, 0, {}]]]}, {"name": "conv4_block5_0_relu", "config": {"trainable": true, "activation": "relu", "name": "conv4_block5_0_relu"}, "class_name": "Activation", "inbound_nodes": [[["conv4_block5_0_bn", 0, 0, {}]]]}, {"name": "conv4_block5_1_conv", "config": {"trainable": true, "activation": "linear", "use_bias": false, "bias_initializer": {"config": {}, "class_name": "Zeros"}, "padding": "valid", "data_format": "channels_last", "filters": 128, "kernel_regularizer": null, "kernel_initializer": {"config": {"scale": 1.0, "mode": "fan_avg", "distribution": "uniform", "seed": null}, "class_name": "VarianceScaling"}, "activity_regularizer": null, "kernel_constraint": null, "kernel_size": [1, 1], "bias_regularizer": null, "dilation_rate": [1, 1], "name": "conv4_block5_1_conv", "strides": [1, 1], "bias_constraint": null}, "class_name": "Conv2D", "inbound_nodes": [[["conv4_block5_0_relu", 0, 0, {}]]]}, {"name": "conv4_block5_1_bn", "config": {"trainable": true, "gamma_regularizer": null, "scale": true, "momentum": 0.99, "center": true, "axis": 3, "beta_regularizer": null, "name": "conv4_block5_1_bn", "moving_mean_initializer": {"config": {}, "class_name": "Zeros"}, "gamma_constraint": null, "moving_variance_initializer": {"config": {}, "class_name": "Ones"}, "beta_constraint": null, "gamma_initializer": {"config": {}, "class_name": "Ones"}, "epsilon": 1.001e-05, "beta_initializer": {"config": {}, "class_name": "Zeros"}}, "class_name": "BatchNormalization", "inbound_nodes": [[["conv4_block5_1_conv", 0, 0, {}]]]}, {"name": "conv4_block5_1_relu", "config": {"trainable": true, "activation": "relu", "name": "conv4_block5_1_relu"}, "class_name": "Activation", "inbound_nodes": [[["conv4_block5_1_bn", 0, 0, {}]]]}, {"name": "conv4_block5_2_conv", "config": {"trainable": true, "activation": "linear", "use_bias": false, "bias_initializer": {"config": {}, "class_name": "Zeros"}, "padding": "same", "data_format": "channels_last", "filters": 32, "kernel_regularizer": null, "kernel_initializer": {"config": {"scale": 1.0, "mode": "fan_avg", "distribution": "uniform", "seed": null}, "class_name": "VarianceScaling"}, "activity_regularizer": null, "kernel_constraint": null, "kernel_size": [3, 3], "bias_regularizer": null, "dilation_rate": [1, 1], "name": "conv4_block5_2_conv", "strides": [1, 1], "bias_constraint": null}, "class_name": "Conv2D", "inbound_nodes": [[["conv4_block5_1_relu", 0, 0, {}]]]}, {"name": "conv4_block5_concat", "config": {"trainable": true, "name": "conv4_block5_concat", "axis": 3}, "class_name": "Concatenate", "inbound_nodes": [[["conv4_block4_concat", 0, 0, {}], ["conv4_block5_2_conv", 0, 0, {}]]]}, {"name": "conv4_block6_0_bn", "config": {"trainable": true, "gamma_regularizer": null, "scale": true, "momentum": 0.99, "center": true, "axis": 3, "beta_regularizer": null, "name": "conv4_block6_0_bn", "moving_mean_initializer": {"config": {}, "class_name": "Zeros"}, "gamma_constraint": null, "moving_variance_initializer": {"config": {}, "class_name": "Ones"}, "beta_constraint": null, "gamma_initializer": {"config": {}, "class_name": "Ones"}, "epsilon": 1.001e-05, "beta_initializer": {"config": {}, "class_name": "Zeros"}}, "class_name": "BatchNormalization", "inbound_nodes": [[["conv4_block5_concat", 0, 0, {}]]]}, {"name": "conv4_block6_0_relu", "config": {"trainable": true, "activation": "relu", "name": "conv4_block6_0_relu"}, "class_name": "Activation", "inbound_nodes": [[["conv4_block6_0_bn", 0, 0, {}]]]}, {"name": "conv4_block6_1_conv", "config": {"trainable": true, "activation": "linear", "use_bias": false, "bias_initializer": {"config": {}, "class_name": "Zeros"}, "padding": "valid", "data_format": "channels_last", "filters": 128, "kernel_regularizer": null, "kernel_initializer": {"config": {"scale": 1.0, "mode": "fan_avg", "distribution": "uniform", "seed": null}, "class_name": "VarianceScaling"}, "activity_regularizer": null, "kernel_constraint": null, "kernel_size": [1, 1], "bias_regularizer": null, "dilation_rate": [1, 1], "name": "conv4_block6_1_conv", "strides": [1, 1], "bias_constraint": null}, "class_name": "Conv2D", "inbound_nodes": [[["conv4_block6_0_relu", 0, 0, {}]]]}, {"name": "conv4_block6_1_bn", "config": {"trainable": true, "gamma_regularizer": null, "scale": true, "momentum": 0.99, "center": true, "axis": 3, "beta_regularizer": null, "name": "conv4_block6_1_bn", "moving_mean_initializer": {"config": {}, "class_name": "Zeros"}, "gamma_constraint": null, "moving_variance_initializer": {"config": {}, "class_name": "Ones"}, "beta_constraint": null, "gamma_initializer": {"config": {}, "class_name": "Ones"}, "epsilon": 1.001e-05, "beta_initializer": {"config": {}, "class_name": "Zeros"}}, "class_name": "BatchNormalization", "inbound_nodes": [[["conv4_block6_1_conv", 0, 0, {}]]]}, {"name": "conv4_block6_1_relu", "config": {"trainable": true, "activation": "relu", "name": "conv4_block6_1_relu"}, "class_name": "Activation", "inbound_nodes": [[["conv4_block6_1_bn", 0, 0, {}]]]}, {"name": "conv4_block6_2_conv", "config": {"trainable": true, "activation": "linear", "use_bias": false, "bias_initializer": {"config": {}, "class_name": "Zeros"}, "padding": "same", "data_format": "channels_last", "filters": 32, "kernel_regularizer": null, "kernel_initializer": {"config": {"scale": 1.0, "mode": "fan_avg", "distribution": "uniform", "seed": null}, "class_name": "VarianceScaling"}, "activity_regularizer": null, "kernel_constraint": null, "kernel_size": [3, 3], "bias_regularizer": null, "dilation_rate": [1, 1], "name": "conv4_block6_2_conv", "strides": [1, 1], "bias_constraint": null}, "class_name": "Conv2D", "inbound_nodes": [[["conv4_block6_1_relu", 0, 0, {}]]]}, {"name": "conv4_block6_concat", "config": {"trainable": true, "name": "conv4_block6_concat", "axis": 3}, "class_name": "Concatenate", "inbound_nodes": [[["conv4_block5_concat", 0, 0, {}], ["conv4_block6_2_conv", 0, 0, {}]]]}, {"name": "conv4_block7_0_bn", "config": {"trainable": true, "gamma_regularizer": null, "scale": true, "momentum": 0.99, "center": true, "axis": 3, "beta_regularizer": null, "name": "conv4_block7_0_bn", "moving_mean_initializer": {"config": {}, "class_name": "Zeros"}, "gamma_constraint": null, "moving_variance_initializer": {"config": {}, "class_name": "Ones"}, "beta_constraint": null, "gamma_initializer": {"config": {}, "class_name": "Ones"}, "epsilon": 1.001e-05, "beta_initializer": {"config": {}, "class_name": "Zeros"}}, "class_name": "BatchNormalization", "inbound_nodes": [[["conv4_block6_concat", 0, 0, {}]]]}, {"name": "conv4_block7_0_relu", "config": {"trainable": true, "activation": "relu", "name": "conv4_block7_0_relu"}, "class_name": "Activation", "inbound_nodes": [[["conv4_block7_0_bn", 0, 0, {}]]]}, {"name": "conv4_block7_1_conv", "config": {"trainable": true, "activation": "linear", "use_bias": false, "bias_initializer": {"config": {}, "class_name": "Zeros"}, "padding": "valid", "data_format": "channels_last", "filters": 128, "kernel_regularizer": null, "kernel_initializer": {"config": {"scale": 1.0, "mode": "fan_avg", "distribution": "uniform", "seed": null}, "class_name": "VarianceScaling"}, "activity_regularizer": null, "kernel_constraint": null, "kernel_size": [1, 1], "bias_regularizer": null, "dilation_rate": [1, 1], "name": "conv4_block7_1_conv", "strides": [1, 1], "bias_constraint": null}, "class_name": "Conv2D", "inbound_nodes": [[["conv4_block7_0_relu", 0, 0, {}]]]}, {"name": "conv4_block7_1_bn", "config": {"trainable": true, "gamma_regularizer": null, "scale": true, "momentum": 0.99, "center": true, "axis": 3, "beta_regularizer": null, "name": "conv4_block7_1_bn", "moving_mean_initializer": {"config": {}, "class_name": "Zeros"}, "gamma_constraint": null, "moving_variance_initializer": {"config": {}, "class_name": "Ones"}, "beta_constraint": null, "gamma_initializer": {"config": {}, "class_name": "Ones"}, "epsilon": 1.001e-05, "beta_initializer": {"config": {}, "class_name": "Zeros"}}, "class_name": "BatchNormalization", "inbound_nodes": [[["conv4_block7_1_conv", 0, 0, {}]]]}, {"name": "conv4_block7_1_relu", "config": {"trainable": true, "activation": "relu", "name": "conv4_block7_1_relu"}, "class_name": "Activation", "inbound_nodes": [[["conv4_block7_1_bn", 0, 0, {}]]]}, {"name": "conv4_block7_2_conv", "config": {"trainable": true, "activation": "linear", "use_bias": false, "bias_initializer": {"config": {}, "class_name": "Zeros"}, "padding": "same", "data_format": "channels_last", "filters": 32, "kernel_regularizer": null, "kernel_initializer": {"config": {"scale": 1.0, "mode": "fan_avg", "distribution": "uniform", "seed": null}, "class_name": "VarianceScaling"}, "activity_regularizer": null, "kernel_constraint": null, "kernel_size": [3, 3], "bias_regularizer": null, "dilation_rate": [1, 1], "name": "conv4_block7_2_conv", "strides": [1, 1], "bias_constraint": null}, "class_name": "Conv2D", "inbound_nodes": [[["conv4_block7_1_relu", 0, 0, {}]]]}, {"name": "conv4_block7_concat", "config": {"trainable": true, "name": "conv4_block7_concat", "axis": 3}, "class_name": "Concatenate", "inbound_nodes": [[["conv4_block6_concat", 0, 0, {}], ["conv4_block7_2_conv", 0, 0, {}]]]}, {"name": "conv4_block8_0_bn", "config": {"trainable": true, "gamma_regularizer": null, "scale": true, "momentum": 0.99, "center": true, "axis": 3, "beta_regularizer": null, "name": "conv4_block8_0_bn", "moving_mean_initializer": {"config": {}, "class_name": "Zeros"}, "gamma_constraint": null, "moving_variance_initializer": {"config": {}, "class_name": "Ones"}, "beta_constraint": null, "gamma_initializer": {"config": {}, "class_name": "Ones"}, "epsilon": 1.001e-05, "beta_initializer": {"config": {}, "class_name": "Zeros"}}, "class_name": "BatchNormalization", "inbound_nodes": [[["conv4_block7_concat", 0, 0, {}]]]}, {"name": "conv4_block8_0_relu", "config": {"trainable": true, "activation": "relu", "name": "conv4_block8_0_relu"}, "class_name": "Activation", "inbound_nodes": [[["conv4_block8_0_bn", 0, 0, {}]]]}, {"name": "conv4_block8_1_conv", "config": {"trainable": true, "activation": "linear", "use_bias": false, "bias_initializer": {"config": {}, "class_name": "Zeros"}, "padding": "valid", "data_format": "channels_last", "filters": 128, "kernel_regularizer": null, "kernel_initializer": {"config": {"scale": 1.0, "mode": "fan_avg", "distribution": "uniform", "seed": null}, "class_name": "VarianceScaling"}, "activity_regularizer": null, "kernel_constraint": null, "kernel_size": [1, 1], "bias_regularizer": null, "dilation_rate": [1, 1], "name": "conv4_block8_1_conv", "strides": [1, 1], "bias_constraint": null}, "class_name": "Conv2D", "inbound_nodes": [[["conv4_block8_0_relu", 0, 0, {}]]]}, {"name": "conv4_block8_1_bn", "config": {"trainable": true, "gamma_regularizer": null, "scale": true, "momentum": 0.99, "center": true, "axis": 3, "beta_regularizer": null, "name": "conv4_block8_1_bn", "moving_mean_initializer": {"config": {}, "class_name": "Zeros"}, "gamma_constraint": null, "moving_variance_initializer": {"config": {}, "class_name": "Ones"}, "beta_constraint": null, "gamma_initializer": {"config": {}, "class_name": "Ones"}, "epsilon": 1.001e-05, "beta_initializer": {"config": {}, "class_name": "Zeros"}}, "class_name": "BatchNormalization", "inbound_nodes": [[["conv4_block8_1_conv", 0, 0, {}]]]}, {"name": "conv4_block8_1_relu", "config": {"trainable": true, "activation": "relu", "name": "conv4_block8_1_relu"}, "class_name": "Activation", "inbound_nodes": [[["conv4_block8_1_bn", 0, 0, {}]]]}, {"name": "conv4_block8_2_conv", "config": {"trainable": true, "activation": "linear", "use_bias": false, "bias_initializer": {"config": {}, "class_name": "Zeros"}, "padding": "same", "data_format": "channels_last", "filters": 32, "kernel_regularizer": null, "kernel_initializer": {"config": {"scale": 1.0, "mode": "fan_avg", "distribution": "uniform", "seed": null}, "class_name": "VarianceScaling"}, "activity_regularizer": null, "kernel_constraint": null, "kernel_size": [3, 3], "bias_regularizer": null, "dilation_rate": [1, 1], "name": "conv4_block8_2_conv", "strides": [1, 1], "bias_constraint": null}, "class_name": "Conv2D", "inbound_nodes": [[["conv4_block8_1_relu", 0, 0, {}]]]}, {"name": "conv4_block8_concat", "config": {"trainable": true, "name": "conv4_block8_concat", "axis": 3}, "class_name": "Concatenate", "inbound_nodes": [[["conv4_block7_concat", 0, 0, {}], ["conv4_block8_2_conv", 0, 0, {}]]]}, {"name": "conv4_block9_0_bn", "config": {"trainable": true, "gamma_regularizer": null, "scale": true, "momentum": 0.99, "center": true, "axis": 3, "beta_regularizer": null, "name": "conv4_block9_0_bn", "moving_mean_initializer": {"config": {}, "class_name": "Zeros"}, "gamma_constraint": null, "moving_variance_initializer": {"config": {}, "class_name": "Ones"}, "beta_constraint": null, "gamma_initializer": {"config": {}, "class_name": "Ones"}, "epsilon": 1.001e-05, "beta_initializer": {"config": {}, "class_name": "Zeros"}}, "class_name": "BatchNormalization", "inbound_nodes": [[["conv4_block8_concat", 0, 0, {}]]]}, {"name": "conv4_block9_0_relu", "config": {"trainable": true, "activation": "relu", "name": "conv4_block9_0_relu"}, "class_name": "Activation", "inbound_nodes": [[["conv4_block9_0_bn", 0, 0, {}]]]}, {"name": "conv4_block9_1_conv", "config": {"trainable": true, "activation": "linear", "use_bias": false, "bias_initializer": {"config": {}, "class_name": "Zeros"}, "padding": "valid", "data_format": "channels_last", "filters": 128, "kernel_regularizer": null, "kernel_initializer": {"config": {"scale": 1.0, "mode": "fan_avg", "distribution": "uniform", "seed": null}, "class_name": "VarianceScaling"}, "activity_regularizer": null, "kernel_constraint": null, "kernel_size": [1, 1], "bias_regularizer": null, "dilation_rate": [1, 1], "name": "conv4_block9_1_conv", "strides": [1, 1], "bias_constraint": null}, "class_name": "Conv2D", "inbound_nodes": [[["conv4_block9_0_relu", 0, 0, {}]]]}, {"name": "conv4_block9_1_bn", "config": {"trainable": true, "gamma_regularizer": null, "scale": true, "momentum": 0.99, "center": true, "axis": 3, "beta_regularizer": null, "name": "conv4_block9_1_bn", "moving_mean_initializer": {"config": {}, "class_name": "Zeros"}, "gamma_constraint": null, "moving_variance_initializer": {"config": {}, "class_name": "Ones"}, "beta_constraint": null, "gamma_initializer": {"config": {}, "class_name": "Ones"}, "epsilon": 1.001e-05, "beta_initializer": {"config": {}, "class_name": "Zeros"}}, "class_name": "BatchNormalization", "inbound_nodes": [[["conv4_block9_1_conv", 0, 0, {}]]]}, {"name": "conv4_block9_1_relu", "config": {"trainable": true, "activation": "relu", "name": "conv4_block9_1_relu"}, "class_name": "Activation", "inbound_nodes": [[["conv4_block9_1_bn", 0, 0, {}]]]}, {"name": "conv4_block9_2_conv", "config": {"trainable": true, "activation": "linear", "use_bias": false, "bias_initializer": {"config": {}, "class_name": "Zeros"}, "padding": "same", "data_format": "channels_last", "filters": 32, "kernel_regularizer": null, "kernel_initializer": {"config": {"scale": 1.0, "mode": "fan_avg", "distribution": "uniform", "seed": null}, "class_name": "VarianceScaling"}, "activity_regularizer": null, "kernel_constraint": null, "kernel_size": [3, 3], "bias_regularizer": null, "dilation_rate": [1, 1], "name": "conv4_block9_2_conv", "strides": [1, 1], "bias_constraint": null}, "class_name": "Conv2D", "inbound_nodes": [[["conv4_block9_1_relu", 0, 0, {}]]]}, {"name": "conv4_block9_concat", "config": {"trainable": true, "name": "conv4_block9_concat", "axis": 3}, "class_name": "Concatenate", "inbound_nodes": [[["conv4_block8_concat", 0, 0, {}], ["conv4_block9_2_conv", 0, 0, {}]]]}, {"name": "conv4_block10_0_bn", "config": {"trainable": true, "gamma_regularizer": null, "scale": true, "momentum": 0.99, "center": true, "axis": 3, "beta_regularizer": null, "name": "conv4_block10_0_bn", "moving_mean_initializer": {"config": {}, "class_name": "Zeros"}, "gamma_constraint": null, "moving_variance_initializer": {"config": {}, "class_name": "Ones"}, "beta_constraint": null, "gamma_initializer": {"config": {}, "class_name": "Ones"}, "epsilon": 1.001e-05, "beta_initializer": {"config": {}, "class_name": "Zeros"}}, "class_name": "BatchNormalization", "inbound_nodes": [[["conv4_block9_concat", 0, 0, {}]]]}, {"name": "conv4_block10_0_relu", "config": {"trainable": true, "activation": "relu", "name": "conv4_block10_0_relu"}, "class_name": "Activation", "inbound_nodes": [[["conv4_block10_0_bn", 0, 0, {}]]]}, {"name": "conv4_block10_1_conv", "config": {"trainable": true, "activation": "linear", "use_bias": false, "bias_initializer": {"config": {}, "class_name": "Zeros"}, "padding": "valid", "data_format": "channels_last", "filters": 128, "kernel_regularizer": null, "kernel_initializer": {"config": {"scale": 1.0, "mode": "fan_avg", "distribution": "uniform", "seed": null}, "class_name": "VarianceScaling"}, "activity_regularizer": null, "kernel_constraint": null, "kernel_size": [1, 1], "bias_regularizer": null, "dilation_rate": [1, 1], "name": "conv4_block10_1_conv", "strides": [1, 1], "bias_constraint": null}, "class_name": "Conv2D", "inbound_nodes": [[["conv4_block10_0_relu", 0, 0, {}]]]}, {"name": "conv4_block10_1_bn", "config": {"trainable": true, "gamma_regularizer": null, "scale": true, "momentum": 0.99, "center": true, "axis": 3, "beta_regularizer": null, "name": "conv4_block10_1_bn", "moving_mean_initializer": {"config": {}, "class_name": "Zeros"}, "gamma_constraint": null, "moving_variance_initializer": {"config": {}, "class_name": "Ones"}, "beta_constraint": null, "gamma_initializer": {"config": {}, "class_name": "Ones"}, "epsilon": 1.001e-05, "beta_initializer": {"config": {}, "class_name": "Zeros"}}, "class_name": "BatchNormalization", "inbound_nodes": [[["conv4_block10_1_conv", 0, 0, {}]]]}, {"name": "conv4_block10_1_relu", "config": {"trainable": true, "activation": "relu", "name": "conv4_block10_1_relu"}, "class_name": "Activation", "inbound_nodes": [[["conv4_block10_1_bn", 0, 0, {}]]]}, {"name": "conv4_block10_2_conv", "config": {"trainable": true, "activation": "linear", "use_bias": false, "bias_initializer": {"config": {}, "class_name": "Zeros"}, "padding": "same", "data_format": "channels_last", "filters": 32, "kernel_regularizer": null, "kernel_initializer": {"config": {"scale": 1.0, "mode": "fan_avg", "distribution": "uniform", "seed": null}, "class_name": "VarianceScaling"}, "activity_regularizer": null, "kernel_constraint": null, "kernel_size": [3, 3], "bias_regularizer": null, "dilation_rate": [1, 1], "name": "conv4_block10_2_conv", "strides": [1, 1], "bias_constraint": null}, "class_name": "Conv2D", "inbound_nodes": [[["conv4_block10_1_relu", 0, 0, {}]]]}, {"name": "conv4_block10_concat", "config": {"trainable": true, "name": "conv4_block10_concat", "axis": 3}, "class_name": "Concatenate", "inbound_nodes": [[["conv4_block9_concat", 0, 0, {}], ["conv4_block10_2_conv", 0, 0, {}]]]}, {"name": "conv4_block11_0_bn", "config": {"trainable": true, "gamma_regularizer": null, "scale": true, "momentum": 0.99, "center": true, "axis": 3, "beta_regularizer": null, "name": "conv4_block11_0_bn", "moving_mean_initializer": {"config": {}, "class_name": "Zeros"}, "gamma_constraint": null, "moving_variance_initializer": {"config": {}, "class_name": "Ones"}, "beta_constraint": null, "gamma_initializer": {"config": {}, "class_name": "Ones"}, "epsilon": 1.001e-05, "beta_initializer": {"config": {}, "class_name": "Zeros"}}, "class_name": "BatchNormalization", "inbound_nodes": [[["conv4_block10_concat", 0, 0, {}]]]}, {"name": "conv4_block11_0_relu", "config": {"trainable": true, "activation": "relu", "name": "conv4_block11_0_relu"}, "class_name": "Activation", "inbound_nodes": [[["conv4_block11_0_bn", 0, 0, {}]]]}, {"name": "conv4_block11_1_conv", "config": {"trainable": true, "activation": "linear", "use_bias": false, "bias_initializer": {"config": {}, "class_name": "Zeros"}, "padding": "valid", "data_format": "channels_last", "filters": 128, "kernel_regularizer": null, "kernel_initializer": {"config": {"scale": 1.0, "mode": "fan_avg", "distribution": "uniform", "seed": null}, "class_name": "VarianceScaling"}, "activity_regularizer": null, "kernel_constraint": null, "kernel_size": [1, 1], "bias_regularizer": null, "dilation_rate": [1, 1], "name": "conv4_block11_1_conv", "strides": [1, 1], "bias_constraint": null}, "class_name": "Conv2D", "inbound_nodes": [[["conv4_block11_0_relu", 0, 0, {}]]]}, {"name": "conv4_block11_1_bn", "config": {"trainable": true, "gamma_regularizer": null, "scale": true, "momentum": 0.99, "center": true, "axis": 3, "beta_regularizer": null, "name": "conv4_block11_1_bn", "moving_mean_initializer": {"config": {}, "class_name": "Zeros"}, "gamma_constraint": null, "moving_variance_initializer": {"config": {}, "class_name": "Ones"}, "beta_constraint": null, "gamma_initializer": {"config": {}, "class_name": "Ones"}, "epsilon": 1.001e-05, "beta_initializer": {"config": {}, "class_name": "Zeros"}}, "class_name": "BatchNormalization", "inbound_nodes": [[["conv4_block11_1_conv", 0, 0, {}]]]}, {"name": "conv4_block11_1_relu", "config": {"trainable": true, "activation": "relu", "name": "conv4_block11_1_relu"}, "class_name": "Activation", "inbound_nodes": [[["conv4_block11_1_bn", 0, 0, {}]]]}, {"name": "conv4_block11_2_conv", "config": {"trainable": true, "activation": "linear", "use_bias": false, "bias_initializer": {"config": {}, "class_name": "Zeros"}, "padding": "same", "data_format": "channels_last", "filters": 32, "kernel_regularizer": null, "kernel_initializer": {"config": {"scale": 1.0, "mode": "fan_avg", "distribution": "uniform", "seed": null}, "class_name": "VarianceScaling"}, "activity_regularizer": null, "kernel_constraint": null, "kernel_size": [3, 3], "bias_regularizer": null, "dilation_rate": [1, 1], "name": "conv4_block11_2_conv", "strides": [1, 1], "bias_constraint": null}, "class_name": "Conv2D", "inbound_nodes": [[["conv4_block11_1_relu", 0, 0, {}]]]}, {"name": "conv4_block11_concat", "config": {"trainable": true, "name": "conv4_block11_concat", "axis": 3}, "class_name": "Concatenate", "inbound_nodes": [[["conv4_block10_concat", 0, 0, {}], ["conv4_block11_2_conv", 0, 0, {}]]]}, {"name": "conv4_block12_0_bn", "config": {"trainable": true, "gamma_regularizer": null, "scale": true, "momentum": 0.99, "center": true, "axis": 3, "beta_regularizer": null, "name": "conv4_block12_0_bn", "moving_mean_initializer": {"config": {}, "class_name": "Zeros"}, "gamma_constraint": null, "moving_variance_initializer": {"config": {}, "class_name": "Ones"}, "beta_constraint": null, "gamma_initializer": {"config": {}, "class_name": "Ones"}, "epsilon": 1.001e-05, "beta_initializer": {"config": {}, "class_name": "Zeros"}}, "class_name": "BatchNormalization", "inbound_nodes": [[["conv4_block11_concat", 0, 0, {}]]]}, {"name": "conv4_block12_0_relu", "config": {"trainable": true, "activation": "relu", "name": "conv4_block12_0_relu"}, "class_name": "Activation", "inbound_nodes": [[["conv4_block12_0_bn", 0, 0, {}]]]}, {"name": "conv4_block12_1_conv", "config": {"trainable": true, "activation": "linear", "use_bias": false, "bias_initializer": {"config": {}, "class_name": "Zeros"}, "padding": "valid", "data_format": "channels_last", "filters": 128, "kernel_regularizer": null, "kernel_initializer": {"config": {"scale": 1.0, "mode": "fan_avg", "distribution": "uniform", "seed": null}, "class_name": "VarianceScaling"}, "activity_regularizer": null, "kernel_constraint": null, "kernel_size": [1, 1], "bias_regularizer": null, "dilation_rate": [1, 1], "name": "conv4_block12_1_conv", "strides": [1, 1], "bias_constraint": null}, "class_name": "Conv2D", "inbound_nodes": [[["conv4_block12_0_relu", 0, 0, {}]]]}, {"name": "conv4_block12_1_bn", "config": {"trainable": true, "gamma_regularizer": null, "scale": true, "momentum": 0.99, "center": true, "axis": 3, "beta_regularizer": null, "name": "conv4_block12_1_bn", "moving_mean_initializer": {"config": {}, "class_name": "Zeros"}, "gamma_constraint": null, "moving_variance_initializer": {"config": {}, "class_name": "Ones"}, "beta_constraint": null, "gamma_initializer": {"config": {}, "class_name": "Ones"}, "epsilon": 1.001e-05, "beta_initializer": {"config": {}, "class_name": "Zeros"}}, "class_name": "BatchNormalization", "inbound_nodes": [[["conv4_block12_1_conv", 0, 0, {}]]]}, {"name": "conv4_block12_1_relu", "config": {"trainable": true, "activation": "relu", "name": "conv4_block12_1_relu"}, "class_name": "Activation", "inbound_nodes": [[["conv4_block12_1_bn", 0, 0, {}]]]}, {"name": "conv4_block12_2_conv", "config": {"trainable": true, "activation": "linear", "use_bias": false, "bias_initializer": {"config": {}, "class_name": "Zeros"}, "padding": "same", "data_format": "channels_last", "filters": 32, "kernel_regularizer": null, "kernel_initializer": {"config": {"scale": 1.0, "mode": "fan_avg", "distribution": "uniform", "seed": null}, "class_name": "VarianceScaling"}, "activity_regularizer": null, "kernel_constraint": null, "kernel_size": [3, 3], "bias_regularizer": null, "dilation_rate": [1, 1], "name": "conv4_block12_2_conv", "strides": [1, 1], "bias_constraint": null}, "class_name": "Conv2D", "inbound_nodes": [[["conv4_block12_1_relu", 0, 0, {}]]]}, {"name": "conv4_block12_concat", "config": {"trainable": true, "name": "conv4_block12_concat", "axis": 3}, "class_name": "Concatenate", "inbound_nodes": [[["conv4_block11_concat", 0, 0, {}], ["conv4_block12_2_conv", 0, 0, {}]]]}, {"name": "conv4_block13_0_bn", "config": {"trainable": true, "gamma_regularizer": null, "scale": true, "momentum": 0.99, "center": true, "axis": 3, "beta_regularizer": null, "name": "conv4_block13_0_bn", "moving_mean_initializer": {"config": {}, "class_name": "Zeros"}, "gamma_constraint": null, "moving_variance_initializer": {"config": {}, "class_name": "Ones"}, "beta_constraint": null, "gamma_initializer": {"config": {}, "class_name": "Ones"}, "epsilon": 1.001e-05, "beta_initializer": {"config": {}, "class_name": "Zeros"}}, "class_name": "BatchNormalization", "inbound_nodes": [[["conv4_block12_concat", 0, 0, {}]]]}, {"name": "conv4_block13_0_relu", "config": {"trainable": true, "activation": "relu", "name": "conv4_block13_0_relu"}, "class_name": "Activation", "inbound_nodes": [[["conv4_block13_0_bn", 0, 0, {}]]]}, {"name": "conv4_block13_1_conv", "config": {"trainable": true, "activation": "linear", "use_bias": false, "bias_initializer": {"config": {}, "class_name": "Zeros"}, "padding": "valid", "data_format": "channels_last", "filters": 128, "kernel_regularizer": null, "kernel_initializer": {"config": {"scale": 1.0, "mode": "fan_avg", "distribution": "uniform", "seed": null}, "class_name": "VarianceScaling"}, "activity_regularizer": null, "kernel_constraint": null, "kernel_size": [1, 1], "bias_regularizer": null, "dilation_rate": [1, 1], "name": "conv4_block13_1_conv", "strides": [1, 1], "bias_constraint": null}, "class_name": "Conv2D", "inbound_nodes": [[["conv4_block13_0_relu", 0, 0, {}]]]}, {"name": "conv4_block13_1_bn", "config": {"trainable": true, "gamma_regularizer": null, "scale": true, "momentum": 0.99, "center": true, "axis": 3, "beta_regularizer": null, "name": "conv4_block13_1_bn", "moving_mean_initializer": {"config": {}, "class_name": "Zeros"}, "gamma_constraint": null, "moving_variance_initializer": {"config": {}, "class_name": "Ones"}, "beta_constraint": null, "gamma_initializer": {"config": {}, "class_name": "Ones"}, "epsilon": 1.001e-05, "beta_initializer": {"config": {}, "class_name": "Zeros"}}, "class_name": "BatchNormalization", "inbound_nodes": [[["conv4_block13_1_conv", 0, 0, {}]]]}, {"name": "conv4_block13_1_relu", "config": {"trainable": true, "activation": "relu", "name": "conv4_block13_1_relu"}, "class_name": "Activation", "inbound_nodes": [[["conv4_block13_1_bn", 0, 0, {}]]]}, {"name": "conv4_block13_2_conv", "config": {"trainable": true, "activation": "linear", "use_bias": false, "bias_initializer": {"config": {}, "class_name": "Zeros"}, "padding": "same", "data_format": "channels_last", "filters": 32, "kernel_regularizer": null, "kernel_initializer": {"config": {"scale": 1.0, "mode": "fan_avg", "distribution": "uniform", "seed": null}, "class_name": "VarianceScaling"}, "activity_regularizer": null, "kernel_constraint": null, "kernel_size": [3, 3], "bias_regularizer": null, "dilation_rate": [1, 1], "name": "conv4_block13_2_conv", "strides": [1, 1], "bias_constraint": null}, "class_name": "Conv2D", "inbound_nodes": [[["conv4_block13_1_relu", 0, 0, {}]]]}, {"name": "conv4_block13_concat", "config": {"trainable": true, "name": "conv4_block13_concat", "axis": 3}, "class_name": "Concatenate", "inbound_nodes": [[["conv4_block12_concat", 0, 0, {}], ["conv4_block13_2_conv", 0, 0, {}]]]}, {"name": "conv4_block14_0_bn", "config": {"trainable": true, "gamma_regularizer": null, "scale": true, "momentum": 0.99, "center": true, "axis": 3, "beta_regularizer": null, "name": "conv4_block14_0_bn", "moving_mean_initializer": {"config": {}, "class_name": "Zeros"}, "gamma_constraint": null, "moving_variance_initializer": {"config": {}, "class_name": "Ones"}, "beta_constraint": null, "gamma_initializer": {"config": {}, "class_name": "Ones"}, "epsilon": 1.001e-05, "beta_initializer": {"config": {}, "class_name": "Zeros"}}, "class_name": "BatchNormalization", "inbound_nodes": [[["conv4_block13_concat", 0, 0, {}]]]}, {"name": "conv4_block14_0_relu", "config": {"trainable": true, "activation": "relu", "name": "conv4_block14_0_relu"}, "class_name": "Activation", "inbound_nodes": [[["conv4_block14_0_bn", 0, 0, {}]]]}, {"name": "conv4_block14_1_conv", "config": {"trainable": true, "activation": "linear", "use_bias": false, "bias_initializer": {"config": {}, "class_name": "Zeros"}, "padding": "valid", "data_format": "channels_last", "filters": 128, "kernel_regularizer": null, "kernel_initializer": {"config": {"scale": 1.0, "mode": "fan_avg", "distribution": "uniform", "seed": null}, "class_name": "VarianceScaling"}, "activity_regularizer": null, "kernel_constraint": null, "kernel_size": [1, 1], "bias_regularizer": null, "dilation_rate": [1, 1], "name": "conv4_block14_1_conv", "strides": [1, 1], "bias_constraint": null}, "class_name": "Conv2D", "inbound_nodes": [[["conv4_block14_0_relu", 0, 0, {}]]]}, {"name": "conv4_block14_1_bn", "config": {"trainable": true, "gamma_regularizer": null, "scale": true, "momentum": 0.99, "center": true, "axis": 3, "beta_regularizer": null, "name": "conv4_block14_1_bn", "moving_mean_initializer": {"config": {}, "class_name": "Zeros"}, "gamma_constraint": null, "moving_variance_initializer": {"config": {}, "class_name": "Ones"}, "beta_constraint": null, "gamma_initializer": {"config": {}, "class_name": "Ones"}, "epsilon": 1.001e-05, "beta_initializer": {"config": {}, "class_name": "Zeros"}}, "class_name": "BatchNormalization", "inbound_nodes": [[["conv4_block14_1_conv", 0, 0, {}]]]}, {"name": "conv4_block14_1_relu", "config": {"trainable": true, "activation": "relu", "name": "conv4_block14_1_relu"}, "class_name": "Activation", "inbound_nodes": [[["conv4_block14_1_bn", 0, 0, {}]]]}, {"name": "conv4_block14_2_conv", "config": {"trainable": true, "activation": "linear", "use_bias": false, "bias_initializer": {"config": {}, "class_name": "Zeros"}, "padding": "same", "data_format": "channels_last", "filters": 32, "kernel_regularizer": null, "kernel_initializer": {"config": {"scale": 1.0, "mode": "fan_avg", "distribution": "uniform", "seed": null}, "class_name": "VarianceScaling"}, "activity_regularizer": null, "kernel_constraint": null, "kernel_size": [3, 3], "bias_regularizer": null, "dilation_rate": [1, 1], "name": "conv4_block14_2_conv", "strides": [1, 1], "bias_constraint": null}, "class_name": "Conv2D", "inbound_nodes": [[["conv4_block14_1_relu", 0, 0, {}]]]}, {"name": "conv4_block14_concat", "config": {"trainable": true, "name": "conv4_block14_concat", "axis": 3}, "class_name": "Concatenate", "inbound_nodes": [[["conv4_block13_concat", 0, 0, {}], ["conv4_block14_2_conv", 0, 0, {}]]]}, {"name": "conv4_block15_0_bn", "config": {"trainable": true, "gamma_regularizer": null, "scale": true, "momentum": 0.99, "center": true, "axis": 3, "beta_regularizer": null, "name": "conv4_block15_0_bn", "moving_mean_initializer": {"config": {}, "class_name": "Zeros"}, "gamma_constraint": null, "moving_variance_initializer": {"config": {}, "class_name": "Ones"}, "beta_constraint": null, "gamma_initializer": {"config": {}, "class_name": "Ones"}, "epsilon": 1.001e-05, "beta_initializer": {"config": {}, "class_name": "Zeros"}}, "class_name": "BatchNormalization", "inbound_nodes": [[["conv4_block14_concat", 0, 0, {}]]]}, {"name": "conv4_block15_0_relu", "config": {"trainable": true, "activation": "relu", "name": "conv4_block15_0_relu"}, "class_name": "Activation", "inbound_nodes": [[["conv4_block15_0_bn", 0, 0, {}]]]}, {"name": "conv4_block15_1_conv", "config": {"trainable": true, "activation": "linear", "use_bias": false, "bias_initializer": {"config": {}, "class_name": "Zeros"}, "padding": "valid", "data_format": "channels_last", "filters": 128, "kernel_regularizer": null, "kernel_initializer": {"config": {"scale": 1.0, "mode": "fan_avg", "distribution": "uniform", "seed": null}, "class_name": "VarianceScaling"}, "activity_regularizer": null, "kernel_constraint": null, "kernel_size": [1, 1], "bias_regularizer": null, "dilation_rate": [1, 1], "name": "conv4_block15_1_conv", "strides": [1, 1], "bias_constraint": null}, "class_name": "Conv2D", "inbound_nodes": [[["conv4_block15_0_relu", 0, 0, {}]]]}, {"name": "conv4_block15_1_bn", "config": {"trainable": true, "gamma_regularizer": null, "scale": true, "momentum": 0.99, "center": true, "axis": 3, "beta_regularizer": null, "name": "conv4_block15_1_bn", "moving_mean_initializer": {"config": {}, "class_name": "Zeros"}, "gamma_constraint": null, "moving_variance_initializer": {"config": {}, "class_name": "Ones"}, "beta_constraint": null, "gamma_initializer": {"config": {}, "class_name": "Ones"}, "epsilon": 1.001e-05, "beta_initializer": {"config": {}, "class_name": "Zeros"}}, "class_name": "BatchNormalization", "inbound_nodes": [[["conv4_block15_1_conv", 0, 0, {}]]]}, {"name": "conv4_block15_1_relu", "config": {"trainable": true, "activation": "relu", "name": "conv4_block15_1_relu"}, "class_name": "Activation", "inbound_nodes": [[["conv4_block15_1_bn", 0, 0, {}]]]}, {"name": "conv4_block15_2_conv", "config": {"trainable": true, "activation": "linear", "use_bias": false, "bias_initializer": {"config": {}, "class_name": "Zeros"}, "padding": "same", "data_format": "channels_last", "filters": 32, "kernel_regularizer": null, "kernel_initializer": {"config": {"scale": 1.0, "mode": "fan_avg", "distribution": "uniform", "seed": null}, "class_name": "VarianceScaling"}, "activity_regularizer": null, "kernel_constraint": null, "kernel_size": [3, 3], "bias_regularizer": null, "dilation_rate": [1, 1], "name": "conv4_block15_2_conv", "strides": [1, 1], "bias_constraint": null}, "class_name": "Conv2D", "inbound_nodes": [[["conv4_block15_1_relu", 0, 0, {}]]]}, {"name": "conv4_block15_concat", "config": {"trainable": true, "name": "conv4_block15_concat", "axis": 3}, "class_name": "Concatenate", "inbound_nodes": [[["conv4_block14_concat", 0, 0, {}], ["conv4_block15_2_conv", 0, 0, {}]]]}, {"name": "conv4_block16_0_bn", "config": {"trainable": true, "gamma_regularizer": null, "scale": true, "momentum": 0.99, "center": true, "axis": 3, "beta_regularizer": null, "name": "conv4_block16_0_bn", "moving_mean_initializer": {"config": {}, "class_name": "Zeros"}, "gamma_constraint": null, "moving_variance_initializer": {"config": {}, "class_name": "Ones"}, "beta_constraint": null, "gamma_initializer": {"config": {}, "class_name": "Ones"}, "epsilon": 1.001e-05, "beta_initializer": {"config": {}, "class_name": "Zeros"}}, "class_name": "BatchNormalization", "inbound_nodes": [[["conv4_block15_concat", 0, 0, {}]]]}, {"name": "conv4_block16_0_relu", "config": {"trainable": true, "activation": "relu", "name": "conv4_block16_0_relu"}, "class_name": "Activation", "inbound_nodes": [[["conv4_block16_0_bn", 0, 0, {}]]]}, {"name": "conv4_block16_1_conv", "config": {"trainable": true, "activation": "linear", "use_bias": false, "bias_initializer": {"config": {}, "class_name": "Zeros"}, "padding": "valid", "data_format": "channels_last", "filters": 128, "kernel_regularizer": null, "kernel_initializer": {"config": {"scale": 1.0, "mode": "fan_avg", "distribution": "uniform", "seed": null}, "class_name": "VarianceScaling"}, "activity_regularizer": null, "kernel_constraint": null, "kernel_size": [1, 1], "bias_regularizer": null, "dilation_rate": [1, 1], "name": "conv4_block16_1_conv", "strides": [1, 1], "bias_constraint": null}, "class_name": "Conv2D", "inbound_nodes": [[["conv4_block16_0_relu", 0, 0, {}]]]}, {"name": "conv4_block16_1_bn", "config": {"trainable": true, "gamma_regularizer": null, "scale": true, "momentum": 0.99, "center": true, "axis": 3, "beta_regularizer": null, "name": "conv4_block16_1_bn", "moving_mean_initializer": {"config": {}, "class_name": "Zeros"}, "gamma_constraint": null, "moving_variance_initializer": {"config": {}, "class_name": "Ones"}, "beta_constraint": null, "gamma_initializer": {"config": {}, "class_name": "Ones"}, "epsilon": 1.001e-05, "beta_initializer": {"config": {}, "class_name": "Zeros"}}, "class_name": "BatchNormalization", "inbound_nodes": [[["conv4_block16_1_conv", 0, 0, {}]]]}, {"name": "conv4_block16_1_relu", "config": {"trainable": true, "activation": "relu", "name": "conv4_block16_1_relu"}, "class_name": "Activation", "inbound_nodes": [[["conv4_block16_1_bn", 0, 0, {}]]]}, {"name": "conv4_block16_2_conv", "config": {"trainable": true, "activation": "linear", "use_bias": false, "bias_initializer": {"config": {}, "class_name": "Zeros"}, "padding": "same", "data_format": "channels_last", "filters": 32, "kernel_regularizer": null, "kernel_initializer": {"config": {"scale": 1.0, "mode": "fan_avg", "distribution": "uniform", "seed": null}, "class_name": "VarianceScaling"}, "activity_regularizer": null, "kernel_constraint": null, "kernel_size": [3, 3], "bias_regularizer": null, "dilation_rate": [1, 1], "name": "conv4_block16_2_conv", "strides": [1, 1], "bias_constraint": null}, "class_name": "Conv2D", "inbound_nodes": [[["conv4_block16_1_relu", 0, 0, {}]]]}, {"name": "conv4_block16_concat", "config": {"trainable": true, "name": "conv4_block16_concat", "axis": 3}, "class_name": "Concatenate", "inbound_nodes": [[["conv4_block15_concat", 0, 0, {}], ["conv4_block16_2_conv", 0, 0, {}]]]}, {"name": "conv4_block17_0_bn", "config": {"trainable": true, "gamma_regularizer": null, "scale": true, "momentum": 0.99, "center": true, "axis": 3, "beta_regularizer": null, "name": "conv4_block17_0_bn", "moving_mean_initializer": {"config": {}, "class_name": "Zeros"}, "gamma_constraint": null, "moving_variance_initializer": {"config": {}, "class_name": "Ones"}, "beta_constraint": null, "gamma_initializer": {"config": {}, "class_name": "Ones"}, "epsilon": 1.001e-05, "beta_initializer": {"config": {}, "class_name": "Zeros"}}, "class_name": "BatchNormalization", "inbound_nodes": [[["conv4_block16_concat", 0, 0, {}]]]}, {"name": "conv4_block17_0_relu", "config": {"trainable": true, "activation": "relu", "name": "conv4_block17_0_relu"}, "class_name": "Activation", "inbound_nodes": [[["conv4_block17_0_bn", 0, 0, {}]]]}, {"name": "conv4_block17_1_conv", "config": {"trainable": true, "activation": "linear", "use_bias": false, "bias_initializer": {"config": {}, "class_name": "Zeros"}, "padding": "valid", "data_format": "channels_last", "filters": 128, "kernel_regularizer": null, "kernel_initializer": {"config": {"scale": 1.0, "mode": "fan_avg", "distribution": "uniform", "seed": null}, "class_name": "VarianceScaling"}, "activity_regularizer": null, "kernel_constraint": null, "kernel_size": [1, 1], "bias_regularizer": null, "dilation_rate": [1, 1], "name": "conv4_block17_1_conv", "strides": [1, 1], "bias_constraint": null}, "class_name": "Conv2D", "inbound_nodes": [[["conv4_block17_0_relu", 0, 0, {}]]]}, {"name": "conv4_block17_1_bn", "config": {"trainable": true, "gamma_regularizer": null, "scale": true, "momentum": 0.99, "center": true, "axis": 3, "beta_regularizer": null, "name": "conv4_block17_1_bn", "moving_mean_initializer": {"config": {}, "class_name": "Zeros"}, "gamma_constraint": null, "moving_variance_initializer": {"config": {}, "class_name": "Ones"}, "beta_constraint": null, "gamma_initializer": {"config": {}, "class_name": "Ones"}, "epsilon": 1.001e-05, "beta_initializer": {"config": {}, "class_name": "Zeros"}}, "class_name": "BatchNormalization", "inbound_nodes": [[["conv4_block17_1_conv", 0, 0, {}]]]}, {"name": "conv4_block17_1_relu", "config": {"trainable": true, "activation": "relu", "name": "conv4_block17_1_relu"}, "class_name": "Activation", "inbound_nodes": [[["conv4_block17_1_bn", 0, 0, {}]]]}, {"name": "conv4_block17_2_conv", "config": {"trainable": true, "activation": "linear", "use_bias": false, "bias_initializer": {"config": {}, "class_name": "Zeros"}, "padding": "same", "data_format": "channels_last", "filters": 32, "kernel_regularizer": null, "kernel_initializer": {"config": {"scale": 1.0, "mode": "fan_avg", "distribution": "uniform", "seed": null}, "class_name": "VarianceScaling"}, "activity_regularizer": null, "kernel_constraint": null, "kernel_size": [3, 3], "bias_regularizer": null, "dilation_rate": [1, 1], "name": "conv4_block17_2_conv", "strides": [1, 1], "bias_constraint": null}, "class_name": "Conv2D", "inbound_nodes": [[["conv4_block17_1_relu", 0, 0, {}]]]}, {"name": "conv4_block17_concat", "config": {"trainable": true, "name": "conv4_block17_concat", "axis": 3}, "class_name": "Concatenate", "inbound_nodes": [[["conv4_block16_concat", 0, 0, {}], ["conv4_block17_2_conv", 0, 0, {}]]]}, {"name": "conv4_block18_0_bn", "config": {"trainable": true, "gamma_regularizer": null, "scale": true, "momentum": 0.99, "center": true, "axis": 3, "beta_regularizer": null, "name": "conv4_block18_0_bn", "moving_mean_initializer": {"config": {}, "class_name": "Zeros"}, "gamma_constraint": null, "moving_variance_initializer": {"config": {}, "class_name": "Ones"}, "beta_constraint": null, "gamma_initializer": {"config": {}, "class_name": "Ones"}, "epsilon": 1.001e-05, "beta_initializer": {"config": {}, "class_name": "Zeros"}}, "class_name": "BatchNormalization", "inbound_nodes": [[["conv4_block17_concat", 0, 0, {}]]]}, {"name": "conv4_block18_0_relu", "config": {"trainable": true, "activation": "relu", "name": "conv4_block18_0_relu"}, "class_name": "Activation", "inbound_nodes": [[["conv4_block18_0_bn", 0, 0, {}]]]}, {"name": "conv4_block18_1_conv", "config": {"trainable": true, "activation": "linear", "use_bias": false, "bias_initializer": {"config": {}, "class_name": "Zeros"}, "padding": "valid", "data_format": "channels_last", "filters": 128, "kernel_regularizer": null, "kernel_initializer": {"config": {"scale": 1.0, "mode": "fan_avg", "distribution": "uniform", "seed": null}, "class_name": "VarianceScaling"}, "activity_regularizer": null, "kernel_constraint": null, "kernel_size": [1, 1], "bias_regularizer": null, "dilation_rate": [1, 1], "name": "conv4_block18_1_conv", "strides": [1, 1], "bias_constraint": null}, "class_name": "Conv2D", "inbound_nodes": [[["conv4_block18_0_relu", 0, 0, {}]]]}, {"name": "conv4_block18_1_bn", "config": {"trainable": true, "gamma_regularizer": null, "scale": true, "momentum": 0.99, "center": true, "axis": 3, "beta_regularizer": null, "name": "conv4_block18_1_bn", "moving_mean_initializer": {"config": {}, "class_name": "Zeros"}, "gamma_constraint": null, "moving_variance_initializer": {"config": {}, "class_name": "Ones"}, "beta_constraint": null, "gamma_initializer": {"config": {}, "class_name": "Ones"}, "epsilon": 1.001e-05, "beta_initializer": {"config": {}, "class_name": "Zeros"}}, "class_name": "BatchNormalization", "inbound_nodes": [[["conv4_block18_1_conv", 0, 0, {}]]]}, {"name": "conv4_block18_1_relu", "config": {"trainable": true, "activation": "relu", "name": "conv4_block18_1_relu"}, "class_name": "Activation", "inbound_nodes": [[["conv4_block18_1_bn", 0, 0, {}]]]}, {"name": "conv4_block18_2_conv", "config": {"trainable": true, "activation": "linear", "use_bias": false, "bias_initializer": {"config": {}, "class_name": "Zeros"}, "padding": "same", "data_format": "channels_last", "filters": 32, "kernel_regularizer": null, "kernel_initializer": {"config": {"scale": 1.0, "mode": "fan_avg", "distribution": "uniform", "seed": null}, "class_name": "VarianceScaling"}, "activity_regularizer": null, "kernel_constraint": null, "kernel_size": [3, 3], "bias_regularizer": null, "dilation_rate": [1, 1], "name": "conv4_block18_2_conv", "strides": [1, 1], "bias_constraint": null}, "class_name": "Conv2D", "inbound_nodes": [[["conv4_block18_1_relu", 0, 0, {}]]]}, {"name": "conv4_block18_concat", "config": {"trainable": true, "name": "conv4_block18_concat", "axis": 3}, "class_name": "Concatenate", "inbound_nodes": [[["conv4_block17_concat", 0, 0, {}], ["conv4_block18_2_conv", 0, 0, {}]]]}, {"name": "conv4_block19_0_bn", "config": {"trainable": true, "gamma_regularizer": null, "scale": true, "momentum": 0.99, "center": true, "axis": 3, "beta_regularizer": null, "name": "conv4_block19_0_bn", "moving_mean_initializer": {"config": {}, "class_name": "Zeros"}, "gamma_constraint": null, "moving_variance_initializer": {"config": {}, "class_name": "Ones"}, "beta_constraint": null, "gamma_initializer": {"config": {}, "class_name": "Ones"}, "epsilon": 1.001e-05, "beta_initializer": {"config": {}, "class_name": "Zeros"}}, "class_name": "BatchNormalization", "inbound_nodes": [[["conv4_block18_concat", 0, 0, {}]]]}, {"name": "conv4_block19_0_relu", "config": {"trainable": true, "activation": "relu", "name": "conv4_block19_0_relu"}, "class_name": "Activation", "inbound_nodes": [[["conv4_block19_0_bn", 0, 0, {}]]]}, {"name": "conv4_block19_1_conv", "config": {"trainable": true, "activation": "linear", "use_bias": false, "bias_initializer": {"config": {}, "class_name": "Zeros"}, "padding": "valid", "data_format": "channels_last", "filters": 128, "kernel_regularizer": null, "kernel_initializer": {"config": {"scale": 1.0, "mode": "fan_avg", "distribution": "uniform", "seed": null}, "class_name": "VarianceScaling"}, "activity_regularizer": null, "kernel_constraint": null, "kernel_size": [1, 1], "bias_regularizer": null, "dilation_rate": [1, 1], "name": "conv4_block19_1_conv", "strides": [1, 1], "bias_constraint": null}, "class_name": "Conv2D", "inbound_nodes": [[["conv4_block19_0_relu", 0, 0, {}]]]}, {"name": "conv4_block19_1_bn", "config": {"trainable": true, "gamma_regularizer": null, "scale": true, "momentum": 0.99, "center": true, "axis": 3, "beta_regularizer": null, "name": "conv4_block19_1_bn", "moving_mean_initializer": {"config": {}, "class_name": "Zeros"}, "gamma_constraint": null, "moving_variance_initializer": {"config": {}, "class_name": "Ones"}, "beta_constraint": null, "gamma_initializer": {"config": {}, "class_name": "Ones"}, "epsilon": 1.001e-05, "beta_initializer": {"config": {}, "class_name": "Zeros"}}, "class_name": "BatchNormalization", "inbound_nodes": [[["conv4_block19_1_conv", 0, 0, {}]]]}, {"name": "conv4_block19_1_relu", "config": {"trainable": true, "activation": "relu", "name": "conv4_block19_1_relu"}, "class_name": "Activation", "inbound_nodes": [[["conv4_block19_1_bn", 0, 0, {}]]]}, {"name": "conv4_block19_2_conv", "config": {"trainable": true, "activation": "linear", "use_bias": false, "bias_initializer": {"config": {}, "class_name": "Zeros"}, "padding": "same", "data_format": "channels_last", "filters": 32, "kernel_regularizer": null, "kernel_initializer": {"config": {"scale": 1.0, "mode": "fan_avg", "distribution": "uniform", "seed": null}, "class_name": "VarianceScaling"}, "activity_regularizer": null, "kernel_constraint": null, "kernel_size": [3, 3], "bias_regularizer": null, "dilation_rate": [1, 1], "name": "conv4_block19_2_conv", "strides": [1, 1], "bias_constraint": null}, "class_name": "Conv2D", "inbound_nodes": [[["conv4_block19_1_relu", 0, 0, {}]]]}, {"name": "conv4_block19_concat", "config": {"trainable": true, "name": "conv4_block19_concat", "axis": 3}, "class_name": "Concatenate", "inbound_nodes": [[["conv4_block18_concat", 0, 0, {}], ["conv4_block19_2_conv", 0, 0, {}]]]}, {"name": "conv4_block20_0_bn", "config": {"trainable": true, "gamma_regularizer": null, "scale": true, "momentum": 0.99, "center": true, "axis": 3, "beta_regularizer": null, "name": "conv4_block20_0_bn", "moving_mean_initializer": {"config": {}, "class_name": "Zeros"}, "gamma_constraint": null, "moving_variance_initializer": {"config": {}, "class_name": "Ones"}, "beta_constraint": null, "gamma_initializer": {"config": {}, "class_name": "Ones"}, "epsilon": 1.001e-05, "beta_initializer": {"config": {}, "class_name": "Zeros"}}, "class_name": "BatchNormalization", "inbound_nodes": [[["conv4_block19_concat", 0, 0, {}]]]}, {"name": "conv4_block20_0_relu", "config": {"trainable": true, "activation": "relu", "name": "conv4_block20_0_relu"}, "class_name": "Activation", "inbound_nodes": [[["conv4_block20_0_bn", 0, 0, {}]]]}, {"name": "conv4_block20_1_conv", "config": {"trainable": true, "activation": "linear", "use_bias": false, "bias_initializer": {"config": {}, "class_name": "Zeros"}, "padding": "valid", "data_format": "channels_last", "filters": 128, "kernel_regularizer": null, "kernel_initializer": {"config": {"scale": 1.0, "mode": "fan_avg", "distribution": "uniform", "seed": null}, "class_name": "VarianceScaling"}, "activity_regularizer": null, "kernel_constraint": null, "kernel_size": [1, 1], "bias_regularizer": null, "dilation_rate": [1, 1], "name": "conv4_block20_1_conv", "strides": [1, 1], "bias_constraint": null}, "class_name": "Conv2D", "inbound_nodes": [[["conv4_block20_0_relu", 0, 0, {}]]]}, {"name": "conv4_block20_1_bn", "config": {"trainable": true, "gamma_regularizer": null, "scale": true, "momentum": 0.99, "center": true, "axis": 3, "beta_regularizer": null, "name": "conv4_block20_1_bn", "moving_mean_initializer": {"config": {}, "class_name": "Zeros"}, "gamma_constraint": null, "moving_variance_initializer": {"config": {}, "class_name": "Ones"}, "beta_constraint": null, "gamma_initializer": {"config": {}, "class_name": "Ones"}, "epsilon": 1.001e-05, "beta_initializer": {"config": {}, "class_name": "Zeros"}}, "class_name": "BatchNormalization", "inbound_nodes": [[["conv4_block20_1_conv", 0, 0, {}]]]}, {"name": "conv4_block20_1_relu", "config": {"trainable": true, "activation": "relu", "name": "conv4_block20_1_relu"}, "class_name": "Activation", "inbound_nodes": [[["conv4_block20_1_bn", 0, 0, {}]]]}, {"name": "conv4_block20_2_conv", "config": {"trainable": true, "activation": "linear", "use_bias": false, "bias_initializer": {"config": {}, "class_name": "Zeros"}, "padding": "same", "data_format": "channels_last", "filters": 32, "kernel_regularizer": null, "kernel_initializer": {"config": {"scale": 1.0, "mode": "fan_avg", "distribution": "uniform", "seed": null}, "class_name": "VarianceScaling"}, "activity_regularizer": null, "kernel_constraint": null, "kernel_size": [3, 3], "bias_regularizer": null, "dilation_rate": [1, 1], "name": "conv4_block20_2_conv", "strides": [1, 1], "bias_constraint": null}, "class_name": "Conv2D", "inbound_nodes": [[["conv4_block20_1_relu", 0, 0, {}]]]}, {"name": "conv4_block20_concat", "config": {"trainable": true, "name": "conv4_block20_concat", "axis": 3}, "class_name": "Concatenate", "inbound_nodes": [[["conv4_block19_concat", 0, 0, {}], ["conv4_block20_2_conv", 0, 0, {}]]]}, {"name": "conv4_block21_0_bn", "config": {"trainable": true, "gamma_regularizer": null, "scale": true, "momentum": 0.99, "center": true, "axis": 3, "beta_regularizer": null, "name": "conv4_block21_0_bn", "moving_mean_initializer": {"config": {}, "class_name": "Zeros"}, "gamma_constraint": null, "moving_variance_initializer": {"config": {}, "class_name": "Ones"}, "beta_constraint": null, "gamma_initializer": {"config": {}, "class_name": "Ones"}, "epsilon": 1.001e-05, "beta_initializer": {"config": {}, "class_name": "Zeros"}}, "class_name": "BatchNormalization", "inbound_nodes": [[["conv4_block20_concat", 0, 0, {}]]]}, {"name": "conv4_block21_0_relu", "config": {"trainable": true, "activation": "relu", "name": "conv4_block21_0_relu"}, "class_name": "Activation", "inbound_nodes": [[["conv4_block21_0_bn", 0, 0, {}]]]}, {"name": "conv4_block21_1_conv", "config": {"trainable": true, "activation": "linear", "use_bias": false, "bias_initializer": {"config": {}, "class_name": "Zeros"}, "padding": "valid", "data_format": "channels_last", "filters": 128, "kernel_regularizer": null, "kernel_initializer": {"config": {"scale": 1.0, "mode": "fan_avg", "distribution": "uniform", "seed": null}, "class_name": "VarianceScaling"}, "activity_regularizer": null, "kernel_constraint": null, "kernel_size": [1, 1], "bias_regularizer": null, "dilation_rate": [1, 1], "name": "conv4_block21_1_conv", "strides": [1, 1], "bias_constraint": null}, "class_name": "Conv2D", "inbound_nodes": [[["conv4_block21_0_relu", 0, 0, {}]]]}, {"name": "conv4_block21_1_bn", "config": {"trainable": true, "gamma_regularizer": null, "scale": true, "momentum": 0.99, "center": true, "axis": 3, "beta_regularizer": null, "name": "conv4_block21_1_bn", "moving_mean_initializer": {"config": {}, "class_name": "Zeros"}, "gamma_constraint": null, "moving_variance_initializer": {"config": {}, "class_name": "Ones"}, "beta_constraint": null, "gamma_initializer": {"config": {}, "class_name": "Ones"}, "epsilon": 1.001e-05, "beta_initializer": {"config": {}, "class_name": "Zeros"}}, "class_name": "BatchNormalization", "inbound_nodes": [[["conv4_block21_1_conv", 0, 0, {}]]]}, {"name": "conv4_block21_1_relu", "config": {"trainable": true, "activation": "relu", "name": "conv4_block21_1_relu"}, "class_name": "Activation", "inbound_nodes": [[["conv4_block21_1_bn", 0, 0, {}]]]}, {"name": "conv4_block21_2_conv", "config": {"trainable": true, "activation": "linear", "use_bias": false, "bias_initializer": {"config": {}, "class_name": "Zeros"}, "padding": "same", "data_format": "channels_last", "filters": 32, "kernel_regularizer": null, "kernel_initializer": {"config": {"scale": 1.0, "mode": "fan_avg", "distribution": "uniform", "seed": null}, "class_name": "VarianceScaling"}, "activity_regularizer": null, "kernel_constraint": null, "kernel_size": [3, 3], "bias_regularizer": null, "dilation_rate": [1, 1], "name": "conv4_block21_2_conv", "strides": [1, 1], "bias_constraint": null}, "class_name": "Conv2D", "inbound_nodes": [[["conv4_block21_1_relu", 0, 0, {}]]]}, {"name": "conv4_block21_concat", "config": {"trainable": true, "name": "conv4_block21_concat", "axis": 3}, "class_name": "Concatenate", "inbound_nodes": [[["conv4_block20_concat", 0, 0, {}], ["conv4_block21_2_conv", 0, 0, {}]]]}, {"name": "conv4_block22_0_bn", "config": {"trainable": true, "gamma_regularizer": null, "scale": true, "momentum": 0.99, "center": true, "axis": 3, "beta_regularizer": null, "name": "conv4_block22_0_bn", "moving_mean_initializer": {"config": {}, "class_name": "Zeros"}, "gamma_constraint": null, "moving_variance_initializer": {"config": {}, "class_name": "Ones"}, "beta_constraint": null, "gamma_initializer": {"config": {}, "class_name": "Ones"}, "epsilon": 1.001e-05, "beta_initializer": {"config": {}, "class_name": "Zeros"}}, "class_name": "BatchNormalization", "inbound_nodes": [[["conv4_block21_concat", 0, 0, {}]]]}, {"name": "conv4_block22_0_relu", "config": {"trainable": true, "activation": "relu", "name": "conv4_block22_0_relu"}, "class_name": "Activation", "inbound_nodes": [[["conv4_block22_0_bn", 0, 0, {}]]]}, {"name": "conv4_block22_1_conv", "config": {"trainable": true, "activation": "linear", "use_bias": false, "bias_initializer": {"config": {}, "class_name": "Zeros"}, "padding": "valid", "data_format": "channels_last", "filters": 128, "kernel_regularizer": null, "kernel_initializer": {"config": {"scale": 1.0, "mode": "fan_avg", "distribution": "uniform", "seed": null}, "class_name": "VarianceScaling"}, "activity_regularizer": null, "kernel_constraint": null, "kernel_size": [1, 1], "bias_regularizer": null, "dilation_rate": [1, 1], "name": "conv4_block22_1_conv", "strides": [1, 1], "bias_constraint": null}, "class_name": "Conv2D", "inbound_nodes": [[["conv4_block22_0_relu", 0, 0, {}]]]}, {"name": "conv4_block22_1_bn", "config": {"trainable": true, "gamma_regularizer": null, "scale": true, "momentum": 0.99, "center": true, "axis": 3, "beta_regularizer": null, "name": "conv4_block22_1_bn", "moving_mean_initializer": {"config": {}, "class_name": "Zeros"}, "gamma_constraint": null, "moving_variance_initializer": {"config": {}, "class_name": "Ones"}, "beta_constraint": null, "gamma_initializer": {"config": {}, "class_name": "Ones"}, "epsilon": 1.001e-05, "beta_initializer": {"config": {}, "class_name": "Zeros"}}, "class_name": "BatchNormalization", "inbound_nodes": [[["conv4_block22_1_conv", 0, 0, {}]]]}, {"name": "conv4_block22_1_relu", "config": {"trainable": true, "activation": "relu", "name": "conv4_block22_1_relu"}, "class_name": "Activation", "inbound_nodes": [[["conv4_block22_1_bn", 0, 0, {}]]]}, {"name": "conv4_block22_2_conv", "config": {"trainable": true, "activation": "linear", "use_bias": false, "bias_initializer": {"config": {}, "class_name": "Zeros"}, "padding": "same", "data_format": "channels_last", "filters": 32, "kernel_regularizer": null, "kernel_initializer": {"config": {"scale": 1.0, "mode": "fan_avg", "distribution": "uniform", "seed": null}, "class_name": "VarianceScaling"}, "activity_regularizer": null, "kernel_constraint": null, "kernel_size": [3, 3], "bias_regularizer": null, "dilation_rate": [1, 1], "name": "conv4_block22_2_conv", "strides": [1, 1], "bias_constraint": null}, "class_name": "Conv2D", "inbound_nodes": [[["conv4_block22_1_relu", 0, 0, {}]]]}, {"name": "conv4_block22_concat", "config": {"trainable": true, "name": "conv4_block22_concat", "axis": 3}, "class_name": "Concatenate", "inbound_nodes": [[["conv4_block21_concat", 0, 0, {}], ["conv4_block22_2_conv", 0, 0, {}]]]}, {"name": "conv4_block23_0_bn", "config": {"trainable": true, "gamma_regularizer": null, "scale": true, "momentum": 0.99, "center": true, "axis": 3, "beta_regularizer": null, "name": "conv4_block23_0_bn", "moving_mean_initializer": {"config": {}, "class_name": "Zeros"}, "gamma_constraint": null, "moving_variance_initializer": {"config": {}, "class_name": "Ones"}, "beta_constraint": null, "gamma_initializer": {"config": {}, "class_name": "Ones"}, "epsilon": 1.001e-05, "beta_initializer": {"config": {}, "class_name": "Zeros"}}, "class_name": "BatchNormalization", "inbound_nodes": [[["conv4_block22_concat", 0, 0, {}]]]}, {"name": "conv4_block23_0_relu", "config": {"trainable": true, "activation": "relu", "name": "conv4_block23_0_relu"}, "class_name": "Activation", "inbound_nodes": [[["conv4_block23_0_bn", 0, 0, {}]]]}, {"name": "conv4_block23_1_conv", "config": {"trainable": true, "activation": "linear", "use_bias": false, "bias_initializer": {"config": {}, "class_name": "Zeros"}, "padding": "valid", "data_format": "channels_last", "filters": 128, "kernel_regularizer": null, "kernel_initializer": {"config": {"scale": 1.0, "mode": "fan_avg", "distribution": "uniform", "seed": null}, "class_name": "VarianceScaling"}, "activity_regularizer": null, "kernel_constraint": null, "kernel_size": [1, 1], "bias_regularizer": null, "dilation_rate": [1, 1], "name": "conv4_block23_1_conv", "strides": [1, 1], "bias_constraint": null}, "class_name": "Conv2D", "inbound_nodes": [[["conv4_block23_0_relu", 0, 0, {}]]]}, {"name": "conv4_block23_1_bn", "config": {"trainable": true, "gamma_regularizer": null, "scale": true, "momentum": 0.99, "center": true, "axis": 3, "beta_regularizer": null, "name": "conv4_block23_1_bn", "moving_mean_initializer": {"config": {}, "class_name": "Zeros"}, "gamma_constraint": null, "moving_variance_initializer": {"config": {}, "class_name": "Ones"}, "beta_constraint": null, "gamma_initializer": {"config": {}, "class_name": "Ones"}, "epsilon": 1.001e-05, "beta_initializer": {"config": {}, "class_name": "Zeros"}}, "class_name": "BatchNormalization", "inbound_nodes": [[["conv4_block23_1_conv", 0, 0, {}]]]}, {"name": "conv4_block23_1_relu", "config": {"trainable": true, "activation": "relu", "name": "conv4_block23_1_relu"}, "class_name": "Activation", "inbound_nodes": [[["conv4_block23_1_bn", 0, 0, {}]]]}, {"name": "conv4_block23_2_conv", "config": {"trainable": true, "activation": "linear", "use_bias": false, "bias_initializer": {"config": {}, "class_name": "Zeros"}, "padding": "same", "data_format": "channels_last", "filters": 32, "kernel_regularizer": null, "kernel_initializer": {"config": {"scale": 1.0, "mode": "fan_avg", "distribution": "uniform", "seed": null}, "class_name": "VarianceScaling"}, "activity_regularizer": null, "kernel_constraint": null, "kernel_size": [3, 3], "bias_regularizer": null, "dilation_rate": [1, 1], "name": "conv4_block23_2_conv", "strides": [1, 1], "bias_constraint": null}, "class_name": "Conv2D", "inbound_nodes": [[["conv4_block23_1_relu", 0, 0, {}]]]}, {"name": "conv4_block23_concat", "config": {"trainable": true, "name": "conv4_block23_concat", "axis": 3}, "class_name": "Concatenate", "inbound_nodes": [[["conv4_block22_concat", 0, 0, {}], ["conv4_block23_2_conv", 0, 0, {}]]]}, {"name": "conv4_block24_0_bn", "config": {"trainable": true, "gamma_regularizer": null, "scale": true, "momentum": 0.99, "center": true, "axis": 3, "beta_regularizer": null, "name": "conv4_block24_0_bn", "moving_mean_initializer": {"config": {}, "class_name": "Zeros"}, "gamma_constraint": null, "moving_variance_initializer": {"config": {}, "class_name": "Ones"}, "beta_constraint": null, "gamma_initializer": {"config": {}, "class_name": "Ones"}, "epsilon": 1.001e-05, "beta_initializer": {"config": {}, "class_name": "Zeros"}}, "class_name": "BatchNormalization", "inbound_nodes": [[["conv4_block23_concat", 0, 0, {}]]]}, {"name": "conv4_block24_0_relu", "config": {"trainable": true, "activation": "relu", "name": "conv4_block24_0_relu"}, "class_name": "Activation", "inbound_nodes": [[["conv4_block24_0_bn", 0, 0, {}]]]}, {"name": "conv4_block24_1_conv", "config": {"trainable": true, "activation": "linear", "use_bias": false, "bias_initializer": {"config": {}, "class_name": "Zeros"}, "padding": "valid", "data_format": "channels_last", "filters": 128, "kernel_regularizer": null, "kernel_initializer": {"config": {"scale": 1.0, "mode": "fan_avg", "distribution": "uniform", "seed": null}, "class_name": "VarianceScaling"}, "activity_regularizer": null, "kernel_constraint": null, "kernel_size": [1, 1], "bias_regularizer": null, "dilation_rate": [1, 1], "name": "conv4_block24_1_conv", "strides": [1, 1], "bias_constraint": null}, "class_name": "Conv2D", "inbound_nodes": [[["conv4_block24_0_relu", 0, 0, {}]]]}, {"name": "conv4_block24_1_bn", "config": {"trainable": true, "gamma_regularizer": null, "scale": true, "momentum": 0.99, "center": true, "axis": 3, "beta_regularizer": null, "name": "conv4_block24_1_bn", "moving_mean_initializer": {"config": {}, "class_name": "Zeros"}, "gamma_constraint": null, "moving_variance_initializer": {"config": {}, "class_name": "Ones"}, "beta_constraint": null, "gamma_initializer": {"config": {}, "class_name": "Ones"}, "epsilon": 1.001e-05, "beta_initializer": {"config": {}, "class_name": "Zeros"}}, "class_name": "BatchNormalization", "inbound_nodes": [[["conv4_block24_1_conv", 0, 0, {}]]]}, {"name": "conv4_block24_1_relu", "config": {"trainable": true, "activation": "relu", "name": "conv4_block24_1_relu"}, "class_name": "Activation", "inbound_nodes": [[["conv4_block24_1_bn", 0, 0, {}]]]}, {"name": "conv4_block24_2_conv", "config": {"trainable": true, "activation": "linear", "use_bias": false, "bias_initializer": {"config": {}, "class_name": "Zeros"}, "padding": "same", "data_format": "channels_last", "filters": 32, "kernel_regularizer": null, "kernel_initializer": {"config": {"scale": 1.0, "mode": "fan_avg", "distribution": "uniform", "seed": null}, "class_name": "VarianceScaling"}, "activity_regularizer": null, "kernel_constraint": null, "kernel_size": [3, 3], "bias_regularizer": null, "dilation_rate": [1, 1], "name": "conv4_block24_2_conv", "strides": [1, 1], "bias_constraint": null}, "class_name": "Conv2D", "inbound_nodes": [[["conv4_block24_1_relu", 0, 0, {}]]]}, {"name": "conv4_block24_concat", "config": {"trainable": true, "name": "conv4_block24_concat", "axis": 3}, "class_name": "Concatenate", "inbound_nodes": [[["conv4_block23_concat", 0, 0, {}], ["conv4_block24_2_conv", 0, 0, {}]]]}, {"name": "pool4_bn", "config": {"trainable": true, "gamma_regularizer": null, "scale": true, "momentum": 0.99, "center": true, "axis": 3, "beta_regularizer": null, "name": "pool4_bn", "moving_mean_initializer": {"config": {}, "class_name": "Zeros"}, "gamma_constraint": null, "moving_variance_initializer": {"config": {}, "class_name": "Ones"}, "beta_constraint": null, "gamma_initializer": {"config": {}, "class_name": "Ones"}, "epsilon": 1.001e-05, "beta_initializer": {"config": {}, "class_name": "Zeros"}}, "class_name": "BatchNormalization", "inbound_nodes": [[["conv4_block24_concat", 0, 0, {}]]]}, {"name": "pool4_relu", "config": {"trainable": true, "activation": "relu", "name": "pool4_relu"}, "class_name": "Activation", "inbound_nodes": [[["pool4_bn", 0, 0, {}]]]}, {"name": "pool4_conv", "config": {"trainable": true, "activation": "linear", "use_bias": false, "bias_initializer": {"config": {}, "class_name": "Zeros"}, "padding": "valid", "data_format": "channels_last", "filters": 512, "kernel_regularizer": null, "kernel_initializer": {"config": {"scale": 1.0, "mode": "fan_avg", "distribution": "uniform", "seed": null}, "class_name": "VarianceScaling"}, "activity_regularizer": null, "kernel_constraint": null, "kernel_size": [1, 1], "bias_regularizer": null, "dilation_rate": [1, 1], "name": "pool4_conv", "strides": [1, 1], "bias_constraint": null}, "class_name": "Conv2D", "inbound_nodes": [[["pool4_relu", 0, 0, {}]]]}, {"name": "pool4_pool", "config": {"trainable": true, "name": "pool4_pool", "data_format": "channels_last", "padding": "valid", "strides": [2, 2], "pool_size": [2, 2]}, "class_name": "AveragePooling2D", "inbound_nodes": [[["pool4_conv", 0, 0, {}]]]}, {"name": "conv5_block1_0_bn", "config": {"trainable": true, "gamma_regularizer": null, "scale": true, "momentum": 0.99, "center": true, "axis": 3, "beta_regularizer": null, "name": "conv5_block1_0_bn", "moving_mean_initializer": {"config": {}, "class_name": "Zeros"}, "gamma_constraint": null, "moving_variance_initializer": {"config": {}, "class_name": "Ones"}, "beta_constraint": null, "gamma_initializer": {"config": {}, "class_name": "Ones"}, "epsilon": 1.001e-05, "beta_initializer": {"config": {}, "class_name": "Zeros"}}, "class_name": "BatchNormalization", "inbound_nodes": [[["pool4_pool", 0, 0, {}]]]}, {"name": "conv5_block1_0_relu", "config": {"trainable": true, "activation": "relu", "name": "conv5_block1_0_relu"}, "class_name": "Activation", "inbound_nodes": [[["conv5_block1_0_bn", 0, 0, {}]]]}, {"name": "conv5_block1_1_conv", "config": {"trainable": true, "activation": "linear", "use_bias": false, "bias_initializer": {"config": {}, "class_name": "Zeros"}, "padding": "valid", "data_format": "channels_last", "filters": 128, "kernel_regularizer": null, "kernel_initializer": {"config": {"scale": 1.0, "mode": "fan_avg", "distribution": "uniform", "seed": null}, "class_name": "VarianceScaling"}, "activity_regularizer": null, "kernel_constraint": null, "kernel_size": [1, 1], "bias_regularizer": null, "dilation_rate": [1, 1], "name": "conv5_block1_1_conv", "strides": [1, 1], "bias_constraint": null}, "class_name": "Conv2D", "inbound_nodes": [[["conv5_block1_0_relu", 0, 0, {}]]]}, {"name": "conv5_block1_1_bn", "config": {"trainable": true, "gamma_regularizer": null, "scale": true, "momentum": 0.99, "center": true, "axis": 3, "beta_regularizer": null, "name": "conv5_block1_1_bn", "moving_mean_initializer": {"config": {}, "class_name": "Zeros"}, "gamma_constraint": null, "moving_variance_initializer": {"config": {}, "class_name": "Ones"}, "beta_constraint": null, "gamma_initializer": {"config": {}, "class_name": "Ones"}, "epsilon": 1.001e-05, "beta_initializer": {"config": {}, "class_name": "Zeros"}}, "class_name": "BatchNormalization", "inbound_nodes": [[["conv5_block1_1_conv", 0, 0, {}]]]}, {"name": "conv5_block1_1_relu", "config": {"trainable": true, "activation": "relu", "name": "conv5_block1_1_relu"}, "class_name": "Activation", "inbound_nodes": [[["conv5_block1_1_bn", 0, 0, {}]]]}, {"name": "conv5_block1_2_conv", "config": {"trainable": true, "activation": "linear", "use_bias": false, "bias_initializer": {"config": {}, "class_name": "Zeros"}, "padding": "same", "data_format": "channels_last", "filters": 32, "kernel_regularizer": null, "kernel_initializer": {"config": {"scale": 1.0, "mode": "fan_avg", "distribution": "uniform", "seed": null}, "class_name": "VarianceScaling"}, "activity_regularizer": null, "kernel_constraint": null, "kernel_size": [3, 3], "bias_regularizer": null, "dilation_rate": [1, 1], "name": "conv5_block1_2_conv", "strides": [1, 1], "bias_constraint": null}, "class_name": "Conv2D", "inbound_nodes": [[["conv5_block1_1_relu", 0, 0, {}]]]}, {"name": "conv5_block1_concat", "config": {"trainable": true, "name": "conv5_block1_concat", "axis": 3}, "class_name": "Concatenate", "inbound_nodes": [[["pool4_pool", 0, 0, {}], ["conv5_block1_2_conv", 0, 0, {}]]]}, {"name": "conv5_block2_0_bn", "config": {"trainable": true, "gamma_regularizer": null, "scale": true, "momentum": 0.99, "center": true, "axis": 3, "beta_regularizer": null, "name": "conv5_block2_0_bn", "moving_mean_initializer": {"config": {}, "class_name": "Zeros"}, "gamma_constraint": null, "moving_variance_initializer": {"config": {}, "class_name": "Ones"}, "beta_constraint": null, "gamma_initializer": {"config": {}, "class_name": "Ones"}, "epsilon": 1.001e-05, "beta_initializer": {"config": {}, "class_name": "Zeros"}}, "class_name": "BatchNormalization", "inbound_nodes": [[["conv5_block1_concat", 0, 0, {}]]]}, {"name": "conv5_block2_0_relu", "config": {"trainable": true, "activation": "relu", "name": "conv5_block2_0_relu"}, "class_name": "Activation", "inbound_nodes": [[["conv5_block2_0_bn", 0, 0, {}]]]}, {"name": "conv5_block2_1_conv", "config": {"trainable": true, "activation": "linear", "use_bias": false, "bias_initializer": {"config": {}, "class_name": "Zeros"}, "padding": "valid", "data_format": "channels_last", "filters": 128, "kernel_regularizer": null, "kernel_initializer": {"config": {"scale": 1.0, "mode": "fan_avg", "distribution": "uniform", "seed": null}, "class_name": "VarianceScaling"}, "activity_regularizer": null, "kernel_constraint": null, "kernel_size": [1, 1], "bias_regularizer": null, "dilation_rate": [1, 1], "name": "conv5_block2_1_conv", "strides": [1, 1], "bias_constraint": null}, "class_name": "Conv2D", "inbound_nodes": [[["conv5_block2_0_relu", 0, 0, {}]]]}, {"name": "conv5_block2_1_bn", "config": {"trainable": true, "gamma_regularizer": null, "scale": true, "momentum": 0.99, "center": true, "axis": 3, "beta_regularizer": null, "name": "conv5_block2_1_bn", "moving_mean_initializer": {"config": {}, "class_name": "Zeros"}, "gamma_constraint": null, "moving_variance_initializer": {"config": {}, "class_name": "Ones"}, "beta_constraint": null, "gamma_initializer": {"config": {}, "class_name": "Ones"}, "epsilon": 1.001e-05, "beta_initializer": {"config": {}, "class_name": "Zeros"}}, "class_name": "BatchNormalization", "inbound_nodes": [[["conv5_block2_1_conv", 0, 0, {}]]]}, {"name": "conv5_block2_1_relu", "config": {"trainable": true, "activation": "relu", "name": "conv5_block2_1_relu"}, "class_name": "Activation", "inbound_nodes": [[["conv5_block2_1_bn", 0, 0, {}]]]}, {"name": "conv5_block2_2_conv", "config": {"trainable": true, "activation": "linear", "use_bias": false, "bias_initializer": {"config": {}, "class_name": "Zeros"}, "padding": "same", "data_format": "channels_last", …
12_1_bn/moving_variance", "dtype": "float32"}], "paths": ["group36-shard1of1"]}, {"weights": [{"shape": [1, 1, 480, 128], "name": "conv3_block12_1_conv/kernel", "dtype": "float32"}], "paths": ["group37-shard1of1"]}, {"weights": [{"shape": [3, 3, 128, 32], "name": "conv3_block12_2_conv/kernel", "dtype": "float32"}], "paths": ["group38-shard1of1"]}, {"weights": [{"shape": [128], "name": "conv3_block1_0_bn/gamma", "dtype": "float32"}, {"shape": [128], "name": "conv3_block1_0_bn/beta", "dtype": "float32"}, {"shape": [128], "name": "conv3_block1_0_bn/moving_mean", "dtype": "float32"}, {"shape": [128], "name": "conv3_block1_0_bn/moving_variance", "dtype": "float32"}], "paths": ["group39-shard1of1"]}, {"weights": [{"shape": [128], "name": "conv3_block1_1_bn/gamma", "dtype": "float32"}, {"shape": [128], "name": "conv3_block1_1_bn/beta", "dtype": "float32"}, {"shape": [128], "name": "conv3_block1_1_bn/moving_mean", "dtype": "float32"}, {"shape": [128], "name": "conv3_block1_1_bn/moving_variance", "dtype": "float32"}], "paths": ["group40-shard1of1"]}, {"weights": [{"shape": [1, 1, 128, 128], "name": "conv3_block1_1_conv/kernel", "dtype": "float32"}], "paths": ["group41-shard1of1"]}, {"weights": [{"shape": [3, 3, 128, 32], "name": "conv3_block1_2_conv/kernel", "dtype": "float32"}], "paths": ["group42-shard1of1"]}, {"weights": [{"shape": [160], "name": "conv3_block2_0_bn/gamma", "dtype": "float32"}, {"shape": [160], "name": "conv3_block2_0_bn/beta", "dtype": "float32"}, {"shape": [160], "name": "conv3_block2_0_bn/moving_mean", "dtype": "float32"}, {"shape": [160], "name": "conv3_block2_0_bn/moving_variance", "dtype": "float32"}], "paths": ["group43-shard1of1"]}, {"weights": [{"shape": [128], "name": "conv3_block2_1_bn/gamma", "dtype": "float32"}, {"shape": [128], "name": "conv3_block2_1_bn/beta", "dtype": "float32"}, {"shape": [128], "name": "conv3_block2_1_bn/moving_mean", "dtype": "float32"}, {"shape": [128], "name": "conv3_block2_1_bn/moving_variance", "dtype": "float32"}], "paths": ["group44-shard1of1"]}, {"weights": [{"shape": [1, 1, 160, 128], "name": "conv3_block2_1_conv/kernel", "dtype": "float32"}], "paths": ["group45-shard1of1"]}, {"weights": [{"shape": [3, 3, 128, 32], "name": "conv3_block2_2_conv/kernel", "dtype": "float32"}], "paths": ["group46-shard1of1"]}, {"weights": [{"shape": [192], "name": "conv3_block3_0_bn/gamma", "dtype": "float32"}, {"shape": [192], "name": "conv3_block3_0_bn/beta", "dtype": "float32"}, {"shape": [192], "name": "conv3_block3_0_bn/moving_mean", "dtype": "float32"}, {"shape": [192], "name": "conv3_block3_0_bn/moving_variance", "dtype": "float32"}], "paths": ["group47-shard1of1"]}, {"weights": [{"shape": [128], "name": "conv3_block3_1_bn/gamma", "dtype": "float32"}, {"shape": [128], "name": "conv3_block3_1_bn/beta", "dtype": "float32"}, {"shape": [128], "name": "conv3_block3_1_bn/moving_mean", "dtype": "float32"}, {"shape": [128], "name": "conv3_block3_1_bn/moving_variance", "dtype": "float32"}], "paths": ["group48-shard1of1"]}, {"weights": [{"shape": [1, 1, 192, 128], "name": "conv3_block3_1_conv/kernel", "dtype": "float32"}], "paths": ["group49-shard1of1"]}, {"weights": [{"shape": [3, 3, 128, 32], "name": "conv3_block3_2_conv/kernel", "dtype": "float32"}], "paths": ["group50-shard1of1"]}, {"weights": [{"shape": [224], "name": "conv3_block4_0_bn/gamma", "dtype": "float32"}, {"shape": [224], "name": "conv3_block4_0_bn/beta", "dtype": "float32"}, {"shape": [224], "name": "conv3_block4_0_bn/moving_mean", "dtype": "float32"}, {"shape": [224], "name": "conv3_block4_0_bn/moving_variance", "dtype": "float32"}], "paths": ["group51-shard1of1"]}, {"weights": [{"shape": [128], "name": "conv3_block4_1_bn/gamma", "dtype": "float32"}, {"shape": [128], "name": "conv3_block4_1_bn/beta", "dtype": "float32"}, {"shape": [128], "name": "conv3_block4_1_bn/moving_mean", "dtype": "float32"}, {"shape": [128], "name": "conv3_block4_1_bn/moving_variance", "dtype": "float32"}], "paths": ["group52-shard1of1"]}, {"weights": [{"shape": [1, 1, 224, 128], "name": "conv3_block4_1_conv/kernel", "dtype": "float32"}], "paths": ["group53-shard1of1"]}, {"weights": [{"shape": [3, 3, 128, 32], "name": "conv3_block4_2_conv/kernel", "dtype": "float32"}], "paths": ["group54-shard1of1"]}, {"weights": [{"shape": [256], "name": "conv3_block5_0_bn/gamma", "dtype": "float32"}, {"shape": [256], "name": "conv3_block5_0_bn/beta", "dtype": "float32"}, {"shape": [256], "name": "conv3_block5_0_bn/moving_mean", "dtype": "float32"}, {"shape": [256], "name": "conv3_block5_0_bn/moving_variance", "dtype": "float32"}], "paths": ["group55-shard1of1"]}, {"weights": [{"shape": [128], "name": "conv3_block5_1_bn/gamma", "dtype": "float32"}, {"shape": [128], "name": "conv3_block5_1_bn/beta", "dtype": "float32"}, {"shape": [128], "name": "conv3_block5_1_bn/moving_mean", "dtype": "float32"}, {"shape": [128], "name": "conv3_block5_1_bn/moving_variance", "dtype": "float32"}], "paths": ["group56-shard1of1"]}, {"weights": [{"shape": [1, 1, 256, 128], "name": "conv3_block5_1_conv/kernel", "dtype": "float32"}], "paths": ["group57-shard1of1"]}, {"weights": [{"shape": [3, 3, 128, 32], "name": "conv3_block5_2_conv/kernel", "dtype": "float32"}], "paths": ["group58-shard1of1"]}, {"weights": [{"shape": [288], "name": "conv3_block6_0_bn/gamma", "dtype": "float32"}, {"shape": [288], "name": "conv3_block6_0_bn/beta", "dtype": "float32"}, {"shape": [288], "name": "conv3_block6_0_bn/moving_mean", "dtype": "float32"}, {"shape": [288], "name": "conv3_block6_0_bn/moving_variance", "dtype": "float32"}], "paths": ["group59-shard1of1"]}, {"weights": [{"shape": [128], "name": "conv3_block6_1_bn/gamma", "dtype": "float32"}, {"shape": [128], "name": "conv3_block6_1_bn/beta", "dtype": "float32"}, {"shape": [128], "name": "conv3_block6_1_bn/moving_mean", "dtype": "float32"}, {"shape": [128], "name": "conv3_block6_1_bn/moving_variance", "dtype": "float32"}], "paths": ["group60-shard1of1"]}, {"weights": [{"shape": [1, 1, 288, 128], "name": "conv3_block6_1_conv/kernel", "dtype": "float32"}], "paths": ["group61-shard1of1"]}, {"weights": [{"shape": [3, 3, 128, 32], "name": "conv3_block6_2_conv/kernel", "dtype": "float32"}], "paths": ["group62-shard1of1"]}, {"weights": [{"shape": [320], "name": "conv3_block7_0_bn/gamma", "dtype": "float32"}, {"shape": [320], "name": "conv3_block7_0_bn/beta", "dtype": "float32"}, {"shape": [320], "name": "conv3_block7_0_bn/moving_mean", "dtype": "float32"}, {"shape": [320], "name": "conv3_block7_0_bn/moving_variance", "dtype": "float32"}], "paths": ["group63-shard1of1"]}, {"weights": [{"shape": [128], "name": "conv3_block7_1_bn/gamma", "dtype": "float32"}, {"shape": [128], "name": "conv3_block7_1_bn/beta", "dtype": "float32"}, {"shape": [128], "name": "conv3_block7_1_bn/moving_mean", "dtype": "float32"}, {"shape": [128], "name": "conv3_block7_1_bn/moving_variance", "dtype": "float32"}], "paths": ["group64-shard1of1"]}, {"weights": [{"shape": [1, 1, 320, 128], "name": "conv3_block7_1_conv/kernel", "dtype": "float32"}], "paths": ["group65-shard1of1"]}, {"weights": [{"shape": [3, 3, 128, 32], "name": "conv3_block7_2_conv/kernel", "dtype": "float32"}], "paths": ["group66-shard1of1"]}, {"weights": [{"shape": [352], "name": "conv3_block8_0_bn/gamma", "dtype": "float32"}, {"shape": [352], "name": "conv3_block8_0_bn/beta", "dtype": "float32"}, {"shape": [352], "name": "conv3_block8_0_bn/moving_mean", "dtype": "float32"}, {"shape": [352], "name": "conv3_block8_0_bn/moving_variance", "dtype": "float32"}], "paths": ["group67-shard1of1"]}, {"weights": [{"shape": [128], "name": "conv3_block8_1_bn/gamma", "dtype": "float32"}, {"shape": [128], "name": "conv3_block8_1_bn/beta", "dtype": "float32"}, {"shape": [128], "name": "conv3_block8_1_bn/moving_mean", "dtype": "float32"}, {"shape": [128], "name": "conv3_block8_1_bn/moving_variance", "dtype": "float32"}], "paths": ["group68-shard1of1"]}, {"weights": [{"shape": [1, 1, 352, 128], "name": "conv3_block8_1_conv/kernel", "dtype": "float32"}], "paths": ["group69-shard1of1"]}, {"weights": [{"shape": [3, 3, 128, 32], "name": "conv3_block8_2_conv/kernel", "dtype": "float32"}], "paths": ["group70-shard1of1"]}, {"weights": [{"shape": [384], "name": "conv3_block9_0_bn/gamma", "dtype": "float32"}, {"shape": [384], "name": "conv3_block9_0_bn/beta", "dtype": "float32"}, {"shape": [384], "name": "conv3_block9_0_bn/moving_mean", "dtype": "float32"}, {"shape": [384], "name": "conv3_block9_0_bn/moving_variance", "dtype": "float32"}], "paths": ["group71-shard1of1"]}, {"weights": [{"shape": [128], "name": "conv3_block9_1_bn/gamma", "dtype": "float32"}, {"shape": [128], "name": "conv3_block9_1_bn/beta", "dtype": "float32"}, {"shape": [128], "name": "conv3_block9_1_bn/moving_mean", "dtype": "float32"}, {"shape": [128], "name": "conv3_block9_1_bn/moving_variance", "dtype": "float32"}], "paths": ["group72-shard1of1"]}, {"weights": [{"shape": [1, 1, 384, 128], "name": "conv3_block9_1_conv/kernel", "dtype": "float32"}], "paths": ["group73-shard1of1"]}, {"weights": [{"shape": [3, 3, 128, 32], "name": "conv3_block9_2_conv/kernel", "dtype": "float32"}], "paths": ["group74-shard1of1"]}, {"weights": [{"shape": [544], "name": "conv4_block10_0_bn/gamma", "dtype": "float32"}, {"shape": [544], "name": "conv4_block10_0_bn/beta", "dtype": "float32"}, {"shape": [544], "name": "conv4_block10_0_bn/moving_mean", "dtype": "float32"}, {"shape": [544], "name": "conv4_block10_0_bn/moving_variance", "dtype": "float32"}], "paths": ["group75-shard1of1"]}, {"weights": [{"shape": [128], "name": "conv4_block10_1_bn/gamma", "dtype": "float32"}, {"shape": [128], "name": "conv4_block10_1_bn/beta", "dtype": "float32"}, {"shape": [128], "name": "conv4_block10_1_bn/moving_mean", "dtype": "float32"}, {"shape": [128], "name": "conv4_block10_1_bn/moving_variance", "dtype": "float32"}], "paths": ["group76-shard1of1"]}, {"weights": [{"shape": [1, 1, 544, 128], "name": "conv4_block10_1_conv/kernel", "dtype": "float32"}], "paths": ["group77-shard1of1"]}, {"weights": [{"shape": [3, 3, 128, 32], "name": "conv4_block10_2_conv/kernel", "dtype": "float32"}], "paths": ["group78-shard1of1"]}, {"weights": [{"shape": [576], "name": "conv4_block11_0_bn/gamma", "dtype": "float32"}, {"shape": [576], "name": "conv4_block11_0_bn/beta", "dtype": "float32"}, {"shape": [576], "name": "conv4_block11_0_bn/moving_mean", "dtype": "float32"}, {"shape": [576], "name": "conv4_block11_0_bn/moving_variance", "dtype": "float32"}], "paths": ["group79-shard1of1"]}, {"weights": [{"shape": [128], "name": "conv4_block11_1_bn/gamma", "dtype": "float32"}, {"shape": [128], "name": "conv4_block11_1_bn/beta", "dtype": "float32"}, {"shape": [128], "name": "conv4_block11_1_bn/moving_mean", "dtype": "float32"}, {"shape": [128], "name": "conv4_block11_1_bn/moving_variance", "dtype": "float32"}], "paths": ["group80-shard1of1"]}, {"weights": [{"shape": [1, 1, 576, 128], "name": "conv4_block11_1_conv/kernel", "dtype": "float32"}], "paths": ["group81-shard1of1"]}, {"weights": [{"shape": [3, 3, 128, 32], "name": "conv4_block11_2_conv/kernel", "dtype": "float32"}], "paths": ["group82-shard1of1"]}, {"weights": [{"shape": [608], "name": "conv4_block12_0_bn/gamma", "dtype": "float32"}, {"shape": [608], "name": "conv4_block12_0_bn/beta", "dtype": "float32"}, {"shape": [608], "name": "conv4_block12_0_bn/moving_mean", "dtype": "float32"}, {"shape": [608], "name": "conv4_block12_0_bn/moving_variance", "dtype": "float32"}], "paths": ["group83-shard1of1"]}, {"weights": [{"shape": [128], "name": "conv4_block12_1_bn/gamma", "dtype": "float32"}, {"shape": [128], "name": "conv4_block12_1_bn/beta", "dtype": "float32"}, {"shape": [128], "name": "conv4_block12_1_bn/moving_mean", "dtype": "float32"}, {"shape": [128], "name": "conv4_block12_1_bn/moving_variance", "dtype": "float32"}], "paths": ["group84-shard1of1"]}, {"weights": [{"shape": [1, 1, 608, 128], "name": "conv4_block12_1_conv/kernel", "dtype": "float32"}], "paths": ["group85-shard1of1"]}, {"weights": [{"shape": [3, 3, 128, 32], "name": "conv4_block12_2_conv/kernel", "dtype": "float32"}], "paths": ["group86-shard1of1"]}, {"weights": [{"shape": [640], "name": "conv4_block13_0_bn/gamma", "dtype": "float32"}, {"shape": [640], "name": "conv4_block13_0_bn/beta", "dtype": "float32"}, {"shape": [640], "name": "conv4_block13_0_bn/moving_mean", "dtype": "float32"}, {"shape": [640], "name": "conv4_block13_0_bn/moving_variance", "dtype": "float32"}], "paths": ["group87-shard1of1"]}, {"weights": [{"shape": [128], "name": "conv4_block13_1_bn/gamma", "dtype": "float32"}, {"shape": [128], "name": "conv4_block13_1_bn/beta", "dtype": "float32"}, {"shape": [128], "name": "conv4_block13_1_bn/moving_mean", "dtype": "float32"}, {"shape": [128], "name": "conv4_block13_1_bn/moving_variance", "dtype": "float32"}], "paths": ["group88-shard1of1"]}, {"weights": [{"shape": [1, 1, 640, 128], "name": "conv4_block13_1_conv/kernel", "dtype": "float32"}], "paths": ["group89-shard1of1"]}, {"weights": [{"shape": [3, 3, 128, 32], "name": "conv4_block13_2_conv/kernel", "dtype": "float32"}], "paths": ["group90-shard1of1"]}, {"weights": [{"shape": [672], "name": "conv4_block14_0_bn/gamma", "dtype": "float32"}, {"shape": [672], "name": "conv4_block14_0_bn/beta", "dtype": "float32"}, {"shape": [672], "name": "conv4_block14_0_bn/moving_mean", "dtype": "float32"}, {"shape": [672], "name": "conv4_block14_0_bn/moving_variance", "dtype": "float32"}], "paths": ["group91-shard1of1"]}, {"weights": [{"shape": [128], "name": "conv4_block14_1_bn/gamma", "dtype": "float32"}, {"shape": [128], "name": "conv4_block14_1_bn/beta", "dtype": "float32"}, {"shape": [128], "name": "conv4_block14_1_bn/moving_mean", "dtype": "float32"}, {"shape": [128], "name": "conv4_block14_1_bn/moving_variance", "dtype": "float32"}], "paths": ["group92-shard1of1"]}, {"weights": [{"shape": [1, 1, 672, 128], "name": "conv4_block14_1_conv/kernel", "dtype": "float32"}], "paths": ["group93-shard1of1"]}, {"weights": [{"shape": [3, 3, 128, 32], "name": "conv4_block14_2_conv/kernel", "dtype": "float32"}], "paths": ["group94-shard1of1"]}, {"weights": [{"shape": [704], "name": "conv4_block15_0_bn/gamma", "dtype": "float32"}, {"shape": [704], "name": "conv4_block15_0_bn/beta", "dtype": "float32"}, {"shape": [704], "name": "conv4_block15_0_bn/moving_mean", "dtype": "float32"}, {"shape": [704], "name": "conv4_block15_0_bn/moving_variance", "dtype": "float32"}], "paths": ["group95-shard1of1"]}, {"weights": [{"shape": [128], "name": "conv4_block15_1_bn/gamma", "dtype": "float32"}, {"shape": [128], "name": "conv4_block15_1_bn/beta", "dtype": "float32"}, {"shape": [128], "name": "conv4_block15_1_bn/moving_mean", "dtype": "float32"}, {"shape": [128], "name": "conv4_block15_1_bn/moving_variance", "dtype": "float32"}], "paths": ["group96-shard1of1"]}, {"weights": [{"shape": [1, 1, 704, 128], "name": "conv4_block15_1_conv/kernel", "dtype": "float32"}], "paths": ["group97-shard1of1"]}, {"weights": [{"shape": [3, 3, 128, 32], "name": "conv4_block15_2_conv/kernel", "dtype": "float32"}], "paths": ["group98-shard1of1"]}, {"weights": [{"shape": [736], "name": "conv4_block16_0_bn/gamma", "dtype": "float32"}, {"shape": [736], "name": "conv4_block16_0_bn/beta", "dtype": "float32"}, {"shape": [736], "name": "conv4_block16_0_bn/moving_mean", "dtype": "float32"}, {"shape": [736], "name": "conv4_block16_0_bn/moving_variance", "dtype": "float32"}], "paths": ["group99-shard1of1"]}, {"weights": [{"shape": [128], "name": "conv4_block16_1_bn/gamma", "dtype": "float32"}, {"shape": [128], "name": "conv4_block16_1_bn/beta", "dtype": "float32"}, {"shape": [128], "name": "conv4_block16_1_bn/moving_mean", "dtype": "float32"}, {"shape": [128], "name": "conv4_block16_1_bn/moving_variance", "dtype": "float32"}], "paths": ["group100-shard1of1"]}, {"weights": [{"shape": [1, 1, 736, 128], "name": "conv4_block16_1_conv/kernel", "dtype": "float32"}], "paths": ["group101-shard1of1"]}, {"weights": [{"shape": [3, 3, 128, 32], "name": "conv4_block16_2_conv/kernel", "dtype": "float32"}], "paths": ["group102-shard1of1"]}, {"weights": [{"shape": [768], "name": "conv4_block17_0_bn/gamma", "dtype": "float32"}, {"shape": [768], "name": "conv4_block17_0_bn/beta", "dtype": "float32"}, {"shape": [768], "name": "conv4_block17_0_bn/moving_mean", "dtype": "float32"}, {"shape": [768], "name": "conv4_block17_0_bn/moving_variance", "dtype": "float32"}], "paths": ["group103-shard1of1"]}, {"weights": [{"shape": [128], "name": "conv4_block17_1_bn/gamma", "dtype": "float32"}, {"shape": [128], "name": "conv4_block17_1_bn/beta", "dtype": "float32"}, {"shape": [128], "name": "conv4_block17_1_bn/moving_mean", "dtype": "float32"}, {"shape": [128], "name": "conv4_block17_1_bn/moving_variance", "dtype": "float32"}], "paths": ["group104-shard1of1"]}, {"weights": [{"shape": [1, 1, 768, 128], "name": "conv4_block17_1_conv/kernel", "dtype": "float32"}], "paths": ["group105-shard1of1"]}, {"weights": [{"shape": [3, 3, 128, 32], "name": "conv4_block17_2_conv/kernel", "dtype": "float32"}], "paths": ["group106-shard1of1"]}, {"weights": [{"shape": [800], "name": "conv4_block18_0_bn/gamma", "dtype": "float32"}, {"shape": [800], "name": "conv4_block18_0_bn/beta", "dtype": "float32"}, {"shape": [800], "name": "conv4_block18_0_bn/moving_mean", "dtype": "float32"}, {"shape": [800], "name": "conv4_block18_0_bn/moving_variance", "dtype": "float32"}], "paths": ["group107-shard1of1"]}, {"weights": [{"shape": [128], "name": "conv4_block18_1_bn/gamma", "dtype": "float32"}, {"shape": [128], "name": "conv4_block18_1_bn/beta", "dtype": "float32"}, {"shape": [128], "name": "conv4_block18_1_bn/moving_mean", "dtype": "float32"}, {"shape": [128], "name": "conv4_block18_1_bn/moving_variance", "dtype": "float32"}], "paths": ["group108-shard1of1"]}, {"weights": [{"shape": [1, 1, 800, 128], "name": "conv4_block18_1_conv/kernel", "dtype": "float32"}], "paths": ["group109-shard1of1"]}, {"weights": [{"shape": [3, 3, 128, 32], "name": "conv4_block18_2_conv/kernel", "dtype": "float32"}], "paths": ["group110-shard1of1"]}, {"weights": [{"shape": [832], "name": "conv4_block19_0_bn/gamma", "dtype": "float32"}, {"shape": [832], "name": "conv4_block19_0_bn/beta", "dtype": "float32"}, {"shape": [832], "name": "conv4_block19_0_bn/moving_mean", "dtype": "float32"}, {"shape": [832], "name": "conv4_block19_0_bn/moving_variance", "dtype": "float32"}], "paths": ["group111-shard1of1"]}, {"weights": [{"shape": [128], "name": "conv4_block19_1_bn/gamma", "dtype": "float32"}, {"shape": [128], "name": "conv4_block19_1_bn/beta", "dtype": "float32"}, {"shape": [128], "name": "conv4_block19_1_bn/moving_mean", "dtype": "float32"}, {"shape": [128], "name": "conv4_block19_1_bn/moving_variance", "dtype": "float32"}], "paths": ["group112-shard1of1"]}, {"weights": [{"shape": [1, 1, 832, 128], "name": "conv4_block19_1_conv/kernel", "dtype": "float32"}], "paths": ["group113-shard1of1"]}, {"weights": [{"shape": [3, 3, 128, 32], "name": "conv4_block19_2_conv/kernel", "dtype": "float32"}], "paths": ["group114-shard1of1"]}, {"weights": [{"shape": [256], "name": "conv4_block1_0_bn/gamma", "dtype": "float32"}, {"shape": [256], "name": "conv4_block1_0_bn/beta", "dtype": "float32"}, {"shape": [256], "name": "conv4_block1_0_bn/moving_mean", "dtype": "float32"}, {"shape": [256], "name": "conv4_block1_0_bn/moving_variance", "dtype": "float32"}], "paths": ["group115-shard1of1"]}, {"weights": [{"shape": [128], "name": "conv4_block1_1_bn/gamma", "dtype": "float32"}, {"shape": [128], "name": "conv4_block1_1_bn/beta", "dtype": "float32"}, {"shape": [128], "name": "conv4_block1_1_bn/moving_mean", "dtype": "float32"}, {"shape": [128], "name": "conv4_block1_1_bn/moving_variance", "dtype": "float32"}], "paths": ["group116-shard1of1"]}, {"weights": [{"shape": [1, 1, 256, 128], "name": "conv4_block1_1_conv/kernel", "dtype": "float32"}], "paths": ["group117-shard1of1"]}, {"weights": [{"shape": [3, 3, 128, 32], "name": "conv4_block1_2_conv/kernel", "dtype": "float32"}], "paths": ["group118-shard1of1"]}, {"weights": [{"shape": [864], "name": "conv4_block20_0_bn/gamma", "dtype": "float32"}, {"shape": [864], "name": "conv4_block20_0_bn/beta", "dtype": "float32"}, {"shape": [864], "name": "conv4_block20_0_bn/moving_mean", "dtype": "float32"}, {"shape": [864], "name": "conv4_block20_0_bn/moving_variance", "dtype": "float32"}], "paths": ["group119-shard1of1"]}, {"weights": [{"shape": [128], "name": "conv4_block20_1_bn/gamma", "dtype": "float32"}, {"shape": [128], "name": "conv4_block20_1_bn/beta", "dtype": "float32"}, {"shape": [128], "name": "conv4_block20_1_bn/moving_mean", "dtype": "float32"}, {"shape": [128], "name": "conv4_block20_1_bn/moving_variance", "dtype": "float32"}], "paths": ["group120-shard1of1"]}, {"weights": [{"shape": [1, 1, 864, 128], "name": "conv4_block20_1_conv/kernel", "dtype": "float32"}], "paths": ["group121-shard1of1"]}, {"weights": [{"shape": [3, 3, 128, 32], "name": "conv4_block20_2_conv/kernel", "dtype": "float32"}], "paths": ["group122-shard1of1"]}, {"weights": [{"shape": [896], "name": "conv4_block21_0_bn/gamma", "dtype": "float32"}, {"shape": [896], "name": "conv4_block21_0_bn/beta", "dtype": "float32"}, {"shape": [896], "name": "conv4_block21_0_bn/moving_mean", "dtype": "float32"}, {"shape": [896], "name": "conv4_block21_0_bn/moving_variance", "dtype": "float32"}], "paths": ["group123-shard1of1"]}, {"weights": [{"shape": [128], "name": "conv4_block21_1_bn/gamma", "dtype": "float32"}, {"shape": [128], "name": "conv4_block21_1_bn/beta", "dtype": "float32"}, {"shape": [128], "name": "conv4_block21_1_bn/moving_mean", "dtype": "float32"}, {"shape": [128], "name": "conv4_block21_1_bn/moving_variance", "dtype": "float32"}], "paths": ["group124-shard1of1"]}, {"weights": [{"shape": [1, 1, 896, 128], "name": "conv4_block21_1_conv/kernel", "dtype": "float32"}], "paths": ["group125-shard1of1"]}, {"weights": [{"shape": [3, 3, 128, 32], "name": "conv4_block21_2_conv/kernel", "dtype": "float32"}], "paths": ["group126-shard1of1"]}, {"weights": [{"shape": [928], "name": "conv4_block22_0_bn/gamma", "dtype": "float32"}, {"shape": [928], "name": "conv4_block22_0_bn/beta", "dtype": "float32"}, {"shape": [928], "name": "conv4_block22_0_bn/moving_mean", "dtype": "float32"}, {"shape": [928], "name": "conv4_block22_0_bn/moving_variance", "dtype": "float32"}], "paths": ["group127-shard1of1"]}, {"weights": [{"shape": [128], "name": "conv4_block22_1_bn/gamma", "dtype": "float32"}, {"shape": [128], "name": "conv4_block22_1_bn/beta", "dtype": "float32"}, {"shape": [128], "name": "conv4_block22_1_bn/moving_mean", "dtype": "float32"}, {"shape": [128], "name": "conv4_block22_1_bn/moving_variance", "dtype": "float32"}], "paths": ["group128-shard1of1"]}, {"weights": [{"shape": [1, 1, 928, 128], "name": "conv4_block22_1_conv/kernel", "dtype": "float32"}], "paths": ["group129-shard1of1"]}, {"weights": [{"shape": [3, 3, 128, 32], "name": "conv4_block22_2_conv/kernel", "dtype": "float32"}], "paths": ["group130-shard1of1"]}, {"weights": [{"shape": [960], "name": "conv4_block23_0_bn/gamma", "dtype": "float32"}, {"shape": [960], "name": "conv4_block23_0_bn/beta", "dtype": "float32"}, {"shape": [960], "name": "conv4_block23_0_bn/moving_mean", "dtype": "float32"}, {"shape": [960], "name": "conv4_block23_0_bn/moving_variance", "dtype": "float32"}], "paths": ["group131-shard1of1"]}, {"weights": [{"shape": [128], "name": "conv4_block23_1_bn/gamma", "dtype": "float32"}, {"shape": [128], "name": "conv4_block23_1_bn/beta", "dtype": "float32"}, {"shape": [128], "name": "conv4_block23_1_bn/moving_mean", "dtype": "float32"}, {"shape": [128], "name": "conv4_block23_1_bn/moving_variance", "dtype": "float32"}], "paths": ["group132-shard1of1"]}, {"weights": [{"shape": [1, 1, 960, 128], "name": "conv4_block23_1_conv/kernel", "dtype": "float32"}], "paths": ["group133-shard1of1"]}, {"weights": [{"shape": [3, 3, 128, 32], "name": "conv4_block23_2_conv/kernel", "dtype": "float32"}], "paths": ["group134-shard1of1"]}, {"weights": [{"shape": [992], "name": "conv4_block24_0_bn/gamma", "dtype": "float32"}, {"shape": [992], "name": "conv4_block24_0_bn/beta", "dtype": "float32"}, {"shape": [992], "name": "conv4_block24_0_bn/moving_mean", "dtype": "float32"}, {"shape": [992], "name": "conv4_block24_0_bn/moving_variance", "dtype": "float32"}], "paths": ["group135-shard1of1"]}, {"weights": [{"shape": [128], "name": "conv4_block24_1_bn/gamma", "dtype": "float32"}, {"shape": [128], "name": "conv4_block24_1_bn/beta", "dtype": "float32"}, {"shape": [128], "name": "conv4_block24_1_bn/moving_mean", "dtype": "float32"}, {"shape": [128], "name": "conv4_block24_1_bn/moving_variance", "dtype": "float32"}], "paths": ["group136-shard1of1"]}, {"weights": [{"shape": [1, 1, 992, 128], "name": "conv4_block24_1_conv/kernel", "dtype": "float32"}], "paths": ["group137-shard1of1"]}, {"weights": [{"shape": [3, 3, 128, 32], "name": "conv4_block24_2_conv/kernel", "dtype": "float32"}], "paths": ["group138-shard1of1"]}, {"weights": [{"shape": [288], "name": "conv4_block2_0_bn/gamma", "dtype": "float32"}, {"shape": [288], "name": "conv4_block2_0_bn/beta", "dtype": "float32"}, {"shape": [288], "name": "conv4_block2_0_bn/moving_mean", "dtype": "float32"}, {"shape": [288], "name": "conv4_block2_0_bn/moving_variance", "dtype": "float32"}], "paths": ["group139-shard1of1"]}, {"weights": [{"shape": [128], "name": "conv4_block2_1_bn/gamma", "dtype": "float32"}, {"shape": [128], "name": "conv4_block2_1_bn/beta", "dtype": "float32"}, {"shape": [128], "name": "conv4_block2_1_bn/moving_mean", "dtype": "float32"}, {"shape": [128], "name": "conv4_block2_1_bn/moving_variance", "dtype": "float32"}], "paths": ["group140-shard1of1"]}, {"weights": [{"shape": [1, 1, 288, 128], "name": "conv4_block2_1_conv/kernel", "dtype": "float32"}], "paths": ["group141-shard1of1"]}, {"weights": [{"shape": [3, 3, 128, 32], "name": "conv4_block2_2_conv/kernel", "dtype": "float32"}], "paths": ["group142-shard1of1"]}, {"weights": [{"shape": [320], "name": "conv4_block3_0_bn/gamma", "dtype": "float32"}, {"shape": [320], "name": "conv4_block3_0_bn/beta", "dtype": "float32"}, {"shape": [320], "name": "conv4_block3_0_bn/moving_mean", "dtype": "float32"}, {"shape": [320], "name": "conv4_block3_0_bn/moving_variance", "dtype": "float32"}], "paths": ["group143-shard1of1"]}, {"weights": [{"shape": [128], "name": "conv4_block3_1_bn/gamma", "dtype": "float32"}, {"shape": [128], "name": "conv4_block3_1_bn/beta", "dtype": "float32"}, {"shape": [128], "name": "conv4_block3_1_bn/moving_mean", "dtype": "float32"}, {"shape": [128], "name": "conv4_block3_1_bn/moving_variance", "dtype": "float32"}], "paths": ["group144-shard1of1"]}, {"weights": [{"shape": [1, 1, 320, 128], "name": "conv4_block3_1_conv/kernel", "dtype": "float32"}], "paths": ["group145-shard1of1"]}, {"weights": [{"shape": [3, 3, 128, 32], "name": "conv4_block3_2_conv/kernel", "dtype": "float32"}], "paths": ["group146-shard1of1"]}, {"weights": [{"shape": [352], "name": "conv4_block4_0_bn/gamma", "dtype": "float32"}, {"shape": [352], "name": "conv4_block4_0_bn/beta", "dtype": "float32"}, {"shape": [352], "name": "conv4_block4_0_bn/moving_mean", "dtype": "float32"}, {"shape": [352], "name": "conv4_block4_0_bn/moving_variance", "dtype": "float32"}], "paths": ["group147-shard1of1"]}, {"weights": [{"shape": [128], "name": "conv4_block4_1_bn/gamma", "dtype": "float32"}, {"shape": [128], "name": "conv4_block4_1_bn/beta", "dtype": "float32"}, {"shape": [128], "name": "conv4_block4_1_bn/moving_mean", "dtype": "float32"}, {"shape": [128], "name": "conv4_block4_1_bn/moving_variance", "dtype": "float32"}], "paths": ["group148-shard1of1"]}, {"weights": [{"shape": [1, 1, 352, 128], "name": "conv4_block4_1_conv/kernel", "dtype": "float32"}], "paths": ["group149-shard1of1"]}, {"weights": [{"shape": [3, 3, 128, 32], "name": "conv4_block4_2_conv/kernel", "dtype": "float32"}], "paths": ["group150-shard1of1"]}, {"weights": [{"shape": [384], "name": "conv4_block5_0_bn/gamma", "dtype": "float32"}, {"shape": [384], "name": "conv4_block5_0_bn/beta", "dtype": "float32"}, {"shape": [384], "name": "conv4_block5_0_bn/moving_mean", "dtype": "float32"}, {"shape": [384], "name": "conv4_block5_0_bn/moving_variance", "dtype": "float32"}], "paths": ["group151-shard1of1"]}, {"weights": [{"shape": [128], "name": "conv4_block5_1_bn/gamma", "dtype": "float32"}, {"shape": [128], "name": "conv4_block5_1_bn/beta", "dtype": "float32"}, {"shape": [128], "name": "conv4_block5_1_bn/moving_mean", "dtype": "float32"}, {"shape": [128], "name": "conv4_block5_1_bn/moving_variance", "dtype": "float32"}], "paths": ["group152-shard1of1"]}, {"weights": [{"shape": [1, 1, 384, 128], "name": "conv4_block5_1_conv/kernel", "dtype": "float32"}], "paths": ["group153-shard1of1"]}, {"weights": [{"shape": [3, 3, 128, 32], "name": "conv4_block5_2_conv/kernel", "dtype": "float32"}], "paths": ["group154-shard1of1"]}, {"weights": [{"shape": [416], "name": "conv4_block6_0_bn/gamma", "dtype": "float32"}, {"shape": [416], "name": "conv4_block6_0_bn/beta", "dtype": "float32"}, {"shape": [416], "name": "conv4_block6_0_bn/moving_mean", "dtype": "float32"}, {"shape": [416], "name": "conv4_block6_0_bn/moving_variance", "dtype": "float32"}], "paths": ["group155-shard1of1"]}, {"weights": [{"shape": [128], "name": "conv4_block6_1_bn/gamma", "dtype": "float32"}, {"shape": [128], "name": "conv4_block6_1_bn/beta", "dtype": "float32"}, {"shape": [128], "name": "conv4_block6_1_bn/moving_mean", "dtype": "float32"}, {"shape": [128], "name": "conv4_block6_1_bn/moving_variance", "dtype": "float32"}], "paths": ["group156-shard1of1"]}, {"weights": [{"shape": [1, 1, 416, 128], "name": "conv4_block6_1_conv/kernel", "dtype": "float32"}], "paths": ["group157-shard1of1"]}, {"weights": [{"shape": [3, 3, 128, 32], "name": "conv4_block6_2_conv/kernel", "dtype": "float32"}], "paths": ["group158-shard1of1"]}, {"weights": [{"shape": [448], "name": "conv4_block7_0_bn/gamma", "dtype": "float32"}, {"shape": [448], "name": "conv4_block7_0_bn/beta", "dtype": "float32"}, {"shape": [448], "name": "conv4_block7_0_bn/moving_mean", "dtype": "float32"}, {"shape": [448], "name": "conv4_block7_0_bn/moving_variance", "dtype": "float32"}], "paths": ["group159-shard1of1"]}, {"weights": [{"shape": [128], "name": "conv4_block7_1_bn/gamma", "dtype": "float32"}, {"shape": [128], "name": "conv4_block7_1_bn/beta", "dtype": "float32"}, {"shape": [128], "name": "conv4_block7_1_bn/moving_mean", "dtype": "float32"}, {"shape": [128], "name": "conv4_block7_1_bn/moving_variance", "dtype": "float32"}], "paths": ["group160-shard1of1"]}, {"weights": [{"shape": [1, 1, 448, 128], "name": "conv4_block7_1_conv/kernel", "dtype": "float32"}], "paths": ["group161-shard1of1"]}, {"weights": [{"shape": [3, 3, 128, 32], "name": "conv4_block7_2_conv/kernel", "dtype": "float32"}], "paths": ["group162-shard1of1"]}, {"weights": [{"shape": [480], "name": "conv4_block8_0_bn/gamma", "dtype": "float32"}, {"shape": [480], "name": "conv4_block8_0_bn/beta", "dtype": "float32"}, {"shape": [480], "name": "conv4_block8_0_bn/moving_mean", "dtype": "float32"}, {"shape": [480], "name": "conv4_block8_0_bn/moving_variance", "dtype": "float32"}], "paths": ["group163-shard1of1"]}, {"weights": [{"shape": [128], "name": "conv4_block8_1_bn/gamma", "dtype": "float32"}, {"shape": [128], "name": "conv4_block8_1_bn/beta", "dtype": "float32"}, {"shape": [128], "name": "conv4_block8_1_bn/moving_mean", "dtype": "float32"}, {"shape": [128], "name": "conv4_block8_1_bn/moving_variance", "dtype": "float32"}], "paths": ["group164-shard1of1"]}, {"weights": [{"shape": [1, 1, 480, 128], "name": "conv4_block8_1_conv/kernel", "dtype": "float32"}], "paths": ["group165-shard1of1"]}, {"weights": [{"shape": [3, 3, 128, 32], "name": "conv4_block8_2_conv/kernel", "dtype": "float32"}], "paths": ["group166-shard1of1"]}, {"weights": [{"shape": [512], "name": "conv4_block9_0_bn/gamma", "dtype": "float32"}, {"shape": [512], "name": "conv4_block9_0_bn/beta", "dtype": "float32"}, {"shape": [512], "name": "conv4_block9_0_bn/moving_mean", "dtype": "float32"}, {"shape": [512], "name": "conv4_block9_0_bn/moving_variance", "dtype": "float32"}], "paths": ["group167-shard1of1"]}, {"weights": [{"shape": [128], "name": "conv4_block9_1_bn/gamma", "dtype": "float32"}, {"shape": [128], "name": "conv4_block9_1_bn/beta", "dtype": "float32"}, {"shape": [128], "name": "conv4_block9_1_bn/moving_mean", "dtype": "float32"}, {"shape": [128], "name": "conv4_block9_1_bn/moving_variance", "dtype": "float32"}], "paths": ["group168-shard1of1"]}, {"weights": [{"shape": [1, 1, 512, 128], "name": "conv4_block9_1_conv/kernel", "dtype": "float32"}], "paths": ["group169-shard1of1"]}, {"weights": [{"shape": [3, 3, 128, 32], "name": "conv4_block9_2_conv/kernel", "dtype": "float32"}], "paths": ["group170-shard1of1"]}, {"weights": [{"shape": [800], "name": "conv5_block10_0_bn/gamma", "dtype": "float32"}, {"shape": [800], "name": "conv5_block10_0_bn/beta", "dtype": "float32"}, {"shape": [800], "name": "conv5_block10_0_bn/moving_mean", "dtype": "float32"}, {"shape": [800], "name": "conv5_block10_0_bn/moving_variance", "dtype": "float32"}], "paths": ["group171-shard1of1"]}, {"weights": [{"shape": [128], "name": "conv5_block10_1_bn/gamma", "dtype": "float32"}, {"shape": [128], "name": "conv5_block10_1_bn/beta", "dtype": "float32"}, {"shape": [128], "name": "conv5_block10_1_bn/moving_mean", "dtype": "float32"}, {"shape": [128], "name": "conv5_block10_1_bn/moving_variance", "dtype": "float32"}], "paths": ["group172-shard1of1"]}, {"weights": [{"shape": [1, 1, 800, 128], "name": "conv5_block10_1_conv/kernel", "dtype": "float32"}], "paths": ["group173-shard1of1"]}, {"weights": [{"shape": [3, 3, 128, 32], "name": "conv5_block10_2_conv/kernel", "dtype": "float32"}], "paths": ["group174-shard1of1"]}, {"weights": [{"shape": [832], "name": "conv5_block11_0_bn/gamma", "dtype": "float32"}, {"shape": [832], "name": "conv5_block11_0_bn/beta", "dtype": "float32"}, {"shape": [832], "name": "conv5_block11_0_bn/moving_mean", "dtype": "float32"}, {"shape": [832], "name": "conv5_block11_0_bn/moving_variance", "dtype": "float32"}], "paths": ["group175-shard1of1"]}, {"weights": [{"shape": [128], "name": "conv5_block11_1_bn/gamma", "dtype": "float32"}, {"shape": [128], "name": "conv5_block11_1_bn/beta", "dtype": "float32"}, {"shape": [128], "name": "conv5_block11_1_bn/moving_mean", "dtype": "float32"}, {"shape": [128], "name": "conv5_block11_1_bn/moving_variance", "dtype": "float32"}], "paths": ["group176-shard1of1"]}, {"weights": [{"shape": [1, 1, 832, 128], "name": "conv5_block11_1_conv/kernel", "dtype": "float32"}], "paths": ["group177-shard1of1"]}, {"weights": [{"shape": [3, 3, 128, 32], "name": "conv5_block11_2_conv/kernel", "dtype": "float32"}], "paths": ["group178-shard1of1"]}, {"weights": [{"shape": [864], "name": "conv5_block12_0_bn/gamma", "dtype": "float32"}, {"shape": [864], "name": "conv5_block12_0_bn/beta", "dtype": "float32"}, {"shape": [864], "name": "conv5_block12_0_bn/moving_mean", "dtype": "float32"}, {"shape": [864], "name": "conv5_block12_0_bn/moving_variance", "dtype": "float32"}], "paths": ["group179-shard1of1"]}, {"weights": [{"shape": [128], "name": "conv5_block12_1_bn/gamma", "dtype": "float32"}, {"shape": [128], "name": "conv5_block12_1_bn/beta", "dtype": "float32"}, {"shape": [128], "name": "conv5_block12_1_bn/moving_mean", "dtype": "float32"}, {"shape": [128], "name": "conv5_block12_1_bn/moving_variance", "dtype": "float32"}], "paths": ["group180-shard1of1"]}, {"weights": [{"shape": [1, 1, 864, 128], "name": "conv5_block12_1_conv/kernel", "dtype": "float32"}], "paths": ["group181-shard1of1"]}, {"weights": [{"shape": [3, 3, 128, 32], "name": "conv5_block12_2_conv/kernel", "dtype": "float32"}], "paths": ["group182-shard1of1"]}, {"weights": [{"shape": [896], "name": "conv5_block13_0_bn/gamma", "dtype": "float32"}, {"shape": [896], "name": "conv5_block13_0_bn/beta", "dtype": "float32"}, {"shape": [896], "name": "conv5_block13_0_bn/moving_mean", "dtype": "float32"}, {"shape": [896], "name": "conv5_block13_0_bn/moving_variance", "dtype": "float32"}], "paths": ["group183-shard1of1"]}, {"weights": [{"shape": [128], "name": "conv5_block13_1_bn/gamma", "dtype": "float32"}, {"shape": [128], "name": "conv5_block13_1_bn/beta", "dtype": "float32"}, {"shape": [128], "name": "conv5_block13_1_bn/moving_mean", "dtype": "float32"}, {"shape": [128], "name": "conv5_block13_1_bn/moving_variance", "dtype": "float32"}], "paths": ["group184-shard1of1"]}, {"weights": [{"shape": [1, 1, 896, 128], "name": "conv5_block13_1_conv/kernel", "dtype": "float32"}], "paths": ["group185-shard1of1"]}, {"weights": [{"shape": [3, 3, 128, 32], "name": "conv5_block13_2_conv/kernel", "dtype": "float32"}], "paths": ["group186-shard1of1"]}, {"weights": [{"shape": [928], "name": "conv5_block14_0_bn/gamma", "dtype": "float32"}, {"shape": [928], "name": "conv5_block14_0_bn/beta", "dtype": "float32"}, {"shape": [928], "name": "conv5_block14_0_bn/moving_mean", "dtype": "float32"}, {"shape": [928], "name": "conv5_block14_0_bn/moving_variance", "dtype": "float32"}], "paths": ["group187-shard1of1"]}, {"weights": [{"shape": [128], "name": "conv5_block14_1_bn/gamma", "dtype": "float32"}, {"shape": [128], "name": "conv5_block14_1_bn/beta", "dtype": "float32"}, {"shape": [128], "name": "conv5_block14_1_bn/moving_mean", "dtype": "float32"}, {"shape": [128], "name": "conv5_block14_1_bn/moving_variance", "dtype": "float32"}], "paths": ["group188-shard1of1"]}, {"weights": [{"shape": [1, 1, 928, 128], "name": "conv5_block14_1_conv/kernel", "dtype": "float32"}], "paths": ["group189-shard1of1"]}, {"weights": [{"shape": [3, 3, 128, 32], "name": "conv5_block14_2_conv/kernel", "dtype": "float32"}], "paths": ["group190-shard1of1"]}, {"weights": [{"shape": [960], "name": "conv5_block15_0_bn/gamma", "dtype": "float32"}, {"shape": [960], "name": "conv5_block15_0_bn/beta", "dtype": "float32"}, {"shape": [960], "name": "conv5_block15_0_bn/moving_mean", "dtype": "float32"}, {"shape": [960], "name": "conv5_block15_0_bn/moving_variance", "dtype": "float32"}], "paths": ["group191-shard1of1"]}, {"weights": [{"shape": [128], "name": "conv5_block15_1_bn/gamma", "dtype": "float32"}, {"shape": [128], "name": "conv5_block15_1_bn/beta", "dtype": "float32"}, {"shape": [128], "name": "conv5_block15_1_bn/moving_mean", "dtype": "float32"}, {"shape": [128], "name": "conv5_block15_1_bn/moving_variance", "dtype": "float32"}], "paths": ["group192-shard1of1"]}, {"weights": [{"shape": [1, 1, 960, 128], "name": "conv5_block15_1_conv/kernel", "dtype": "float32"}], "paths": ["group193-shard1of1"]}, {"weights": [{"shape": [3, 3, 128, 32], "name": "conv5_block15_2_conv/kernel", "dtype": "float32"}], "paths": ["group194-shard1of1"]}, {"weights": [{"shape": [992], "name": "conv5_block16_0_bn/gamma", "dtype": "float32"}, {"shape": [992], "name": "conv5_block16_0_bn/beta", "dtype": "float32"}, {"shape": [992], "name": "conv5_block16_0_bn/moving_mean", "dtype": "float32"}, {"shape": [992], "name": "conv5_block16_0_bn/moving_variance", "dtype": "float32"}], "paths": ["group195-shard1of1"]}, {"weights": [{"shape": [128], "name": "conv5_block16_1_bn/gamma", "dtype": "float32"}, {"shape": [128], "name": "conv5_block16_1_bn/beta", "dtype": "float32"}, {"shape": [128], "name": "conv5_block16_1_bn/moving_mean", "dtype": "float32"}, {"shape": [128], "name": "conv5_block16_1_bn/moving_variance", "dtype": "float32"}], "paths": ["group196-shard1of1"]}, {"weights": [{"shape": [1, 1, 992, 128], "name": "conv5_block16_1_conv/kernel", "dtype": "float32"}], "paths": ["group197-shard1of1"]}, {"weights": [{"shape": [3, 3, 128, 32], "name": "conv5_block16_2_conv/kernel", "dtype": "float32"}], "paths": ["group198-shard1of1"]}, {"weights": [{"shape": [512], "name": "conv5_block1_0_bn/gamma", "dtype": "float32"}, {"shape": [512], "name": "conv5_block1_0_bn/beta", "dtype": "float32"}, {"shape": [512], "name": "conv5_block1_0_bn/moving_mean", "dtype": "float32"}, {"shape": [512], "name": "conv5_block1_0_bn/moving_variance", "dtype": "float32"}], "paths": ["group199-shard1of1"]}, {"weights": [{"shape": [128], "name": "conv5_block1_1_bn/gamma", "dtype": "float32"}, {"shape": [128], "name": "conv5_block1_1_bn/beta", "dtype": "float32"}, {"shape": [128], "name": "conv5_block1_1_bn/moving_mean", "dtype": "float32"}, {"shape": [128], "name": "conv5_block1_1_bn/moving_variance", "dtype": "float32"}], "paths": ["group200-shard1of1"]}, {"weights": [{"shape": [1, 1, 512, 128], "name": "conv5_block1_1_conv/kernel", "dtype": "float32"}], "paths": ["group201-shard1of1"]}, {"weights": [{"shape": [3, 3, 128, 32], "name": "conv5_block1_2_conv/kernel", "dtype": "float32"}], "paths": ["group202-shard1of1"]}, {"weights": [{"shape": [544], "name": "conv5_block2_0_bn/gamma", "dtype": "float32"}, {"shape": [544], "name": "conv5_block2_0_bn/beta", "dtype": "float32"}, {"shape": [544], "name": "conv5_block2_0_bn/moving_mean", "dtype": "float32"}, {"shape": [544], "name": "conv5_block2_0_bn/moving_variance", "dtype": "float32"}], "paths": ["group203-shard1of1"]}, {"weights": [{"shape": [128], "name": "conv5_block2_1_bn/gamma", "dtype": "float32"}, {"shape": [128], "name": "conv5_block2_1_bn/beta", "dtype": "float32"}, {"shape": [128], "name": "conv5_block2_1_bn/moving_mean", "dtype": "float32"}, {"shape": [128], "name": "conv5_block2_1_bn/moving_variance", "dtype": "float32"}], "paths": ["group204-shard1of1"]}, {"weights": [{"shape": [1, 1, 544, 128], "name": "conv5_block2_1_conv/kernel", "dtype": "float32"}], "paths": ["group205-shard1of1"]}, {"weights": [{"shape": [3, 3, 128, 32], "name": "conv5_block2_2_conv/kernel", "dtype": "float32"}], "paths": ["group206-shard1of1"]}, {"weights": [{"shape": [576], "name": "conv5_block3_0_bn/gamma", "dtype": "float32"}, {"shape": [576], "name": "conv5_block3_0_bn/beta", "dtype": "float32"}, {"shape": [576], "name": "conv5_block3_0_bn/moving_mean", "dtype": "float32"}, {"shape": [576], "name": "conv5_block3_0_bn/moving_variance", "dtype": "float32"}], "paths": ["group207-shard1of1"]}, {"weights": [{"shape": [128], "name": "conv5_block3_1_bn/gamma", "dtype": "float32"}, {"shape": [128], "name": "conv5_block3_1_bn/beta", "dtype": "float32"}, {"shape": [128], "name": "conv5_block3_1_bn/moving_mean", "dtype": "float32"}, {"shape": [128], "name": "conv5_block3_1_bn/moving_variance", "dtype": "float32"}], "paths": ["group208-shard1of1"]}, {"weights": [{"shape": [1, 1, 576, 128], "name": "conv5_block3_1_conv/kernel", "dtype": "float32"}], "paths": ["group209-shard1of1"]}, {"weights": [{"shape": [3, 3, 128, 32], "name": "conv5_block3_2_conv/kernel", "dtype": "float32"}], "paths": ["group210-shard1of1"]}, {"weights": [{"shape": [608], "name": "conv5_block4_0_bn/gamma", "dtype": "float32"}, {"shape": [608], "name": "conv5_block4_0_bn/beta", "dtype": "float32"}, {"shape": [608], "name": "conv5_block4_0_bn/moving_mean", "dtype": "float32"}, {"shape": [608], "name": "conv5_block4_0_bn/moving_variance", "dtype": "float32"}], "paths": ["group211-shard1of1"]}, {"weights": [{"shape": [128], "name": "conv5_block4_1_bn/gamma", "dtype": "float32"}, {"shape": [128], "name": "conv5_block4_1_bn/beta", "dtype": "float32"}, {"shape": [128], "name": "conv5_block4_1_bn/moving_mean", "dtype": "float32"}, {"shape": [128], "name": "conv5_block4_1_bn/moving_variance", "dtype": "float32"}], "paths": ["group212-shard1of1"]}, {"weights": [{"shape": [1, 1, 608, 128], "name": "conv5_block4_1_conv/kernel", "dtype": "float32"}], "paths": ["group213-shard1of1"]}, {"weights": [{"shape": [3, 3, 128, 32], "name": "conv5_block4_2_conv/kernel", "dtype": "float32"}], "paths": ["group214-shard1of1"]}, {"weights": [{"shape": [640], "name": "conv5_block5_0_bn/gamma", "dtype": "float32"}, {"shape": [640], "name": "conv5_block5_0_bn/beta", "dtype": "float32"}, {"shape": [640], "name": "conv5_block5_0_bn/moving_mean", "dtype": "float32"}, {"shape": [640], "name": "conv5_block5_0_bn/moving_variance", "dtype": "float32"}], "paths": ["group215-shard1of1"]}, {"weights": [{"shape": [128], "name": "conv5_block5_1_bn/gamma", "dtype": "float32"}, {"shape": [128], "name": "conv5_block5_1_bn/beta", "dtype": "float32"}, {"shape": [128], "name": "conv5_block5_1_bn/moving_mean", "dtype": "float32"}, {"shape": [128], "name": "conv5_block5_1_bn/moving_variance", "dtype": "float32"}], "paths": ["group216-shard1of1"]}, {"weights": [{"shape": [1, 1, 640, 128], "name": "conv5_block5_1_conv/kernel", "dtype": "float32"}], "paths": ["group217-shard1of1"]}, {"weights": [{"shape": [3, 3, 128, 32], "name": "conv5_block5_2_conv/kernel", "dtype": "float32"}], "paths": ["group218-shard1of1"]}, {"weights": [{"shape": [672], "name": "conv5_block6_0_bn/gamma", "dtype": "float32"}, {"shape": [672], "name": "conv5_block6_0_bn/beta", "dtype": "float32"}, {"shape": [672], "name": "conv5_block6_0_bn/moving_mean", "dtype": "float32"}, {"shape": [672], "name": "conv5_block6_0_bn/moving_variance", "dtype": "float32"}], "paths": ["group219-shard1of1"]}, {"weights": [{"shape": [128], "name": "conv5_block6_1_bn/gamma", "dtype": "float32"}, {"shape": [128], "name": "conv5_block6_1_bn/beta", "dtype": "float32"}, {"shape": [128], "name": "conv5_block6_1_bn/moving_mean", "dtype": "float32"}, {"shape": [128], "name": "conv5_block6_1_bn/moving_variance", "dtype": "float32"}], "paths": ["group220-shard1of1"]}, {"weights": [{"shape": [1, 1, 672, 128], "name": "conv5_block6_1_conv/kernel", "dtype": "float32"}], "paths": ["group221-shard1of1"]}, {"weights": [{"shape": [3, 3, 128, 32], "name": "conv5_block6_2_conv/kernel", "dtype": "float32"}], "paths": ["group222-shard1of1"]}, {"weights": [{"shape": [704], "name": "conv5_block7_0_bn/gamma", "dtype": "float32"}, {"shape": [704], "name": "conv5_block7_0_bn/beta", "dtype": "float32"}, {"shape": [704], "name": "conv5_block7_0_bn/moving_mean", "dtype": "float32"}, {"shape": [704], "name": "conv5_block7_0_bn/moving_variance", "dtype": "float32"}], "paths": ["group223-shard1of1"]}, {"weights": [{"shape": [128], "name": "conv5_block7_1_bn/gamma", "dtype": "float32"}, {"shape": [128], "name": "conv5_block7_1_bn/beta", "dtype": "float32"}, {"shape": [128], "name": "conv5_block7_1_bn/moving_mean", "dtype": "float32"}, {"shape": [128], "name": "conv5_block7_1_bn/moving_variance", "dtype": "float32"}], "paths": ["group224-shard1of1"]}, {"weights": [{"shape": [1, 1, 704, 128], "name": "conv5_block7_1_conv/kernel", "dtype": "float32"}], "paths": ["group225-shard1of1"]}, {"weights": [{"shape": [3, 3, 128, 32], "name": "conv5_block7_2_conv/kernel", "dtype": "float32"}], "paths": ["group226-shard1of1"]}, {"weights": [{"shape": [736], "name": "conv5_block8_0_bn/gamma", "dtype": "float32"}, {"shape": [736], "name": "conv5_block8_0_bn/beta", "dtype": "float32"}, {"shape": [736], "name": "conv5_block8_0_bn/moving_mean", "dtype": "float32"}, {"shape": [736], "name": "conv5_block8_0_bn/moving_variance", "dtype": "float32"}], "paths": ["group227-shard1of1"]}, {"weights": [{"shape": [128], "name": "conv5_block8_1_bn/gamma", "dtype": "float32"}, {"shape": [128], "name": "conv5_block8_1_bn/beta", "dtype": "float32"}, {"shape": [128], "name": "conv5_block8_1_bn/moving_mean", "dtype": "float32"}, {"shape": [128], "name": "conv5_block8_1_bn/moving_variance", "dtype": "float32"}], "paths": ["group228-shard1of1"]}, {"weights": [{"shape": [1, 1, 736, 128], "name": "conv5_block8_1_conv/kernel", "dtype": "float32"}], "paths": ["group229-shard1of1"]}, {"weights": [{"shape": [3, 3, 128, 32], "name": "conv5_block8_2_conv/kernel", "dtype": "float32"}], "paths": ["group230-shard1of1"]}, {"weights": [{"shape": [768], "name": "conv5_block9_0_bn/gamma", "dtype": "float32"}, {"shape": [768], "name": "conv5_block9_0_bn/beta", "dtype": "float32"}, {"shape": [768], "name": "conv5_block9_0_bn/moving_mean", "dtype": "float32"}, {"shape": [768], "name": "conv5_block9_0_bn/moving_variance", "dtype": "float32"}], "paths": ["group231-shard1of1"]}, {"weights": [{"shape": [128], "name": "conv5_block9_1_bn/gamma", "dtype": "float32"}, {"shape": [128], "name": "conv5_block9_1_bn/beta", "dtype": "float32"}, {"shape": [128], "name": "conv5_block9_1_bn/moving_mean", "dtype": "float32"}, {"shape": [128], "name": "conv5_block9_1_bn/moving_variance", "dtype": "float32"}], "paths": ["group232-shard1of1"]}, {"weights": [{"shape": [1, 1, 768, 128], "name": "conv5_block9_1_conv/kernel", "dtype": "float32"}], "paths": ["group233-shard1of1"]}, {"weights": [{"shape": [3, 3, 128, 32], "name": "conv5_block9_2_conv/kernel", "dtype": "float32"}], "paths": ["group234-shard1of1"]}, {"weights": [{"shape": [1024, 1000], "name": "fc1000/kernel", "dtype": "float32"}, {"shape": [1000], "name": "fc1000/bias", "dtype": "float32"}], "paths": ["group235-shard1of1"]}, {"weights": [{"shape": [256], "name": "pool2_bn/gamma", "dtype": "float32"}, {"shape": [256], "name": "pool2_bn/beta", "dtype": "float32"}, {"shape": [256], "name": "pool2_bn/moving_mean", "dtype": "float32"}, {"shape": [256], "name": "pool2_bn/moving_variance", "dtype": "float32"}], "paths": ["group236-shard1of1"]}, {"weights": [{"shape": [1, 1, 256, 128], "name": "pool2_conv/kernel", "dtype": "float32"}], "paths": ["group237-shard1of1"]}, {"weights": [{"shape": [512], "name": "pool3_bn/gamma", "dtype": "float32"}, {"shape": [512], "name": "pool3_bn/beta", "dtype": "float32"}, {"shape": [512], "name": "pool3_bn/moving_mean", "dtype": "float32"}, {"shape": [512], "name": "pool3_bn/moving_variance", "dtype": "float32"}], "paths": ["group238-shard1of1"]}, {"weights": [{"shape": [1, 1, 512, 256], "name": "pool3_conv/kernel", "dtype": "float32"}], "paths": ["group239-shard1of1"]}, {"weights": [{"shape": [1024], "name": "pool4_bn/gamma", "dtype": "float32"}, {"shape": [1024], "name": "pool4_bn/beta", "dtype": "float32"}, {"shape": [1024], "name": "pool4_bn/moving_mean", "dtype": "float32"}, {"shape": [1024], "name": "pool4_bn/moving_variance", "dtype": "float32"}], "paths": ["group240-shard1of1"]}, {"weights": [{"shape": [1, 1, 1024, 512], "name": "pool4_conv/kernel", "dtype": "float32"}], "paths": ["group241-shard1of1"]}]}