{"modelTopology": {"model_config": {"config": {"layers": [{"name": "input_1", "config": {"sparse": false, "name": "input_1", "batch_input_shape": [null, 224, 224, 3], "dtype": "float32"}, "inbound_nodes": [], "class_name": "InputLayer"}, {"name": "conv1", "config": {"activation": "linear", "dilation_rate": [1, 1], "bias_regularizer": null, "name": "conv1", "kernel_regularizer": null, "kernel_initializer": {"config": {"scale": 1.0, "seed": null, "distribution": "uniform", "mode": "fan_avg"}, "class_name": "VarianceScaling"}, "padding": "same", "filters": 32, "data_format": "channels_last", "kernel_constraint": null, "kernel_size": [3, 3], "strides": [2, 2], "activity_regularizer": null, "bias_constraint": null, "trainable": true, "use_bias": false, "bias_initializer": {"config": {}, "class_name": "Zeros"}}, "inbound_nodes": [[["input_1", 0, 0, {}]]], "class_name": "Conv2D"}, {"name": "conv1_bn", "config": {"axis": -1, "scale": true, "name": "conv1_bn", "gamma_constraint": null, "beta_constraint": null, "momentum": 0.99, "gamma_regularizer": null, "trainable": true, "beta_initializer": {"config": {}, "class_name": "Zeros"}, "gamma_initializer": {"config": {}, "class_name": "Ones"}, "beta_regularizer": null, "epsilon": 0.001, "moving_mean_initializer": {"config": {}, "class_name": "Zeros"}, "moving_variance_initializer": {"config": {}, "class_name": "Ones"}, "center": true}, "inbound_nodes": [[["conv1", 0, 0, {}]]], "class_name": "BatchNormalization"}, {"name": "conv1_relu", "config": {"name": "conv1_relu", "trainable": true, "activation": "relu6"}, "inbound_nodes": [[["conv1_bn", 0, 0, {}]]], "class_name": "Activation"}, {"name": "conv_dw_1", "config": {"activation": "linear", "bias_regularizer": null, "depthwise_initializer": {"config": {"scale": 1.0, "seed": null, "distribution": "uniform", "mode": "fan_avg"}, "class_name": "VarianceScaling"}, "depth_multiplier": 1, "name": "conv_dw_1", "use_bias": false, "dilation_rate": [1, 1], "padding": "same", "depthwise_constraint": null, "data_format": "channels_last", "trainable": true, "kernel_size": [3, 3], "activity_regularizer": null, "strides": [1, 1], "bias_constraint": null, "depthwise_regularizer": null, "bias_initializer": {"config": {}, "class_name": "Zeros"}}, "inbound_nodes": [[["conv1_relu", 0, 0, {}]]], "class_name": "DepthwiseConv2D"}, {"name": "conv_dw_1_bn", "config": {"axis": -1, "scale": true, "name": "conv_dw_1_bn", "gamma_constraint": null, "beta_constraint": null, "momentum": 0.99, "gamma_regularizer": null, "trainable": true, "beta_initializer": {"config": {}, "class_name": "Zeros"}, "gamma_initializer": {"config": {}, "class_name": "Ones"}, "beta_regularizer": null, "epsilon": 0.001, "moving_mean_initializer": {"config": {}, "class_name": "Zeros"}, "moving_variance_initializer": {"config": {}, "class_name": "Ones"}, "center": true}, "inbound_nodes": [[["conv_dw_1", 0, 0, {}]]], "class_name": "BatchNormalization"}, {"name": "conv_dw_1_relu", "config": {"name": "conv_dw_1_relu", "trainable": true, "activation": "relu6"}, "inbound_nodes": [[["conv_dw_1_bn", 0, 0, {}]]], "class_name": "Activation"}, {"name": "conv_pw_1", "config": {"activation": "linear", "dilation_rate": [1, 1], "bias_regularizer": null, "name": "conv_pw_1", "kernel_regularizer": null, "kernel_initializer": {"config": {"scale": 1.0, "seed": null, "distribution": "uniform", "mode": "fan_avg"}, "class_name": "VarianceScaling"}, "padding": "same", "filters": 64, "data_format": "channels_last", "kernel_constraint": null, "kernel_size": [1, 1], "strides": [1, 1], "activity_regularizer": null, "bias_constraint": null, "trainable": true, "use_bias": false, "bias_initializer": {"config": {}, "class_name": "Zeros"}}, "inbound_nodes": [[["conv_dw_1_relu", 0, 0, {}]]], "class_name": "Conv2D"}, {"name": "conv_pw_1_bn", "config": {"axis": -1, "scale": true, "name": "conv_pw_1_bn", "gamma_constraint": null, "beta_constraint": null, "momentum": 0.99, "gamma_regularizer": null, "trainable": true, "beta_initializer": {"config": {}, "class_name": "Zeros"}, "gamma_initializer": {"config": {}, "class_name": "Ones"}, "beta_regularizer": null, "epsilon": 0.001, "moving_mean_initializer": {"config": {}, "class_name": "Zeros"}, "moving_variance_initializer": {"config": {}, "class_name": "Ones"}, "center": true}, "inbound_nodes": [[["conv_pw_1", 0, 0, {}]]], "class_name": "BatchNormalization"}, {"name": "conv_pw_1_relu", "config": {"name": "conv_pw_1_relu", "trainable": true, "activation": "relu6"}, "inbound_nodes": [[["conv_pw_1_bn", 0, 0, {}]]], "class_name": "Activation"}, {"name": "conv_dw_2", "config": {"activation": "linear", "bias_regularizer": null, "depthwise_initializer": {"config": {"scale": 1.0, "seed": null, "distribution": "uniform", "mode": "fan_avg"}, "class_name": "VarianceScaling"}, "depth_multiplier": 1, "name": "conv_dw_2", "use_bias": false, "dilation_rate": [1, 1], "padding": "same", "depthwise_constraint": null, "data_format": "channels_last", "trainable": true, "kernel_size": [3, 3], "activity_regularizer": null, "strides": [2, 2], "bias_constraint": null, "depthwise_regularizer": null, "bias_initializer": {"config": {}, "class_name": "Zeros"}}, "inbound_nodes": [[["conv_pw_1_relu", 0, 0, {}]]], "class_name": "DepthwiseConv2D"}, {"name": "conv_dw_2_bn", "config": {"axis": -1, "scale": true, "name": "conv_dw_2_bn", "gamma_constraint": null, "beta_constraint": null, "momentum": 0.99, "gamma_regularizer": null, "trainable": true, "beta_initializer": {"config": {}, "class_name": "Zeros"}, "gamma_initializer": {"config": {}, "class_name": "Ones"}, "beta_regularizer": null, "epsilon": 0.001, "moving_mean_initializer": {"config": {}, "class_name": "Zeros"}, "moving_variance_initializer": {"config": {}, "class_name": "Ones"}, "center": true}, "inbound_nodes": [[["conv_dw_2", 0, 0, {}]]], "class_name": "BatchNormalization"}, {"name": "conv_dw_2_relu", "config": {"name": "conv_dw_2_relu", "trainable": true, "activation": "relu6"}, "inbound_nodes": [[["conv_dw_2_bn", 0, 0, {}]]], "class_name": "Activation"}, {"name": "conv_pw_2", "config": {"activation": "linear", "dilation_rate": [1, 1], "bias_regularizer": null, "name": "conv_pw_2", "kernel_regularizer": null, "kernel_initializer": {"config": {"scale": 1.0, "seed": null, "distribution": "uniform", "mode": "fan_avg"}, "class_name": "VarianceScaling"}, "padding": "same", "filters": 128, "data_format": "channels_last", "kernel_constraint": null, "kernel_size": [1, 1], "strides": [1, 1], "activity_regularizer": null, "bias_constraint": null, "trainable": true, "use_bias": false, "bias_initializer": {"config": {}, "class_name": "Zeros"}}, "inbound_nodes": [[["conv_dw_2_relu", 0, 0, {}]]], "class_name": "Conv2D"}, {"name": "conv_pw_2_bn", "config": {"axis": -1, "scale": true, "name": "conv_pw_2_bn", "gamma_constraint": null, "beta_constraint": null, "momentum": 0.99, "gamma_regularizer": null, "trainable": true, "beta_initializer": {"config": {}, "class_name": "Zeros"}, "gamma_initializer": {"config": {}, "class_name": "Ones"}, "beta_regularizer": null, "epsilon": 0.001, "moving_mean_initializer": {"config": {}, "class_name": "Zeros"}, "moving_variance_initializer": {"config": {}, "class_name": "Ones"}, "center": true}, "inbound_nodes": [[["conv_pw_2", 0, 0, {}]]], "class_name": "BatchNormalization"}, {"name": "conv_pw_2_relu", "config": {"name": "conv_pw_2_relu", "trainable": true, "activation": "relu6"}, "inbound_nodes": [[["conv_pw_2_bn", 0, 0, {}]]], "class_name": "Activation"}, {"name": "conv_dw_3", "config": {"activation": "linear", "bias_regularizer": null, "depthwise_initializer": {"config": {"scale": 1.0, "seed": null, "distribution": "uniform", "mode": "fan_avg"}, "class_name": "VarianceScaling"}, "depth_multiplier": 1, "name": "conv_dw_3", "use_bias": false, "dilation_rate": [1, 1], "padding": "same", "depthwise_constraint": null, "data_format": "channels_last", "trainable": true, "kernel_size": [3, 3], "activity_regularizer": null, "strides": [1, 1], "bias_constraint": null, "depthwise_regularizer": null, "bias_initializer": {"config": {}, "class_name": "Zeros"}}, "inbound_nodes": [[["conv_pw_2_relu", 0, 0, {}]]], "class_name": "DepthwiseConv2D"}, {"name": "conv_dw_3_bn", "config": {"axis": -1, "scale": true, "name": "conv_dw_3_bn", "gamma_constraint": null, "beta_constraint": null, "momentum": 0.99, "gamma_regularizer": null, "trainable": true, "beta_initializer": {"config": {}, "class_name": "Zeros"}, "gamma_initializer": {"config": {}, "class_name": "Ones"}, "beta_regularizer": null, "epsilon": 0.001, "moving_mean_initializer": {"config": {}, "class_name": "Zeros"}, "moving_variance_initializer": {"config": {}, "class_name": "Ones"}, "center": true}, "inbound_nodes": [[["conv_dw_3", 0, 0, {}]]], "class_name": "BatchNormalization"}, {"name": "conv_dw_3_relu", "config": {"name": "conv_dw_3_relu", "trainable": true, "activation": "relu6"}, "inbound_nodes": [[["conv_dw_3_bn", 0, 0, {}]]], "class_name": "Activation"}, {"name": "conv_pw_3", "config": {"activation": "linear", "dilation_rate": [1, 1], "bias_regularizer": null, "name": "conv_pw_3", "kernel_regularizer": null, "kernel_initializer": {"config": {"scale": 1.0, "seed": null, "distribution": "uniform", "mode": "fan_avg"}, "class_name": "VarianceScaling"}, "padding": "same", "filters": 128, "data_format": "channels_last", "kernel_constraint": null, "kernel_size": [1, 1], "strides": [1, 1], "activity_regularizer": null, "bias_constraint": null, "trainable": true, "use_bias": false, "bias_initializer": {"config": {}, "class_name": "Zeros"}}, "inbound_nodes": [[["conv_dw_3_relu", 0, 0, {}]]], "class_name": "Conv2D"}, {"name": "conv_pw_3_bn", "config": {"axis": -1, "scale": true, "name": "conv_pw_3_bn", "gamma_constraint": null, "beta_constraint": null, "momentum": 0.99, "gamma_regularizer": null, "trainable": true, "beta_initializer": {"config": {}, "class_name": "Zeros"}, "gamma_initializer": {"config": {}, "class_name": "Ones"}, "beta_regularizer": null, "epsilon": 0.001, "moving_mean_initializer": {"config": {}, "class_name": "Zeros"}, "moving_variance_initializer": {"config": {}, "class_name": "Ones"}, "center": true}, "inbound_nodes": [[["conv_pw_3", 0, 0, {}]]], "class_name": "BatchNormalization"}, {"name": "conv_pw_3_relu", "config": {"name": "conv_pw_3_relu", "trainable": true, "activation": "relu6"}, "inbound_nodes": [[["conv_pw_3_bn", 0, 0, {}]]], "class_name": "Activation"}, {"name": "conv_dw_4", "config": {"activation": "linear", "bias_regularizer": null, "depthwise_initializer": {"config": {"scale": 1.0, "seed": null, "distribution": "uniform", "mode": "fan_avg"}, "class_name": "VarianceScaling"}, "depth_multiplier": 1, "name": "conv_dw_4", "use_bias": false, "dilation_rate": [1, 1], "padding": "same", "depthwise_constraint": null, "data_format": "channels_last", "trainable": true, "kernel_size": [3, 3], "activity_regularizer": null, "strides": [2, 2], "bias_constraint": null, "depthwise_regularizer": null, "bias_initializer": {"config": {}, "class_name": "Zeros"}}, "inbound_nodes": [[["conv_pw_3_relu", 0, 0, {}]]], "class_name": "DepthwiseConv2D"}, {"name": "conv_dw_4_bn", "config": {"axis": -1, "scale": true, "name": "conv_dw_4_bn", "gamma_constraint": null, "beta_constraint": null, "momentum": 0.99, "gamma_regularizer": null, "trainable": true, "beta_initializer": {"config": {}, "class_name": "Zeros"}, "gamma_initializer": {"config": {}, "class_name": "Ones"}, "beta_regularizer": null, "epsilon": 0.001, "moving_mean_initializer": {"config": {}, "class_name": "Zeros"}, "moving_variance_initializer": {"config": {}, "class_name": "Ones"}, "center": true}, "inbound_nodes": [[["conv_dw_4", 0, 0, {}]]], "class_name": "BatchNormalization"}, {"name": "conv_dw_4_relu", "config": {"name": "conv_dw_4_relu", "trainable": true, "activation": "relu6"}, "inbound_nodes": [[["conv_dw_4_bn", 0, 0, {}]]], "class_name": "Activation"}, {"name": "conv_pw_4", "config": {"activation": "linear", "dilation_rate": [1, 1], "bias_regularizer": null, "name": "conv_pw_4", "kernel_regularizer": null, "kernel_initializer": {"config": {"scale": 1.0, "seed": null, "distribution": "uniform", "mode": "fan_avg"}, "class_name": "VarianceScaling"}, "padding": "same", "filters": 256, "data_format": "channels_last", "kernel_constraint": null, "kernel_size": [1, 1], "strides": [1, 1], "activity_regularizer": null, "bias_constraint": null, "trainable": true, "use_bias": false, "bias_initializer": {"config": {}, "class_name": "Zeros"}}, "inbound_nodes": [[["conv_dw_4_relu", 0, 0, {}]]], "class_name": "Conv2D"}, {"name": "conv_pw_4_bn", "config": {"axis": -1, "scale": true, "name": "conv_pw_4_bn", "gamma_constraint": null, "beta_constraint": null, "momentum": 0.99, "gamma_regularizer": null, "trainable": true, "beta_initializer": {"config": {}, "class_name": "Zeros"}, "gamma_initializer": {"config": {}, "class_name": "Ones"}, "beta_regularizer": null, "epsilon": 0.001, "moving_mean_initializer": {"config": {}, "class_name": "Zeros"}, "moving_variance_initializer": {"config": {}, "class_name": "Ones"}, "center": true}, "inbound_nodes": [[["conv_pw_4", 0, 0, {}]]], "class_name": "BatchNormalization"}, {"name": "conv_pw_4_relu", "config": {"name": "conv_pw_4_relu", "trainable": true, "activation": "relu6"}, "inbound_nodes": [[["conv_pw_4_bn", 0, 0, {}]]], "class_name": "Activation"}, {"name": "conv_dw_5", "config": {"activation": "linear", "bias_regularizer": null, "depthwise_initializer": {"config": {"scale": 1.0, "seed": null, "distribution": "uniform", "mode": "fan_avg"}, "class_name": "VarianceScaling"}, "depth_multiplier": 1, "name": "conv_dw_5", "use_bias": false, "dilation_rate": [1, 1], "padding": "same", "depthwise_constraint": null, "data_format": "channels_last", "trainable": true, "kernel_size": [3, 3], "activity_regularizer": null, "strides": [1, 1], "bias_constraint": null, "depthwise_regularizer": null, "bias_initializer": {"config": {}, "class_name": "Zeros"}}, "inbound_nodes": [[["conv_pw_4_relu", 0, 0, {}]]], "class_name": "DepthwiseConv2D"}, {"name": "conv_dw_5_bn", "config": {"axis": -1, "scale": true, "name": "conv_dw_5_bn", "gamma_constraint": null, "beta_constraint": null, "momentum": 0.99, "gamma_regularizer": null, "trainable": true, "beta_initializer": {"config": {}, "class_name": "Zeros"}, "gamma_initializer": {"config": {}, "class_name": "Ones"}, "beta_regularizer": null, "epsilon": 0.001, "moving_mean_initializer": {"config": {}, "class_name": "Zeros"}, "moving_variance_initializer": {"config": {}, "class_name": "Ones"}, "center": true}, "inbound_nodes": [[["conv_dw_5", 0, 0, {}]]], "class_name": "BatchNormalization"}, {"name": "conv_dw_5_relu", "config": {"name": "conv_dw_5_relu", "trainable": true, "activation": "relu6"}, "inbound_nodes": [[["conv_dw_5_bn", 0, 0, {}]]], "class_name": "Activation"}, {"name": "conv_pw_5", "config": {"activation": "linear", "dilation_rate": [1, 1], "bias_regularizer": null, "name": "conv_pw_5", "kernel_regularizer": null, "kernel_initializer": {"config": {"scale": 1.0, "seed": null, "distribution": "uniform", "mode": "fan_avg"}, "class_name": "VarianceScaling"}, "padding": "same", "filters": 256, "data_format": "channels_last", "kernel_constraint": null, "kernel_size": [1, 1], "strides": [1, 1], "activity_regularizer": null, "bias_constraint": null, "trainable": true, "use_bias": false, "bias_initializer": {"config": {}, "class_name": "Zeros"}}, "inbound_nodes": [[["conv_dw_5_relu", 0, 0, {}]]], "class_name": "Conv2D"}, {"name": "conv_pw_5_bn", "config": {"axis": -1, "scale": true, "name": "conv_pw_5_bn", "gamma_constraint": null, "beta_constraint": null, "momentum": 0.99, "gamma_regularizer": null, "trainable": true, "beta_initializer": {"config": {}, "class_name": "Zeros"}, "gamma_initializer": {"config": {}, "class_name": "Ones"}, "beta_regularizer": null, "epsilon": 0.001, "moving_mean_initializer": {"config": {}, "class_name": "Zeros"}, "moving_variance_initializer": {"config": {}, "class_name": "Ones"}, "center": true}, "inbound_nodes": [[["conv_pw_5", 0, 0, {}]]], "class_name": "BatchNormalization"}, {"name": "conv_pw_5_relu", "config": {"name": "conv_pw_5_relu", "trainable": true, "activation": "relu6"}, "inbound_nodes": [[["conv_pw_5_bn", 0, 0, {}]]], "class_name": "Activation"}, {"name": "conv_dw_6", "config": {"activation": "linear", "bias_regularizer": null, "depthwise_initializer": {"config": {"scale": 1.0, "seed": null, "distribution": "uniform", "mode": "fan_avg"}, "class_name": "VarianceScaling"}, "depth_multiplier": 1, "name": "conv_dw_6", "use_bias": false, "dilation_rate": [1, 1], "padding": "same", "depthwise_constraint": null, "data_format": "channels_last", "trainable": true, "kernel_size": [3, 3], "activity_regularizer": null, "strides": [2, 2], "bias_constraint": null, "depthwise_regularizer": null, "bias_initializer": {"config": {}, "class_name": "Zeros"}}, "inbound_nodes": [[["conv_pw_5_relu", 0, 0, {}]]], "class_name": "DepthwiseConv2D"}, {"name": "conv_dw_6_bn", "config": {"axis": -1, "scale": true, "name": "conv_dw_6_bn", "gamma_constraint": null, "beta_constraint": null, "momentum": 0.99, "gamma_regularizer": null, "trainable": true, "beta_initializer": {"config": {}, "class_name": "Zeros"}, "gamma_initializer": {"config": {}, "class_name": "Ones"}, "beta_regularizer": null, "epsilon": 0.001, "moving_mean_initializer": {"config": {}, "class_name": "Zeros"}, "moving_variance_initializer": {"config": {}, "class_name": "Ones"}, "center": true}, "inbound_nodes": [[["conv_dw_6", 0, 0, {}]]], "class_name": "BatchNormalization"}, {"name": "conv_dw_6_relu", "config": {"name": "conv_dw_6_relu", "trainable": true, "activation": "relu6"}, "inbound_nodes": [[["conv_dw_6_bn", 0, 0, {}]]], "class_name": "Activation"}, {"name": "conv_pw_6", "config": {"activation": "linear", "dilation_rate": [1, 1], "bias_regularizer": null, "name": "conv_pw_6", "kernel_regularizer": null, "kernel_initializer": {"config": {"scale": 1.0, "seed": null, "distribution": "uniform", "mode": "fan_avg"}, "class_name": "VarianceScaling"}, "padding": "same", "filters": 512, "data_format": "channels_last", "kernel_constraint": null, "kernel_size": [1, 1], "strides": [1, 1], "activity_regularizer": null, "bias_constraint": null, "trainable": true, "use_bias": false, "bias_initializer": {"config": {}, "class_name": "Zeros"}}, "inbound_nodes": [[["conv_dw_6_relu", 0, 0, {}]]], "class_name": "Conv2D"}, {"name": "conv_pw_6_bn", "config": {"axis": -1, "scale": true, "name": "conv_pw_6_bn", "gamma_constraint": null, "beta_constraint": null, "momentum": 0.99, "gamma_regularizer": null, "trainable": true, "beta_initializer": {"config": {}, "class_name": "Zeros"}, "gamma_initializer": {"config": {}, "class_name": "Ones"}, "beta_regularizer": null, "epsilon": 0.001, "moving_mean_initializer": {"config": {}, "class_name": "Zeros"}, "moving_variance_initializer": {"config": {}, "class_name": "Ones"}, "center": true}, "inbound_nodes": [[["conv_pw_6", 0, 0, {}]]], "class_name": "BatchNormalization"}, {"name": "conv_pw_6_relu", "config": {"name": "conv_pw_6_relu", "trainable": true, "activation": "relu6"}, "inbound_nodes": [[["conv_pw_6_bn", 0, 0, {}]]], "class_name": "Activation"}, {"name": "conv_dw_7", "config": {"activation": "linear", "bias_regularizer": null, "depthwise_initializer": {"config": {"scale": 1.0, "seed": null, "distribution": "uniform", "mode": "fan_avg"}, "class_name": "VarianceScaling"}, "depth_multiplier": 1, "name": "conv_dw_7", "use_bias": false, "dilation_rate": [1, 1], "padding": "same", "depthwise_constraint": null, "data_format": "channels_last", "trainable": true, "kernel_size": [3, 3], "activity_regularizer": null, "strides": [1, 1], "bias_constraint": null, "depthwise_regularizer": null, "bias_initializer": {"config": {}, "class_name": "Zeros"}}, "inbound_nodes": [[["conv_pw_6_relu", 0, 0, {}]]], "class_name": "DepthwiseConv2D"}, {"name": "conv_dw_7_bn", "config": {"axis": -1, "scale": true, "name": "conv_dw_7_bn", "gamma_constraint": null, "beta_constraint": null, "momentum": 0.99, "gamma_regularizer": null, "trainable": true, "beta_initializer": {"config": {}, "class_name": "Zeros"}, "gamma_initializer": {"config": {}, "class_name": "Ones"}, "beta_regularizer": null, "epsilon": 0.001, "moving_mean_initializer": {"config": {}, "class_name": "Zeros"}, "moving_variance_initializer": {"config": {}, "class_name": "Ones"}, "center": true}, "inbound_nodes": [[["conv_dw_7", 0, 0, {}]]], "class_name": "BatchNormalization"}, {"name": "conv_dw_7_relu", "config": {"name": "conv_dw_7_relu", "trainable": true, "activation": "relu6"}, "inbound_nodes": [[["conv_dw_7_bn", 0, 0, {}]]], "class_name": "Activation"}, {"name": "conv_pw_7", "config": {"activation": "linear", "dilation_rate": [1, 1], "bias_regularizer": null, "name": "conv_pw_7", "kernel_regularizer": null, "kernel_initializer": {"config": {"scale": 1.0, "seed": null, "distribution": "uniform", "mode": "fan_avg"}, "class_name": "VarianceScaling"}, "padding": "same", "filters": 512, "data_format": "channels_last", "kernel_constraint": null, "kernel_size": [1, 1], "strides": [1, 1], "activity_regularizer": null, "bias_constraint": null, "trainable": true, "use_bias": false, "bias_initializer": {"config": {}, "class_name": "Zeros"}}, "inbound_nodes": [[["conv_dw_7_relu", 0, 0, {}]]], "class_name": "Conv2D"}, {"name": "conv_pw_7_bn", "config": {"axis": -1, "scale": true, "name": "conv_pw_7_bn", "gamma_constraint": null, "beta_constraint": null, "momentum": 0.99, "gamma_regularizer": null, "trainable": true, "beta_initializer": {"config": {}, "class_name": "Zeros"}, "gamma_initializer": {"config": {}, "class_name": "Ones"}, "beta_regularizer": null, "epsilon": 0.001, "moving_mean_initializer": {"config": {}, "class_name": "Zeros"}, "moving_variance_initializer": {"config": {}, "class_name": "Ones"}, "center": true}, "inbound_nodes": [[["conv_pw_7", 0, 0, {}]]], "class_name": "BatchNormalization"}, {"name": "conv_pw_7_relu", "config": {"name": "conv_pw_7_relu", "trainable": true, "activation": "relu6"}, "inbound_nodes": [[["conv_pw_7_bn", 0, 0, {}]]], "class_name": "Activation"}, {"name": "conv_dw_8", "config": {"activation": "linear", "bias_regularizer": null, "depthwise_initializer": {"config": {"scale": 1.0, "seed": null, "distribution": "uniform", "mode": "fan_avg"}, "class_name": "VarianceScaling"}, "depth_multiplier": 1, "name": "conv_dw_8", "use_bias": false, "dilation_rate": [1, 1], "padding": "same", "depthwise_constraint": null, "data_format": "channels_last", "trainable": true, "kernel_size": [3, 3], "activity_regularizer": null, "strides": [1, 1], "bias_constraint": null, "depthwise_regularizer": null, "bias_initializer": {"config": {}, "class_name": "Zeros"}}, "inbound_nodes": [[["conv_pw_7_relu", 0, 0, {}]]], "class_name": "DepthwiseConv2D"}, {"name": "conv_dw_8_bn", "config": {"axis": -1, "scale": true, "name": "conv_dw_8_bn", "gamma_constraint": null, "beta_constraint": null, "momentum": 0.99, "gamma_regularizer": null, "trainable": true, "beta_initializer": {"config": {}, "class_name": "Zeros"}, "gamma_initializer": {"config": {}, "class_name": "Ones"}, "beta_regularizer": null, "epsilon": 0.001, "moving_mean_initializer": {"config": {}, "class_name": "Zeros"}, "moving_variance_initializer": {"config": {}, "class_name": "Ones"}, "center": true}, "inbound_nodes": [[["conv_dw_8", 0, 0, {}]]], "class_name": "BatchNormalization"}, {"name": "conv_dw_8_relu", "config": {"name": "conv_dw_8_relu", "trainable": true, "activation": "relu6"}, "inbound_nodes": [[["conv_dw_8_bn", 0, 0, {}]]], "class_name": "Activation"}, {"name": "conv_pw_8", "config": {"activation": "linear", "dilation_rate": [1, 1], "bias_regularizer": null, "name": "conv_pw_8", "kernel_regularizer": null, "kernel_initializer": {"config": {"scale": 1.0, "seed": null, "distribution": "uniform", "mode": "fan_avg"}, "class_name": "VarianceScaling"}, "padding": "same", "filters": 512, "data_format": "channels_last", "kernel_constraint": null, "kernel_size": [1, 1], "strides": [1, 1], "activity_regularizer": null, "bias_constraint": null, "trainable": true, "use_bias": false, "bias_initializer": {"config": {}, "class_name": "Zeros"}}, "inbound_nodes": [[["conv_dw_8_relu", 0, 0, {}]]], "class_name": "Conv2D"}, {"name": "conv_pw_8_bn", "config": {"axis": -1, "scale": true, "name": "conv_pw_8_bn", "gamma_constraint": null, "beta_constraint": null, "momentum": 0.99, "gamma_regularizer": null, "trainable": true, "beta_initializer": {"config": {}, "class_name": "Zeros"}, "gamma_initializer": {"config": {}, "class_name": "Ones"}, "beta_regularizer": null, "epsilon": 0.001, "moving_mean_initializer": {"config": {}, "class_name": "Zeros"}, "moving_variance_initializer": {"config": {}, "class_name": "Ones"}, "center": true}, "inbound_nodes": [[["conv_pw_8", 0, 0, {}]]], "class_name": "BatchNormalization"}, {"name": "conv_pw_8_relu", "config": {"name": "conv_pw_8_relu", "trainable": true, "activation": "relu6"}, "inbound_nodes": [[["conv_pw_8_bn", 0, 0, {}]]], "class_name": "Activation"}, {"name": "conv_dw_9", "config": {"activation": "linear", "bias_regularizer": null, "depthwise_initializer": {"config": {"scale": 1.0, "seed": null, "distribution": "uniform", "mode": "fan_avg"}, "class_name": "VarianceScaling"}, "depth_multiplier": 1, "name": "conv_dw_9", "use_bias": false, "dilation_rate": [1, 1], "padding": "same", "depthwise_constraint": null, "data_format": "channels_last", "trainable": true, "kernel_size": [3, 3], "activity_regularizer": null, "strides": [1, 1], "bias_constraint": null, "depthwise_regularizer": null, "bias_initializer": {"config": {}, "class_name": "Zeros"}}, "inbound_nodes": [[["conv_pw_8_relu", 0, 0, {}]]], "class_name": "DepthwiseConv2D"}, {"name": "conv_dw_9_bn", "config": {"axis": -1, "scale": true, "name": "conv_dw_9_bn", "gamma_constraint": null, "beta_constraint": null, "momentum": 0.99, "gamma_regularizer": null, "trainable": true, "beta_initializer": {"config": {}, "class_name": "Zeros"}, "gamma_initializer": {"config": {}, "class_name": "Ones"}, "beta_regularizer": null, "epsilon": 0.001, "moving_mean_initializer": {"config": {}, "class_name": "Zeros"}, "moving_variance_initializer": {"config": {}, "class_name": "Ones"}, "center": true}, "inbound_nodes": [[["conv_dw_9", 0, 0, {}]]], "class_name": "BatchNormalization"}, {"name": "conv_dw_9_relu", "config": {"name": "conv_dw_9_relu", "trainable": true, "activation": "relu6"}, "inbound_nodes": [[["conv_dw_9_bn", 0, 0, {}]]], "class_name": "Activation"}, {"name": "conv_pw_9", "config": {"activation": "linear", "dilation_rate": [1, 1], "bias_regularizer": null, "name": "conv_pw_9", "kernel_regularizer": null, "kernel_initializer": {"config": {"scale": 1.0, "seed": null, "distribution": "uniform", "mode": "fan_avg"}, "class_name": "VarianceScaling"}, "padding": "same", "filters": 512, "data_format": "channels_last", "kernel_constraint": null, "kernel_size": [1, 1], "strides": [1, 1], "activity_regularizer": null, "bias_constraint": null, "trainable": true, "use_bias": false, "bias_initializer": {"config": {}, "class_name": "Zeros"}}, "inbound_nodes": [[["conv_dw_9_relu", 0, 0, {}]]], "class_name": "Conv2D"}, {"name": "conv_pw_9_bn", "config": {"axis": -1, "scale": true, "name": "conv_pw_9_bn", "gamma_constraint": null, "beta_constraint": null, "momentum": 0.99, "gamma_regularizer": null, "trainable": true, "beta_initializer": {"config": {}, "class_name": "Zeros"}, "gamma_initializer": {"config": {}, "class_name": "Ones"}, "beta_regularizer": null, "epsilon": 0.001, "moving_mean_initializer": {"config": {}, "class_name": "Zeros"}, "moving_variance_initializer": {"config": {}, "class_name": "Ones"}, "center": true}, "inbound_nodes": [[["conv_pw_9", 0, 0, {}]]], "class_name": "BatchNormalization"}, {"name": "conv_pw_9_relu", "config": {"name": "conv_pw_9_relu", "trainable": true, "activation": "relu6"}, "inbound_nodes": [[["conv_pw_9_bn", 0, 0, {}]]], "class_name": "Activation"}, {"name": "conv_dw_10", "config": {"activation": "linear", "bias_regularizer": null, "depthwise_initializer": {"config": {"scale": 1.0, "seed": null, "distribution": "uniform", "mode": "fan_avg"}, "class_name": "VarianceScaling"}, "depth_multiplier": 1, "name": "conv_dw_10", "use_bias": false, "dilation_rate": [1, 1], "padding": "same", "depthwise_constraint": null, "data_format": "channels_last", "trainable": true, "kernel_size": [3, 3], "activity_regularizer": null, "strides": [1, 1], "bias_constraint": null, "depthwise_regularizer": null, "bias_initializer": {"config": {}, "class_name": "Zeros"}}, "inbound_nodes": [[["conv_pw_9_relu", 0, 0, {}]]], "class_name": "DepthwiseConv2D"}, {"name": "conv_dw_10_bn", "config": {"axis": -1, "scale": true, "name": "conv_dw_10_bn", "gamma_constraint": null, "beta_constraint": null, "momentum": 0.99, "gamma_regularizer": null, "trainable": true, "beta_initializer": {"config": {}, "class_name": "Zeros"}, "gamma_initializer": {"config": {}, "class_name": "Ones"}, "beta_regularizer": null, "epsilon": 0.001, "moving_mean_initializer": {"config": {}, "class_name": "Zeros"}, "moving_variance_initializer": {"config": {}, "class_name": "Ones"}, "center": true}, "inbound_nodes": [[["conv_dw_10", 0, 0, {}]]], "class_name": "BatchNormalization"}, {"name": "conv_dw_10_relu", "config": {"name": "conv_dw_10_relu", "trainable": true, "activation": "relu6"}, "inbound_nodes": [[["conv_dw_10_bn", 0, 0, {}]]], "class_name": "Activation"}, {"name": "conv_pw_10", "config": {"activation": "linear", "dilation_rate": [1, 1], "bias_regularizer": null, "name": "conv_pw_10", "kernel_regularizer": null, "kernel_initializer": {"config": {"scale": 1.0, "seed": null, "distribution": "uniform", "mode": "fan_avg"}, "class_name": "VarianceScaling"}, "padding": "same", "filters": 512, "data_format": "channels_last", "kernel_constraint": null, "kernel_size": [1, 1], "strides": [1, 1], "activity_regularizer": null, "bias_constraint": null, "trainable": true, "use_bias": false, "bias_initializer": {"config": {}, "class_name": "Zeros"}}, "inbound_nodes": [[["conv_dw_10_relu", 0, 0, {}]]], "class_name": "Conv2D"}, {"name": "conv_pw_10_bn", "config": {"axis": -1, "scale": true, "name": "conv_pw_10_bn", "gamma_constraint": null, "beta_constraint": null, "momentum": 0.99, "gamma_regularizer": null, "trainable": true, "beta_initializer": {"config": {}, "class_name": "Zeros"}, "gamma_initializer": {"config": {}, "class_name": "Ones"}, "beta_regularizer": null, "epsilon": 0.001, "moving_mean_initializer": {"config": {}, "class_name": "Zeros"}, "moving_variance_initializer": {"config": {}, "class_name": "Ones"}, "center": true}, "inbound_nodes": [[["conv_pw_10", 0, 0, {}]]], "class_name": "BatchNormalization"}, {"name": "conv_pw_10_relu", "config": {"name": "conv_pw_10_relu", "trainable": true, "activation": "relu6"}, "inbound_nodes": [[["conv_pw_10_bn", 0, 0, {}]]], "class_name": "Activation"}, {"name": "conv_dw_11", "config": {"activation": "linear", "bias_regularizer": null, "depthwise_initializer": {"config": {"scale": 1.0, "seed": null, "distribution": "uniform", "mode": "fan_avg"}, "class_name": "VarianceScaling"}, "depth_multiplier": 1, "name": "conv_dw_11", "use_bias": false, "dilation_rate": [1, 1], "padding": "same", "depthwise_constraint": null, "data_format": "channels_last", "trainable": true, "kernel_size": [3, 3], "activity_regularizer": null, "strides": [1, 1], "bias_constraint": null, "depthwise_regularizer": null, "bias_initializer": {"config": {}, "class_name": "Zeros"}}, "inbound_nodes": [[["conv_pw_10_relu", 0, 0, {}]]], "class_name": "DepthwiseConv2D"}, {"name": "conv_dw_11_bn", "config": {"axis": -1, "scale": true, "name": "conv_dw_11_bn", "gamma_constraint": null, "beta_constraint": null, "momentum": 0.99, "gamma_regularizer": null, "trainable": true, "beta_initializer": {"config": {}, "class_name": "Zeros"}, "gamma_initializer": {"config": {}, "class_name": "Ones"}, "beta_regularizer": null, "epsilon": 0.001, "moving_mean_initializer": {"config": {}, "class_name": "Zeros"}, "moving_variance_initializer": {"config": {}, "class_name": "Ones"}, "center": true}, "inbound_nodes": [[["conv_dw_11", 0, 0, {}]]], "class_name": "BatchNormalization"}, {"name": "conv_dw_11_relu", "config": {"name": "conv_dw_11_relu", "trainable": true, "activation": "relu6"}, "inbound_nodes": [[["conv_dw_11_bn", 0, 0, {}]]], "class_name": "Activation"}, {"name": "conv_pw_11", "config": {"activation": "linear", "dilation_rate": [1, 1], "bias_regularizer": null, "name": "conv_pw_11", "kernel_regularizer": null, "kernel_initializer": {"config": {"scale": 1.0, "seed": null, "distribution": "uniform", "mode": "fan_avg"}, "class_name": "VarianceScaling"}, "padding": "same", "filters": 512, "data_format": "channels_last", "kernel_constraint": null, "kernel_size": [1, 1], "strides": [1, 1], "activity_regularizer": null, "bias_constraint": null, "trainable": true, "use_bias": false, "bias_initializer": {"config": {}, "class_name": "Zeros"}}, "inbound_nodes": [[["conv_dw_11_relu", 0, 0, {}]]], "class_name": "Conv2D"}, {"name": "conv_pw_11_bn", "config": {"axis": -1, "scale": true, "name": "conv_pw_11_bn", "gamma_constraint": null, "beta_constraint": null, "momentum": 0.99, "gamma_regularizer": null, "trainable": true, "beta_initializer": {"config": {}, "class_name": "Zeros"}, "gamma_initializer": {"config": {}, "class_name": "Ones"}, "beta_regularizer": null, "epsilon": 0.001, "moving_mean_initializer": {"config": {}, "class_name": "Zeros"}, "moving_variance_initializer": {"config": {}, "class_name": "Ones"}, "center": true}, "inbound_nodes": [[["conv_pw_11", 0, 0, {}]]], "class_name": "BatchNormalization"}, {"name": "conv_pw_11_relu", "config": {"name": "conv_pw_11_relu", "trainable": true, "activation": "relu6"}, "inbound_nodes": [[["conv_pw_11_bn", 0, 0, {}]]], "class_name": "Activation"}, {"name": "conv_dw_12", "config": {"activation": "linear", "bias_regularizer": null, "depthwise_initializer": {"config": {"scale": 1.0, "seed": null, "distribution": "uniform", "mode": "fan_avg"}, "class_name": "VarianceScaling"}, "depth_multiplier": 1, "name": "conv_dw_12", "use_bias": false, "dilation_rate": [1, 1], "padding": "same", "depthwise_constraint": null, "data_format": "channels_last", "trainable": true, "kernel_size": [3, 3], "activity_regularizer": null, "strides": [2, 2], "bias_constraint": null, "depthwise_regularizer": null, "bias_initializer": {"config": {}, "class_name": "Zeros"}}, "inbound_nodes": [[["conv_pw_11_relu", 0, 0, {}]]], "class_name": "DepthwiseConv2D"}, {"name": "conv_dw_12_bn", "config": {"axis": -1, "scale": true, "name": "conv_dw_12_bn", "gamma_constraint": null, "beta_constraint": null, "momentum": 0.99, "gamma_regularizer": null, "trainable": true, "beta_initializer": {"config": {}, "class_name": "Zeros"}, "gamma_initializer": {"config": {}, "class_name": "Ones"}, "beta_regularizer": null, "epsilon": 0.001, "moving_mean_initializer": {"config": {}, "class_name": "Zeros"}, "moving_variance_initializer": {"config": {}, "class_name": "Ones"}, "center": true}, "inbound_nodes": [[["conv_dw_12", 0, 0, {}]]], "class_name": "BatchNormalization"}, {"name": "conv_dw_12_relu", "config": {"name": "conv_dw_12_relu", "trainable": true, "activation": "relu6"}, "inbound_nodes": [[["conv_dw_12_bn", 0, 0, {}]]], "class_name": "Activation"}, {"name": "conv_pw_12", "config": {"activation": "linear", "dilation_rate": [1, 1], "bias_regularizer": null, "name": "conv_pw_12", "kernel_regularizer": null, "kernel_initializer": {"config": {"scale": 1.0, "seed": null, "distribution": "uniform", "mode": "fan_avg"}, "class_name": "VarianceScaling"}, "padding": "same", "filters": 1024, "data_format": "channels_last", "kernel_constraint": null, "kernel_size": [1, 1], "strides": [1, 1], "activity_regularizer": null, "bias_constraint": null, "trainable": true, "use_bias": false, "bias_initializer": {"config": {}, "class_name": "Zeros"}}, "inbound_nodes": [[["conv_dw_12_relu", 0, 0, {}]]], "class_name": "Conv2D"}, {"name": "conv_pw_12_bn", "config": {"axis": -1, "scale": true, "name": "conv_pw_12_bn", "gamma_constraint": null, "beta_constraint": null, "momentum": 0.99, "gamma_regularizer": null, "trainable": true, "beta_initializer": {"config": {}, "class_name": "Zeros"}, "gamma_initializer": {"config": {}, "class_name": "Ones"}, "beta_regularizer": null, "epsilon": 0.001, "moving_mean_initializer": {"config": {}, "class_name": "Zeros"}, "moving_variance_initializer": {"config": {}, "class_name": "Ones"}, "center": true}, "inbound_nodes": [[["conv_pw_12", 0, 0, {}]]], "class_name": "BatchNormalization"}, {"name": "conv_pw_12_relu", "config": {"name": "conv_pw_12_relu", "trainable": true, "activation": "relu6"}, "inbound_nodes": [[["conv_pw_12_bn", 0, 0, {}]]], "class_name": "Activation"}, {"name": "conv_dw_13", "config": {"activation": "linear", "bias_regularizer": null, "depthwise_initializer": {"config": {"scale": 1.0, "seed": null, "distribution": "uniform", "mode": "fan_avg"}, "class_name": "VarianceScaling"}, "depth_multiplier": 1, "name": "conv_dw_13", "use_bias": false, "dilation_rate": [1, 1], "padding": "same", "depthwise_constraint": null, "data_format": "channels_last", "trainable": true, "kernel_size": [3, 3], "activity_regularizer": null, "strides": [1, 1], "bias_constraint": null, "depthwise_regularizer": null, "bias_initializer": {"config": {}, "class_name": "Zeros"}}, "inbound_nodes": [[["conv_pw_12_relu", 0, 0, {}]]], "class_name": "DepthwiseConv2D"}, {"name": "conv_dw_13_bn", "config": {"axis": -1, "scale": true, "name": "conv_dw_13_bn", "gamma_constraint": null, "beta_constraint": null, "momentum": 0.99, "gamma_regularizer": null, "trainable": true, "beta_initializer": {"config": {}, "class_name": "Zeros"}, "gamma_initializer": {"config": {}, "class_name": "Ones"}, "beta_regularizer": null, "epsilon": 0.001, "moving_mean_initializer": {"config": {}, "class_name": "Zeros"}, "moving_variance_initializer": {"config": {}, "class_name": "Ones"}, "center": true}, "inbound_nodes": [[["conv_dw_13", 0, 0, {}]]], "class_name": "BatchNormalization"}, {"name": "conv_dw_13_relu", "config": {"name": "conv_dw_13_relu", "trainable": true, "activation": "relu6"}, "inbound_nodes": [[["conv_dw_13_bn", 0, 0, {}]]], "class_name": "Activation"}, {"name": "conv_pw_13", "config": {"activation": "linear", "dilation_rate": [1, 1], "bias_regularizer": null, "name": "conv_pw_13", "kernel_regularizer": null, "kernel_initializer": {"config": {"scale": 1.0, "seed": null, "distribution": "uniform", "mode": "fan_avg"}, "class_name": "VarianceScaling"}, "padding": "same", "filters": 1024, "data_format": "channels_last", "kernel_constraint": null, "kernel_size": [1, 1], "strides": [1, 1], "activity_regularizer": null, "bias_constraint": null, "trainable": true, "use_bias": false, "bias_initializer": {"config": {}, "class_name": "Zeros"}}, "inbound_nodes": [[["conv_dw_13_relu", 0, 0, {}]]], "class_name": "Conv2D"}, {"name": "conv_pw_13_bn", "config": {"axis": -1, "scale": true, "name": "conv_pw_13_bn", "gamma_constraint": null, "beta_constraint": null, "momentum": 0.99, "gamma_regularizer": null, "trainable": true, "beta_initializer": {"config": {}, "class_name": "Zeros"}, "gamma_initializer": {"config": {}, "class_name": "Ones"}, "beta_regularizer": null, "epsilon": 0.001, "moving_mean_initializer": {"config": {}, "class_name": "Zeros"}, "moving_variance_initializer": {"config": {}, "class_name": "Ones"}, "center": true}, "inbound_nodes": [[["conv_pw_13", 0, 0, {}]]], "class_name": "BatchNormalization"}, {"name": "conv_pw_13_relu", "config": {"name": "conv_pw_13_relu", "trainable": true, "activation": "relu6"}, "inbound_nodes": [[["conv_pw_13_bn", 0, 0, {}]]], "class_name": "Activation"}, {"name": "global_average_pooling2d_1", "config": {"data_format": "channels_last", "name": "global_average_pooling2d_1", "trainable": true}, "inbound_nodes": [[["conv_pw_13_relu", 0, 0, {}]]], "class_name": "GlobalAveragePooling2D"}, {"name": "reshape_1", "config": {"name": "reshape_1", "trainable": true, "target_shape": [1, 1, 1024]}, "inbound_nodes": [[["global_average_pooling2d_1", 0, 0, {}]]], "class_name": "Reshape"}, {"name": "dropout", "config": {"rate": 0.001, "noise_shape": null, "seed": null, "trainable": true, "name": "dropout"}, "inbound_nodes": [[["reshape_1", 0, 0, {}]]], "class_name": "Dropout"}, {"name": "conv_preds", "config": {"activation": "linear", "dilation_rate": [1, 1], "bias_regularizer": null, "name": "conv_preds", "kernel_regularizer": null, "kernel_initializer": {"config": {"scale": 1.0, "seed": null, "distribution": "uniform", "mode": "fan_avg"}, "class_name": "VarianceScaling"}, "padding": "same", "filters": 1000, "data_format": "channels_last", "kernel_constraint": null, "kernel_size": [1, 1], "strides": [1, 1], "activity_regularizer": null, "bias_constraint": null, "trainable": true, "use_bias": true, "bias_initializer": {"config": {}, "class_name": "Zeros"}}, "inbound_nodes": [[["dropout", 0, 0, {}]]], "class_name": "Conv2D"}, {"name": "act_softmax", "config": {"name": "act_softmax", "trainable": true, "activation": "softmax"}, "inbound_nodes": [[["conv_preds", 0, 0, {}]]], "class_name": "Activation"}, {"name": "reshape_2", "config": {"name": "reshape_2", "trainable": true, "target_shape": [1000]}, "inbound_nodes": [[["act_softmax", 0, 0, {}]]], "class_name": "Reshape"}], "input_layers": [["input_1", 0, 0]], "output_layers": [["reshape_2", 0, 0]], "name": "mobilenet_1.00_224"}, "class_name": "Model"}, "backend": "tensorflow", "keras_version": "2.1.4"}, "weightsManifest": [{"paths": ["group1-shard1of1"], "weights": [{"name": "conv1/kernel", "shape": [3, 3, 3, 32], "dtype": "float32"}]}, {"paths": ["group2-shard1of1"], "weights": [{"name": "conv1_bn/gamma", "shape": [32], "dtype": "float32"}, {"name": "conv1_bn/beta", "shape": [32], "dtype": "float32"}, {"name": "conv1_bn/moving_mean", "shape": [32], "dtype": "float32"}, {"name": "conv1_bn/moving_variance", "shape": [32], "dtype": "float32"}]}, {"paths": ["group3-shard1of1"], "weights": [{"name": "conv_dw_1/depthwise_kernel", "shape": [3, 3, 32, 1], "dtype": "float32"}]}, {"paths": ["group4-shard1of1"], "weights": [{"name": "conv_dw_10/depthwise_kernel", "shape": [3, 3, 512, 1], "dtype": "float32"}]}, {"paths": ["group5-shard1of1"], "weights": [{"name": "conv_dw_10_bn/gamma", "shape": [512], "dtype": "float32"}, {"name": "conv_dw_10_bn/beta", "shape": [512], "dtype": "float32"}, {"name": "conv_dw_10_bn/moving_mean", "shape": [512], "dtype": "float32"}, {"name": "conv_dw_10_bn/moving_variance", "shape": [512], "dtype": "float32"}]}, {"paths": ["group6-shard1of1"], "weights": [{"name": "conv_dw_11/depthwise_kernel", "shape": [3, 3, 512, 1], "dtype": "float32"}]}, {"paths": ["group7-shard1of1"], "weights": [{"name": "conv_dw_11_bn/gamma", "shape": [512], "dtype": "float32"}, {"name": "conv_dw_11_bn/beta", "shape": [512], "dtype": "float32"}, {"name": "conv_dw_11_bn/moving_mean", "shape": [512], "dtype": "float32"}, {"name": "conv_dw_11_bn/moving_variance", "shape": [512], "dtype": "float32"}]}, {"paths": ["group8-shard1of1"], "weights": [{"name": "conv_dw_12/depthwise_kernel", "shape": [3, 3, 512, 1], "dtype": "float32"}]}, {"paths": ["group9-shard1of1"], "weights": [{"name": "conv_dw_12_bn/gamma", "shape": [512], "dtype": "float32"}, {"name": "conv_dw_12_bn/beta", "shape": [512], "dtype": "float32"}, {"name": "conv_dw_12_bn/moving_mean", "shape": [512], "dtype": "float32"}, {"name": "conv_dw_12_bn/moving_variance", "shape": [512], "dtype": "float32"}]}, {"paths": ["group10-shard1of1"], "weights": [{"name": "conv_dw_13/depthwise_kernel", "shape": [3, 3, 1024, 1], "dtype": "float32"}]}, {"paths": ["group11-shard1of1"], "weights": [{"name": "conv_dw_13_bn/gamma", "shape": [1024], "dtype": "float32"}, {"name": "conv_dw_13_bn/beta", "shape": [1024], "dtype": "float32"}, {"name": "conv_dw_13_bn/moving_mean", "shape": [1024], "dtype": "float32"}, {"name": "conv_dw_13_bn/moving_variance", "shape": [1024], "dtype": "float32"}]}, {"paths": ["group12-shard1of1"], "weights": [{"name": "conv_dw_1_bn/gamma", "shape": [32], "dtype": "float32"}, {"name": "conv_dw_1_bn/beta", "shape": [32], "dtype": "float32"}, {"name": "conv_dw_1_bn/moving_mean", "shape": [32], "dtype": "float32"}, {"name": "conv_dw_1_bn/moving_variance", "shape": [32], "dtype": "float32"}]}, {"paths": ["group13-shard1of1"], "weights": [{"name": "conv_dw_2/depthwise_kernel", "shape": [3, 3, 64, 1], "dtype": "float32"}]}, {"paths": ["group14-shard1of1"], "weights": [{"name": "conv_dw_2_bn/gamma", "shape": [64], "dtype": "float32"}, {"name": "conv_dw_2_bn/beta", "shape": [64], "dtype": "float32"}, {"name": "conv_dw_2_bn/moving_mean", "shape": [64], "dtype": "float32"}, {"name": "conv_dw_2_bn/moving_variance", "shape": [64], "dtype": "float32"}]}, {"paths": ["group15-shard1of1"], "weights": [{"name": "conv_dw_3/depthwise_kernel", "shape": [3, 3, 128, 1], "dtype": "float32"}]}, {"paths": ["group16-shard1of1"], "weights": [{"name": "conv_dw_3_bn/gamma", "shape": [128], "dtype": "float32"}, {"name": "conv_dw_3_bn/beta", "shape": [128], "dtype": "float32"}, {"name": "conv_dw_3_bn/moving_mean", "shape": [128], "dtype": "float32"}, {"name": "conv_dw_3_bn/moving_variance", "shape": [128], "dtype": "float32"}]}, {"paths": ["group17-shard1of1"], "weights": [{"name": "conv_dw_4/depthwise_kernel", "shape": [3, 3, 128, 1], "dtype": "float32"}]}, {"paths": ["group18-shard1of1"], "weights": [{"name": "conv_dw_4_bn/gamma", "shape": [128], "dtype": "float32"}, {"name": "conv_dw_4_bn/beta", "shape": [128], "dtype": "float32"}, {"name": "conv_dw_4_bn/moving_mean", "shape": [128], "dtype": "float32"}, {"name": "conv_dw_4_bn/moving_variance", "shape": [128], "dtype": "float32"}]}, {"paths": ["group19-shard1of1"], "weights": [{"name": "conv_dw_5/depthwise_kernel", "shape": [3, 3, 256, 1], "dtype": "float32"}]}, {"paths": ["group20-shard1of1"], "weights": [{"name": "conv_dw_5_bn/gamma", "shape": [256], "dtype": "float32"}, {"name": "conv_dw_5_bn/beta", "shape": [256], "dtype": "float32"}, {"name": "conv_dw_5_bn/moving_mean", "shape": [256], "dtype": "float32"}, {"name": "conv_dw_5_bn/moving_variance", "shape": [256], "dtype": "float32"}]}, {"paths": ["group21-shard1of1"], "weights": [{"name": "conv_dw_6/depthwise_kernel", "shape": [3, 3, 256, 1], "dtype": "float32"}]}, {"paths": ["group22-shard1of1"], "weights": [{"name": "conv_dw_6_bn/gamma", "shape": [256], "dtype": "float32"}, {"name": "conv_dw_6_bn/beta", "shape": [256], "dtype": "float32"}, {"name": "conv_dw_6_bn/moving_mean", "shape": [256], "dtype": "float32"}, {"name": "conv_dw_6_bn/moving_variance", "shape": [256], "dtype": "float32"}]}, {"paths": ["group23-shard1of1"], "weights": [{"name": "conv_dw_7/depthwise_kernel", "shape": [3, 3, 512, 1], "dtype": "float32"}]}, {"paths": ["group24-shard1of1"], "weights": [{"name": "conv_dw_7_bn/gamma", "shape": [512], "dtype": "float32"}, {"name": "conv_dw_7_bn/beta", "shape": [512], "dtype": "float32"}, {"name": "conv_dw_7_bn/moving_mean", "shape": [512], "dtype": "float32"}, {"name": "conv_dw_7_bn/moving_variance", "shape": [512], "dtype": "float32"}]}, {"paths": ["group25-shard1of1"], "weights": [{"name": "conv_dw_8/depthwise_kernel", "shape": [3, 3, 512, 1], "dtype": "float32"}]}, {"paths": ["group26-shard1of1"], "weights": [{"name": "conv_dw_8_bn/gamma", "shape": [512], "dtype": "float32"}, {"name": "conv_dw_8_bn/beta", "shape": [512], "dtype": "float32"}, {"name": "conv_dw_8_bn/moving_mean", "shape": [512], "dtype": "float32"}, {"name": "conv_dw_8_bn/moving_variance", "shape": [512], "dtype": "float32"}]}, {"paths": ["group27-shard1of1"], "weights": [{"name": "conv_dw_9/depthwise_kernel", "shape": [3, 3, 512, 1], "dtype": "float32"}]}, {"paths": ["group28-shard1of1"], "weights": [{"name": "conv_dw_9_bn/gamma", "shape": [512], "dtype": "float32"}, {"name": "conv_dw_9_bn/beta", "shape": [512], "dtype": "float32"}, {"name": "conv_dw_9_bn/moving_mean", "shape": [512], "dtype": "float32"}, {"name": "conv_dw_9_bn/moving_variance", "shape": [512], "dtype": "float32"}]}, {"paths": ["group29-shard1of1"], "weights": [{"name": "conv_preds/kernel", "shape": [1, 1, 1024, 1000], "dtype": "float32"}, {"name": "conv_preds/bias", "shape": [1000], "dtype": "float32"}]}, {"paths": ["group30-shard1of1"], "weights": [{"name": "conv_pw_1/kernel", "shape": [1, 1, 32, 64], "dtype": "float32"}]}, {"paths": ["group31-shard1of1"], "weights": [{"name": "conv_pw_10/kernel", "shape": [1, 1, 512, 512], "dtype": "float32"}]}, {"paths": ["group32-shard1of1"], "weights": [{"name": "conv_pw_10_bn/gamma", "shape": [512], "dtype": "float32"}, {"name": "conv_pw_10_bn/beta", "shape": [512], "dtype": "float32"}, {"name": "conv_pw_10_bn/moving_mean", "shape": [512], "dtype": "float32"}, {"name": "conv_pw_10_bn/moving_variance", "shape": [512], "dtype": "float32"}]}, {"paths": ["group33-shard1of1"], "weights": [{"name": "conv_pw_11/kernel", "shape": [1, 1, 512, 512], "dtype": "float32"}]}, {"paths": ["group34-shard1of1"], "weights": [{"name": "conv_pw_11_bn/gamma", "shape": [512], "dtype": "float32"}, {"name": "conv_pw_11_bn/beta", "shape": [512], "dtype": "float32"}, {"name": "conv_pw_11_bn/moving_mean", "shape": [512], "dtype": "float32"}, {"name": "conv_pw_11_bn/moving_variance", "shape": [512], "dtype": "float32"}]}, {"paths": ["group35-shard1of1"], "weights": [{"name": "conv_pw_12/kernel", "shape": [1, 1, 512, 1024], "dtype": "float32"}]}, {"paths": ["group36-shard1of1"], "weights": [{"name": "conv_pw_12_bn/gamma", "shape": [1024], "dtype": "float32"}, {"name": "conv_pw_12_bn/beta", "shape": [1024], "dtype": "float32"}, {"name": "conv_pw_12_bn/moving_mean", "shape": [1024], "dtype": "float32"}, {"name": "conv_pw_12_bn/moving_variance", "shape": [1024], "dtype": "float32"}]}, {"paths": ["group37-shard1of1"], "weights": [{"name": "conv_pw_13/kernel", "shape": [1, 1, 1024, 1024], "dtype": "float32"}]}, {"paths": ["group38-shard1of1"], "weights": [{"name": "conv_pw_13_bn/gamma", "shape": [1024], "dtype": "float32"}, {"name": "conv_pw_13_bn/beta", "shape": [1024], "dtype": "float32"}, {"name": "conv_pw_13_bn/moving_mean", "shape": [1024], "dtype": "float32"}, {"name": "conv_pw_13_bn/moving_variance", "shape": [1024], "dtype": "float32"}]}, {"paths": ["group39-shard1of1"], "weights": [{"name": "conv_pw_1_bn/gamma", "shape": [64], "dtype": "float32"}, {"name": "conv_pw_1_bn/beta", "shape": [64], "dtype": "float32"}, {"name": "conv_pw_1_bn/moving_mean", "shape": [64], "dtype": "float32"}, {"name": "conv_pw_1_bn/moving_variance", "shape": [64], "dtype": "float32"}]}, {"paths": ["group40-shard1of1"], "weights": [{"name": "conv_pw_2/kernel", "shape": [1, 1, 64, 128], "dtype": "float32"}]}, {"paths": ["group41-shard1of1"], "weights": [{"name": "conv_pw_2_bn/gamma", "shape": [128], "dtype": "float32"}, {"name": "conv_pw_2_bn/beta", "shape": [128], "dtype": "float32"}, {"name": "conv_pw_2_bn/moving_mean", "shape": [128], "dtype": "float32"}, {"name": "conv_pw_2_bn/moving_variance", "shape": [128], "dtype": "float32"}]}, {"paths": ["group42-shard1of1"], "weights": [{"name": "conv_pw_3/kernel", "shape": [1, 1, 128, 128], "dtype": "float32"}]}, {"paths": ["group43-shard1of1"], "weights": [{"name": "conv_pw_3_bn/gamma", "shape": [128], "dtype": "float32"}, {"name": "conv_pw_3_bn/beta", "shape": [128], "dtype": "float32"}, {"name": "conv_pw_3_bn/moving_mean", "shape": [128], "dtype": "float32"}, {"name": "conv_pw_3_bn/moving_variance", "shape": [128], "dtype": "float32"}]}, {"paths": ["group44-shard1of1"], "weights": [{"name": "conv_pw_4/kernel", "shape": [1, 1, 128, 256], "dtype": "float32"}]}, {"paths": ["group45-shard1of1"], "weights": [{"name": "conv_pw_4_bn/gamma", "shape": [256], "dtype": "float32"}, {"name": "conv_pw_4_bn/beta", "shape": [256], "dtype": "float32"}, {"name": "conv_pw_4_bn/moving_mean", "shape": [256], "dtype": "float32"}, {"name": "conv_pw_4_bn/moving_variance", "shape": [256], "dtype": "float32"}]}, {"paths": ["group46-shard1of1"], "weights": [{"name": "conv_pw_5/kernel", "shape": [1, 1, 256, 256], "dtype": "float32"}]}, {"paths": ["group47-shard1of1"], "weights": [{"name": "conv_pw_5_bn/gamma", "shape": [256], "dtype": "float32"}, {"name": "conv_pw_5_bn/beta", "shape": [256], "dtype": "float32"}, {"name": "conv_pw_5_bn/moving_mean", "shape": [256], "dtype": "float32"}, {"name": "conv_pw_5_bn/moving_variance", "shape": [256], "dtype": "float32"}]}, {"paths": ["group48-shard1of1"], "weights": [{"name": "conv_pw_6/kernel", "shape": [1, 1, 256, 512], "dtype": "float32"}]}, {"paths": ["group49-shard1of1"], "weights": [{"name": "conv_pw_6_bn/gamma", "shape": [512], "dtype": "float32"}, {"name": "conv_pw_6_bn/beta", "shape": [512], "dtype": "float32"}, {"name": "conv_pw_6_bn/moving_mean", "shape": [512], "dtype": "float32"}, {"name": "conv_pw_6_bn/moving_variance", "shape": [512], "dtype": "float32"}]}, {"paths": ["group50-shard1of1"], "weights": [{"name": "conv_pw_7/kernel", "shape": [1, 1, 512, 512], "dtype": "float32"}]}, {"paths": ["group51-shard1of1"], "weights": [{"name": "conv_pw_7_bn/gamma", "shape": [512], "dtype": "float32"}, {"name": "conv_pw_7_bn/beta", "shape": [512], "dtype": "float32"}, {"name": "conv_pw_7_bn/moving_mean", "shape": [512], "dtype": "float32"}, {"name": "conv_pw_7_bn/moving_variance", "shape": [512], "dtype": "float32"}]}, {"paths": ["group52-shard1of1"], "weights": [{"name": "conv_pw_8/kernel", "shape": [1, 1, 512, 512], "dtype": "float32"}]}, {"paths": ["group53-shard1of1"], "weights": [{"name": "conv_pw_8_bn/gamma", "shape": [512], "dtype": "float32"}, {"name": "conv_pw_8_bn/beta", "shape": [512], "dtype": "float32"}, {"name": "conv_pw_8_bn/moving_mean", "shape": [512], "dtype": "float32"}, {"name": "conv_pw_8_bn/moving_variance", "shape": [512], "dtype": "float32"}]}, {"paths": ["group54-shard1of1"], "weights": [{"name": "conv_pw_9/kernel", "shape": [1, 1, 512, 512], "dtype": "float32"}]}, {"paths": ["group55-shard1of1"], "weights": [{"name": "conv_pw_9_bn/gamma", "shape": [512], "dtype": "float32"}, {"name": "conv_pw_9_bn/beta", "shape": [512], "dtype": "float32"}, {"name": "conv_pw_9_bn/moving_mean", "shape": [512], "dtype": "float32"}, {"name": "conv_pw_9_bn/moving_variance", "shape": [512], "dtype": "float32"}]}]}